CA04/checkpoints copy/checkpoint.pth (torch, 710925 bytes, 143 tensors)

Conv_BN_ReLU1.0.weight f4 [16, 3, 3, 3]
000000 66 4b 17 3e fc 7f 26 be dd 73 c6 3c 91 e6 96 bb
       0.14774856 -0.1625976 0.02422517 -0.0046051224
000010 a6 f8 d6 bd f7 2a 55 bd 73 ff e1 3b 05 17 60 3d
       -0.10496645 -0.052042928 0.006896907 0.054709453
000020 51 83 20 3d 91 0a 61 bd be d2 49 be c2 ef 1e be
       0.039187733 -0.054941718 -0.19709298 -0.15521148
000030 07 69 68 3d 41 0f 57 3d 78 3d 0a bd 60 91 cf 3d
       0.056740787 0.05250478 -0.033750027 0.1013515
000040 9d 79 76 3d 8b a5 0e 3e 39 da 40 3d 28 c7 4f be
       0.060174573 0.13930337 0.047083113 -0.20290816
000050 a1 21 34 3e b6 10 04 be 82 6a 9b bd c9 42 f1 bc
       0.17590953 -0.12897 -0.07588674 -0.029450791
000060 0a d6 cc bb 90 db db 3c c8 77 bf bc a5 70 76 3d
       -0.0062511014 0.026838094 -0.023372546 0.06016602
000070 d6 f7 2c 3e 3b b9 30 3e da 38 78 3d 5b e4 6d bc
       0.16891417 0.1725816 0.060601093 -0.014519776
000080 48 99 16 be 22 09 48 3d 5e 92 4c 3b 7a 09 4e 3e
       -0.1470691 0.048836835 0.0031215171 0.20120803
000090 dd 98 96 bd 7d 73 01 be 16 95 0b bd 35 32 14 3e
       -0.07353375 -0.12641712 -0.034077726 0.14472277
0000a0 b0 dd 35 be 4c 24 86 3d fb 93 b4 3b 58 97 9a 3d
       -0.17760348 0.06549892 0.0055108047 0.07548398
0000b0 f6 d4 c6 bd 16 5a ff bc 2f 22 d8 bd 4f c0 25 be
       -0.09708588 -0.031170886 -0.10553395 -0.16186641
0000c0 e2 ee ae bd 10 9b 90 bd db f1 01 bd ef 29 16 be
       -0.08541657 -0.07060826 -0.031724792 -0.14664434
0000d0 8a 4a 4c 3e e8 92 ca 3d 88 d7 15 bd c4 3e 0b 3d
       0.1995031 0.098913014 -0.0365825 0.033995405
0000e0 53 7c 0c be 15 f7 fa bd 9d 6e 21 be 3d 2b 53 bd
       -0.13719301 -0.122541584 -0.15764852 -0.051554907
0000f0 03 86 d4 3d 9a 7d 47 be e1 10 96 bd 44 0a b0 3d
       0.10377123 -0.19481507 -0.07327438 0.08595708
000100 13 2d 19 3e 6d bd 28 be a0 55 40 3e 62 04 4b 3d
       0.149586 -0.1647851 0.18782663 0.049564727
000110 fa a3 ea 3d 46 9f 3f bc e8 80 1b be 87 b0 d7 bd
       0.11457057 -0.011695689 -0.15185893 -0.10531717
000120 bb 72 2d 3e 8f 90 03 3e 39 4c 3f 3e 36 12 06 3e
       0.16938297 0.12848113 0.1868142 0.13092884
000130 36 c2 5d bd 76 ef b3 bd 15 c6 76 3d df 17 c5 3d
       -0.054140292 -0.08785908 0.0602475 0.09623694
000140 4f bd 06 be e5 9a c8 3c df 25 c1 bd 9b 2b ad 3c
       -0.13158153 0.024487922 -0.094310515 0.021138957
000150 99 8c ef bc 08 5b 2d be dd 76 91 bd b1 f6 07 be
       -0.029241847 -0.16929257 -0.071027495 -0.13277699
000160 f6 e2 f9 bd 4b 54 20 be c1 6d 86 bd 73 81 fc bd
       -0.122014925 -0.15657155 -0.06563903 -0.12329378
000170 91 f0 ec 3d 80 82 cc bd a0 3e b4 3c 4a 2e 13 3e
       0.11569322 -0.099858284 0.022002518 0.14373127
000180 b8 af 33 bd 56 88 c6 bb 7b c0 0b be 55 d9 5f 3c
       -0.04386875 -0.006058733 -0.13647644 0.013662656
000190 69 6e 39 3e 7a 2f cc 3c 6a 38 38 bd 6f 03 3f bd
       0.18108524 0.024924982 -0.044975676 -0.046634134
0001a0 6d 35 aa 3d a2 54 ef bd ab 1a 3c 3e 23 09 14 3e
       0.083109714 -0.11686064 0.18369548 0.1445661
0001b0 c4 7c df 3c 79 65 d8 bc 61 8a 8a 3b e6 a6 0f bd
       0.027281173 -0.026415573 0.004227922 -0.035071276
0001c0 ca 6d fc bd f9 aa d3 bc e2 dd 9e 3d e3 d3 0b 3e
       -0.12325628 -0.025838362 0.077571645 0.13655047
0001d0 a7 27 a8 3c 25 1e fd 3a 2f 8e 12 3e 53 94 77 be
       0.02052672 0.0019311352 0.14312051 -0.24177675
0001e0 5f 30 3b 3e c0 ab 22 3e db 67 1b be 72 64 39 bb
       0.18280171 0.1588583 -0.15176336 -0.002828863
0001f0 01 47 cc 3d 83 c0 67 be b7 01 c4 bd 6c 81 1c be
       0.099744804 -0.22632031 -0.095706396 -0.15283746
000200 8b f6 cf bd 98 8a a0 3c 20 ee a8 3d 82 f6 b2 3d
       -0.10154446 0.019597337 0.08248544 0.08738424
000210 ab 1a 49 3e 83 62 9d bd 23 be 06 3e e9 36 76 bd
       0.1963908 -0.07684805 0.13158469 -0.06011096
000220 66 a7 eb 3c 34 27 1e be 1a e8 b0 3d e6 b6 2a 3e
       0.028766345 -0.15444642 0.0863802 0.16671333
000230 3d ac 2e bc 06 6a 68 be 93 95 af 3d cf d0 b7 3b
       -0.010661182 -0.22696695 0.08573451 0.0056096087
000240 59 2c 81 bd 1f 2e dc 3d 90 2f 10 3e 11 9b d3 bc
       -0.06307287 0.107509844 0.14080644 -0.025830777
000250 f6 17 29 3d ad d0 30 be f1 45 e9 bd ab bd 0c bd
       0.041282617 -0.17267103 -0.113902934 -0.03436057
000260 8b 68 7f bd 04 93 e0 3d 41 7d 52 3e 9b 77 89 bd
       -0.06235556 0.10965541 0.20555593 -0.06712266
000270 36 06 b9 bd 1f 4b c5 bd 7b dc 4c 3e 69 14 8a 3c
       -0.09034388 -0.09633469 0.20005982 0.016855435
000280 9f c1 f3 bd 7c e1 56 bd ee 9a d2 3c 71 c1 a1 bc
       -0.11902165 -0.052461132 0.025708642 -0.01974556
000290 46 40 3d 3d e5 ce 72 3d 58 63 09 3e f5 b7 41 3d
       0.046203874 0.05927934 0.13416803 0.047294576
0002a0 8a 0b d2 3d e5 e7 4f be 38 8d 21 3e 4f ec 4a bd
       0.10256107 -0.20303304 0.15776527 -0.049541768
0002b0 4a 40 59 3d 1f ad 0e bd c7 42 65 be 63 61 5a be
       0.053039826 -0.03483307 -0.22388755 -0.21326213
0002c0 c4 76 d6 bd 89 51 4f be 55 6c 31 be 8c 3e 0e 3e
       -0.104718715 -0.20245947 -0.17326482 0.13891047
0002d0 68 54 30 3e 75 8b 9a 3c b5 0c d6 bd 96 2f 2c 3d
       0.17219698 0.018865326 -0.104516424 0.04203757
0002e0 5a d2 eb 3c 70 10 63 3d b8 2b 73 3c 14 46 0e 3d
       0.028786827 0.055435598 0.014841966 0.0347348
0002f0 d0 ef 14 3e b9 21 d3 bd 6c a5 af bd a6 ad 06 be
       0.14544606 -0.103091665 -0.085764736 -0.13152179
000300 84 6f 95 bd 87 9c 62 3d f6 a8 b5 3c 0d 50 18 3e
       -0.072966605 0.055325057 0.022175293 0.14874287
000310 fb 58 0c be 0d 68 06 3e cb da ef 3b 85 1e bc 3c
       -0.13705818 0.1312563 0.0073197833 0.022963772
000320 5f 3a 4f 3b 53 87 d5 3d 49 c8 10 3d 9b a7 b1 bc
       0.0031620485 0.10426202 0.035347257 -0.021686366
000330 52 26 cd 3d 0c 1d b2 3d c7 8b be 3d 2d 3d 67 bd
       0.10017075 0.086969465 0.09304004 -0.056454826
000340 dc 33 48 bc 0f e0 2e be ec 3e 37 be e1 2d 3a 3e
       -0.0122193955 -0.17077659 -0.17895097 0.18181564
000350 40 97 a7 bd ff e6 73 bd c9 f9 a8 bd cc b4 cf 3d
       -0.081831455 -0.059546467 -0.08250768 0.10141906
000360 21 65 06 be 4c 46 0c be 52 57 fe bd 8d 2a 11 be
       -0.13124515 -0.13698691 -0.12418999 -0.14176388
000370 4f 07 ab bb db d5 33 3d b8 f7 e8 3d 1e 83 0f 3e
       -0.005219377 0.04390512 0.113753736 0.14014861
000380 a5 3c 71 3e d3 56 2e 3d d3 5c 72 3c b1 ba 4e be
       0.2355829 0.04256327 0.014792639 -0.20188405
000390 1a d4 27 3e ee f1 73 bb 48 ce 20 3c c3 a7 c3 bd
       0.16389504 -0.0037223059 0.009814806 -0.095534824
0003a0 7b f8 c1 3d 67 32 77 3d 37 a4 86 bb c4 fe 93 3d
       0.09471222 0.0603508 -0.0041089314 0.07226327
0003b0 70 71 b1 bd df 95 61 bd 85 d5 1a bd 1c 94 56 bd
       -0.086642146 -0.05507457 -0.037801284 -0.05238734
0003c0 14 c3 52 bd 02 55 27 3e a1 8d 98 bc ab 5b 34 bd
       -0.051455572 0.16341022 -0.018622221 -0.044032734
0003d0 60 81 40 3e 27 42 b9 bc 7e 83 da 3c 93 4f 1e bb
       0.18799353 -0.022614552 0.026674028 -0.0024156317
0003e0 7e e4 10 bd 98 2b 2b 3d bd 9b b3 3d 70 1f bb bc
       -0.035374157 0.04178962 0.08769939 -0.022842139
0003f0 9a 4a 6c bd a8 79 0a 3d e2 6c c9 bb 88 6f 2e be
       -0.057688333 0.033807427 -0.006147013 -0.17034733

Conv_BN_ReLU1.0.bias f4 [16]
000000 56 10 94 bd 97 93 70 be 4d 41 0c be ea 77 46 3c
       -0.07229678 -0.23493801 -0.13696785 0.012113551
000010 22 6b 26 bd ff e9 b6 bd 4b 8e 06 bd e8 c6 74 bd
       -0.040629514 -0.0893135 -0.032850545 -0.059760004
000020 73 12 98 bd ba 19 e3 3d 10 8a 1b 3e 43 32 ec bd
       -0.07425394 0.11088891 0.15189385 -0.11533024
000030 52 0d f1 bc 3e ba bd bc b1 1a c0 3d b7 b4 c1 3c
       -0.029425297 -0.023160096 0.09380091 0.023645742

Conv_BN_ReLU1.1.weight f4 [16]
000000 29 54 64 3f 71 72 79 3f 8f 5c 85 3f 1b bc 6f 3f
       0.8919092 0.9744025 1.0418872 0.936464
000010 eb 37 6c 3f dd 58 6d 3f 51 d9 83 3f 43 68 73 3f
       0.92272824 0.9271372 1.0300695 0.95080966
000020 92 3f 89 3f 28 2f 81 3f 9f 3c 6d 3f 4f cd a3 3f
       1.0722525 1.0092516 0.92670625 1.279703
000030 52 a8 86 3f a9 cd 71 3f fe f1 80 3f 94 b5 86 3f
       1.0520117 0.9445444 1.007385 1.0524163

Conv_BN_ReLU1.1.bias f4 [16]
000000 86 6c e3 bd 0a 30 b2 3c 71 f1 c8 3b 50 a4 3e bd
       -0.111046836 0.021751422 0.0061322977 -0.04654342
000010 3c fb 14 3c 01 a1 22 be 62 44 8a 3c 94 e1 45 3d
       0.009093102 -0.1588173 0.01687831 0.04831083
000020 53 6f b4 3e 00 cd ee 3d 0d d4 dd bd 5b 6e a6 3e
       0.35241184 0.116601944 -0.10831461 0.3250607
000030 e8 fa 61 3e da 17 01 be 05 0b d1 3c d9 66 e2 3d
       0.2206837 -0.12606755 0.02551795 0.11054773

Conv_BN_ReLU1.1.running_mean f4 [16]
000000 92 f4 47 be c7 80 66 be 88 df 12 be 51 c5 5c be
       -0.1952689 -0.22510062 -0.14343083 -0.21559645
000010 38 be 8f 3b 02 7c 23 be be 63 93 bd db 22 b2 bd
       0.0043866895 -0.15965274 -0.07196759 -0.086980544
000020 20 f2 89 bd d2 8d a8 3d 4d 32 8f 3d 75 18 ee bd
       -0.06735635 0.08230175 0.06992016 -0.116257586
000030 0f 97 00 bc 8c bd ab 3e de 3d a2 3d 76 24 4d 3c
       -0.007848515 0.3354305 0.079219565 0.0125209

Conv_BN_ReLU1.1.running_var f4 [16]
000000 48 ba 03 3c 69 61 53 3b 3b 2a 04 3c 51 14 ab 3c
       0.008040018 0.0032254106 0.008066709 0.020883711
000010 e3 59 9a 3b 6f 58 70 3b 0c 7a 7b 3b ea 82 86 3b
       0.0047104224 0.0036673804 0.0038372306 0.0041049616
000020 3a c5 9a 3b d1 40 18 3b d5 0a 35 3c 54 d9 c4 3b
       0.0047232183 0.0023231993 0.011049946 0.006007353
000030 fa b0 e3 3b d5 66 51 3d dd 07 3e 3b f6 38 6e 3b
       0.0069485875 0.05112346 0.0028996386 0.003634987

Conv_BN_ReLU1.3.weight f4 [16, 16, 3, 3]
000000 a3 2d 8e bc 65 f1 85 bd fb 9d 97 bd f6 99 8c bd
       -0.017355746 -0.06540183 -0.07403179 -0.06865303
000010 34 c5 39 bb b2 cc df 3b c3 9a 3a 3d 59 2a fa bd
       -0.0028346302 0.0068298215 0.04555775 -0.122151084
000020 e0 95 b6 3c 66 c9 4d 3d 37 77 0d 3c d9 14 d6 bc
       0.022288263 0.050240897 0.00863438 -0.026132988
000030 94 1f 60 bd f6 10 34 bc f7 5b a2 3c ac fe c1 bc
       -0.054717615 -0.010990372 0.019819243 -0.023681007
000040 5d 55 d7 3c c0 fe a8 3d 62 c2 59 3d 92 ee 8d 3c
       0.026285822 0.08251715 0.053163894 0.017325673
000050 c3 c0 47 3c 18 c8 ab 3d c6 76 15 bd 71 4b 0f bc
       0.012191954 0.08387774 -0.036490224 -0.008746014
000060 eb e0 d7 bc b7 b7 31 3d 6c ff c6 bc c7 22 13 bd
       -0.026352366 0.043388095 -0.024291717 -0.035921838
000070 81 64 50 bc e0 9f 3d bd 6f a7 12 bc bf 92 a6 bd
       -0.0127192745 -0.046295047 -0.008951052 -0.08133458
000080 8e b0 b4 bd 04 a5 38 bd ea 93 d1 bb 1e c6 9c bd
       -0.08822738 -0.045079246 -0.0063958066 -0.07654975
000090 3e 87 d6 bb 0b 00 7d bd 0e 88 65 3d bf e2 73 3c
       -0.006546884 -0.06176762 0.056037955 0.014885603
0000a0 4c 5a 85 3d 9f 88 c1 3d 3f 82 bb 3d 31 d3 e1 3d
       0.065113634 0.094498865 0.09155702 0.1102661
0000b0 c9 0f 96 3d c5 c0 02 bd d9 9b f8 3c ce d0 ef bc
       0.073272295 -0.03192212 0.030347751 -0.02927437
0000c0 49 d4 b5 bd 93 41 aa 3d 29 3a 0c 3d a6 50 dd bd
       -0.08878381 0.083132885 0.034235153 -0.10806398
0000d0 35 38 f3 bc e9 bc 47 bc da c5 c9 3c 26 2c d9 3d
       -0.029689888 -0.012191036 0.024630476 0.10604124
0000e0 b0 f0 23 bc 4e 09 95 3d aa f6 10 bc a4 7b f3 3d
       -0.010006115 0.07277165 -0.008847872 0.11888817
0000f0 94 1e 7d 3d ab 26 46 bc c7 e6 30 bc b0 d4 70 3b
       0.06179674 -0.01209418 -0.010797209 0.0036747865
000100 e0 ec 2e 3d 03 11 21 3e c3 9f 01 3e cc 0f 24 3d
       0.04270637 0.15729146 0.126586 0.040054128
000110 ec b6 c3 bc 52 dc aa 3d 02 67 c2 3d ae d3 69 3d
       -0.023890935 0.08342804 0.094923034 0.05708664
000120 5a 15 4a 3d bc a4 89 3d 52 e9 54 3b 0c fb 59 bc
       0.04933677 0.06720874 0.0032487703 -0.013304483
000130 6b 31 cb bc dd a6 3a bd ca 22 b2 3b 94 dd d0 3c
       -0.024803838 -0.04556929 0.005436276 0.025496282
000140 1f 4b 02 3c f3 d0 3d 3c 69 84 71 3d 88 10 bd bd
       0.007952481 0.011585462 0.058964167 -0.09231669
000150 a8 bc 3a 3b 46 48 e4 bc 01 b8 39 3d 8f 1b 60 3d
       0.0028493796 -0.027866494 0.045341495 0.054713782
000160 0d 69 5d 3d 5e 13 ae bc 37 18 2f bd b5 a9 55 bd
       0.054055262 -0.02124947 -0.042747702 -0.0521638
000170 1b 2b 10 3c c3 cb 55 3d a7 a9 dc bd 64 38 99 bd
       0.00879934 0.052196275 -0.10774546 -0.07481459
000180 0e 5a 4f bd 5a 27 4d bd 32 7d 10 bb 5a d1 a2 bd
       -0.050622992 -0.050086357 -0.0022047278 -0.07950087
000190 33 11 f4 bd 99 ff 64 be 01 19 a2 bc b8 4b 36 be
       -0.11917343 -0.22363128 -0.019787313 -0.17802322
0001a0 ba 75 29 be 2f 54 bd bd 16 de 39 be d1 fa 14 be
       -0.16548815 -0.09244572 -0.18151125 -0.14548804
0001b0 d1 4a 9a bb a1 d1 c1 bd c1 c4 75 bc 5a 27 ba 3c
       -0.004708626 -0.09463812 -0.015000523 0.022723842
0001c0 d2 c0 24 bd fc 57 76 3d 29 82 e5 ba 0a 1d e2 3c
       -0.04022295 0.060142502 -0.0017510104 0.027601738
0001d0 28 94 b0 3d 50 64 f2 3d 89 aa ad 3d 45 39 34 3d
       0.086220086 0.11835539 0.084797926 0.04399993
0001e0 af 24 de 3d ea 72 66 3d e4 13 37 bd b2 51 e4 3c
       0.108468406 0.056261934 -0.044696704 0.027870987
0001f0 0b fc b6 3d c7 98 13 3d 02 7b 8b 3c 86 04 0d bd
       0.08934792 0.03603437 0.017026428 -0.034428142
000200 2c b3 6f bd ac 33 06 3d c9 55 98 bd 46 d5 c1 bc
       -0.05852048 0.032764122 -0.07438237 -0.023661267
000210 97 dd 8a bd a2 31 c4 bc ff 73 83 bc ff cf ff bd
       -0.06780546 -0.023949448 -0.016046522 -0.12490844
000220 71 20 f5 bd 5f fc f1 bd b2 b6 2f bd fe 6d de bd
       -0.11969078 -0.11815714 -0.04289884 -0.10860823
000230 4c 0e 82 bd f5 9a ef bd 7c 0d e7 bd d6 b3 47 be
       -0.06350383 -0.116994776 -0.11281869 -0.19502196
000240 04 90 44 bc 59 d2 c6 bd 92 27 1d 3c 60 7e 22 3d
       -0.011997227 -0.097080894 0.009591954 0.0396713
000250 28 67 46 3d 75 da 6a bd cc cf 95 3c 51 0b 12 3c
       0.04843822 -0.057337243 0.018287562 0.008913831
000260 d8 72 8a 3d c9 ab e4 bb df 08 8c bc 4d ad 21 bc
       0.06760186 -0.006978486 -0.017094074 -0.009867978
000270 10 d4 f6 3c 97 19 93 bd 67 ec 35 3d 45 87 f7 3b
       0.030130416 -0.07182615 0.044414904 0.007553967
000280 48 af 9d bd f2 4a c5 bd 6b 4a 8f bd 9f 25 9a bd
       -0.07699448 -0.09633435 -0.06996616 -0.07526707
000290 aa fa cd 3c 51 6a 88 3c 5b 7f 03 be 0f 33 ec 3c
       0.02514394 0.016652258 -0.12841551 0.02883294
0002a0 2a 80 db bc f6 00 02 be 4d c7 cb bd 92 b3 07 bd
       -0.026794512 -0.12695679 -0.09950123 -0.033130236
0002b0 bf f3 ac bd e6 5e 42 bd 43 b1 e6 bc 52 d3 91 3d
       -0.084449284 -0.047453783 -0.028160697 0.07120384
0002c0 d5 cc 68 3c 28 49 f9 bc 68 9d 80 3d c0 32 97 bd
       0.014208992 -0.030430391 0.06280023 -0.07382727
0002d0 bd 4a bb ba 67 ab e9 3b 28 fc d2 bd 55 71 06 bd
       -0.0014289242 0.0071310285 -0.10302001 -0.032822926
0002e0 b9 e7 97 3a 28 51 35 bd 29 a0 54 bd cc fa 9e bc
       0.0011589444 -0.04426685 -0.051910553 -0.019406699
0002f0 8b a7 02 be db 14 ff 3c 4b d5 bc bc 44 7e 32 bd
       -0.12759225 0.031137874 -0.023050925 -0.043577448
000300 f0 f6 4d bd 3b 55 21 3d 4c 09 9d bb 92 0f a6 bd
       -0.050284326 0.039387923 -0.004792368 -0.081084386
000310 3e 7a 2d 3d be 5a 5a bd 00 28 8c 3d 34 d3 d0 bc
       0.042352907 -0.053309195 0.06843567 -0.025491334
000320 58 e4 a4 bd 1c df 3a bd 42 1d 2a 3d 62 95 71 bd
       -0.080513656 -0.04562293 0.04153181 -0.058980353
000330 07 f9 3e bd f1 be 6e 3d 23 30 7b 3c 43 f7 72 3d
       -0.04662421 0.058287565 0.015331301 0.05931784
000340 5e 4f 19 3d da 5c 28 bd 7b ed f7 3c 29 7c c9 bc
       0.037429206 -0.041104175 0.030264607 -0.024595337
000350 23 a8 ab 3c 95 48 01 3b 62 c0 a8 3d c8 4a ea ba
       0.020954197 0.00197271 0.08239819 -0.001787507
000360 cd 16 0d bd 72 35 8f bd 67 9a 09 3d f7 c0 e1 bc
       -0.034445573 -0.06992616 0.033594515 -0.027557833
000370 e4 1c 36 3d 2e 50 48 bc e9 70 1c 3d 4e 81 d9 3c
       0.044461146 -0.012226148 0.038193617 0.026550915
000380 8d 0e 2a bd b0 d5 da ba bf df 60 bc 1d f9 9f 3d
       -0.041517783 -0.0016695764 -0.01372522 0.078111865
000390 86 95 a1 bd 39 2a 52 bc f8 3f 16 3d 74 b2 11 bd
       -0.078898475 -0.0128274495 0.0366821 -0.035570577
0003a0 0e 16 8c bd 64 67 5a bc 98 8a 2a bc 65 ad 3f 3d
       -0.06840144 -0.013330314 -0.01040902 0.04679622
0003b0 3c d9 90 3c 19 31 9e 3b d7 7a a2 bc 14 d3 8e 3d
       0.01768171 0.0048276302 -0.019833965 0.06973854
0003c0 cf c5 90 bd 17 18 27 bd de d5 85 bd 96 08 c5 3b
       -0.07068979 -0.04079446 -0.065349326 0.0060129864
0003d0 78 99 58 bd 0e 7a 02 bd 5b 2c 61 3c 3f 60 57 3b
       -0.052880734 -0.03185468 0.013743485 0.0032863764
0003e0 d5 62 3a bc 25 a7 bc 3d d7 29 35 3d a7 ec ad ba
       -0.011376102 0.09211568 0.044229355 -0.001326938
0003f0 45 e4 db bd 09 12 92 bd a1 bb c3 bb 61 84 a8 bd
       -0.10736898 -0.07132346 -0.005973295 -0.08228374

Conv_BN_ReLU1.3.bias f4 [16]
000000 f1 4a 8e 3d cb 61 4b bd 46 c9 22 3c 3b 57 8c bd
       0.06947888 -0.04965381 0.009935683 -0.068525754
000010 e7 7e a6 bc 8f cf 59 bd 8e 25 89 bd 85 e5 1a 3d
       -0.020324184 -0.05317646 -0.06696616 0.037816543
000020 fe 6f 00 3d c7 15 95 bc b6 d0 6c 3c 72 6c 6e bd
       0.031356804 -0.01819886 0.014454057 -0.05820889
000030 0e 95 5a 3c 03 b2 1b bd 8c 13 56 bd 22 16 19 bc
       0.0133412015 -0.038011562 -0.052264735 -0.009343656

Conv_BN_ReLU1.4.weight f4 [16]
000000 5b e5 6f 3f c5 04 85 3f 05 e1 74 3f f3 46 70 3f
       0.93709344 1.039208 0.9565585 0.9385826
000010 b3 16 7a 3f 24 d8 66 3f 6c 81 78 3f 2d 43 81 3f
       0.97690886 0.90173554 0.9707248 1.0098625
000020 76 62 7d 3f 8f 45 78 3f 80 2a 82 3f 07 ad 6e 3f
       0.98978364 0.9698114 1.016922 0.9323277
000030 52 33 80 3f 5c 98 87 3f 41 c0 73 3f 23 08 87 3f
       1.0015662 1.0593371 0.9521523 1.0549358

Conv_BN_ReLU1.4.bias f4 [16]
000000 3b 88 96 bd 5c 67 64 bd b3 0d f0 bd de de 28 be
       -0.07350203 -0.055762634 -0.11721363 -0.16491267
000010 21 03 70 bd a4 41 47 bd 4f 75 bf b8 ed ba 85 bd
       -0.058596734 -0.048646584 -9.12944e-05 -0.06529794
000020 08 e4 a8 bc 27 fb cf bd 4a 7b e3 bc 65 59 94 bd
       -0.020616546 -0.101553254 -0.02776875 -0.07243613
000030 2d 9d 85 3d 97 a5 79 bd 3c 68 17 be c3 ea 49 bd
       0.065241195 -0.060948934 -0.14785856 -0.04929615

Conv_BN_ReLU1.4.running_mean f4 [16]
000000 85 0f 24 bf df 96 42 bf dd 9f fd 3d bc e0 b7 3f
       -0.6408618 -0.7601146 0.12384007 1.4365458
000010 10 68 16 bf 81 18 a5 3c 3d 00 f1 be d8 53 eb bf
       -0.58752537 0.020153286 -0.47070494 -1.8384962
000020 2e 87 f0 be d2 b8 e5 bf 13 81 2f bf e0 7c fd be
       -0.46978134 -1.7947028 -0.68556327 -0.49509335
000030 a5 97 8a be a3 f5 fc be 20 2e 06 bf f9 1e ab be
       -0.2706882 -0.49406156 -0.5241413 -0.33422068

Conv_BN_ReLU1.4.running_var f4 [16]
000000 67 d8 a6 3f b8 0e 0f 3f b5 c6 21 3f 20 38 a4 3f
       1.3034791 0.55881834 0.6319383 1.2829628
000010 f9 43 04 3f b1 ca ce 3e 35 84 8c 3e 92 52 e7 3f
       0.5166622 0.40389016 0.27444616 1.8072073
000020 71 b3 71 3f 52 62 0d 40 f0 df 0f 3f 27 65 a4 3f
       0.9441443 2.209126 0.56201077 1.2843369
000030 6d 95 2b 3f d8 17 d7 3e c1 37 4f 3f 02 62 9f 3e
       0.6702488 0.4201038 0.8094445 0.31129462

Conv_BN_ReLU2.0.weight f4 [32, 16, 3, 3]
000000 d5 38 ad 3d 91 1f c7 bc 8c 5c b5 bd 1f 38 9e bd
       0.084581055 -0.024307044 -0.088555425 -0.07725548
000010 7f 26 88 3d 5b 30 04 bc 0e aa bf 3b c9 33 4a 3d
       0.066479675 -0.0080681695 0.0058491295 0.049365792
000020 67 fd 9a bd 67 77 76 bd 1a 93 36 bd 7c 57 11 be
       -0.07567864 -0.060172465 -0.04457388 -0.14193529
000030 17 d7 95 3c b4 24 b2 bc 1c 40 1b be e5 25 a0 bc
       0.01829104 -0.021746017 -0.15161175 -0.01954932
000040 d4 6f 41 bd 2d ac 19 3c 7c f9 a3 bd 96 2c 2a 3d
       -0.04722579 0.009379429 -0.0800657 0.041546427
000050 c9 22 97 3d 66 4b bb bd 03 dd 98 3d f0 54 ee 3d
       0.073796816 -0.091452405 0.0746403 0.11637294
000060 8d 66 d8 3a 5c cd e4 bc f2 a0 cf 3b 18 d4 fc bd
       0.0016510055 -0.027929954 0.006336325 -0.12345141
000070 55 14 a3 3d 54 d9 02 bd ce 41 0c bd bc d6 0b bd
       0.079628624 -0.03194554 -0.034242444 -0.034140334
000080 13 26 8e bd 63 9a 89 bd d1 8a cb bc 33 a0 a9 3d
       -0.06940856 -0.067189 -0.024846466 0.08282509
000090 e9 a1 fd 3c f2 d1 98 bd 64 1f 8e 3d 1f fa db 3d
       0.030960994 -0.07461919 0.06939581 0.10741066
0000a0 36 40 72 3a 71 74 34 3e 9c 73 a3 3d 96 aa 4d 3d
       0.00092411356 0.17622544 0.07981035 0.05021151
0000b0 e4 3e e3 3d 8b b0 60 bd 51 63 03 3e 47 26 79 3d
       0.1109598 -0.054855864 0.12830855 0.06082752
0000c0 90 3d c6 bc 24 5d aa bc 9e 53 a2 bd e1 b6 94 3c
       -0.024199277 -0.020796366 -0.07926105 0.01815361
0000d0 f6 aa 44 3c 49 29 e9 3d 6a 16 5a bc bd 67 02 3d
       0.012003651 0.11384828 -0.013311008 0.031837214
0000e0 38 24 9d bd 77 a5 b2 ba 43 cf 6a 3c 6c 76 8b bd
       -0.07672924 -0.0013629635 0.014331642 -0.068096966
0000f0 97 22 60 3d a0 3c 19 bd 90 e3 e1 bd cc c7 09 bd
       0.054720487 -0.037411332 -0.11029732 -0.033637807
000100 7a 2c 16 3e ca 68 00 3e ea 53 04 3e 1e 46 b3 3c
       0.14665404 0.12539974 0.12922636 0.02188402
000110 57 77 95 3d db c1 19 bd 1b 0a e7 3d f2 6b 01 bd
       0.07298153 -0.03753839 0.11281224 -0.031597085
000120 29 be a0 3d 4c 4a b3 bd 49 f8 12 3d 5f f1 52 bd
       0.0784877 -0.087544054 0.035881314 -0.05149972
000130 8f 5a fb bc 41 30 49 bd 36 38 4d 3c 7c 88 a1 bd
       -0.03068283 -0.049118284 0.012525609 -0.078873605
000140 7d fd ac bb 90 b5 d7 bb e0 32 87 bd 55 2a c8 bd
       -0.0052792416 -0.0065829232 -0.066015005 -0.09773699
000150 72 15 81 3c 2b 69 94 bc d4 5e a6 bd 8d ae f8 bc
       0.015757296 -0.018116554 -0.08123556 -0.03035667
000160 d5 3d c4 bd 7f a5 8b bd 39 0d 4b 3d 87 e5 f1 3c
       -0.09582106 -0.06818675 0.049573157 0.029528392
000170 d2 8e 09 3d 01 f0 d0 3d 22 c8 7a bd 9b 12 c6 3d
       0.03358347 0.10202027 -0.061226018 0.096715175
000180 b6 13 f9 3c eb db b7 bd 0b 5d b9 bd 3c d0 28 bb
       0.030404907 -0.08977493 -0.0905095 -0.0025758883
000190 ba 79 6c 3d c5 87 b5 bd 96 7d 5d bc ce dc ca bd
       0.057733275 -0.088637866 -0.013518712 -0.099053964
0001a0 93 e5 7e 3d 3f 7d 1d bd 2a 71 47 3d fa 79 3b 3b
       0.062230658 -0.038449522 0.048691906 0.002860664
0001b0 f2 14 d8 3d 62 cb 22 3e f5 f7 8f 3d d4 62 5d 3d
       0.1055087 0.15897897 0.07029716 0.054049328
0001c0 9c 97 9a 3c 31 b1 f7 bc 48 d1 6d bd 48 5f 4c bd
       0.018871121 -0.030235859 -0.058060914 -0.049895555
0001d0 01 5a 8c bc 53 98 56 3d 7e 0b 8c 3b b4 70 81 3a
       -0.017132761 0.05239136 0.004273831 0.0009875507
0001e0 68 d2 9c 3d f2 af a7 3c 32 41 79 bd 32 b3 f9 3c
       0.07657319 0.02046964 -0.06085319 0.030480955
0001f0 23 8b 85 bd 97 47 ad bc 0a 2e 70 bd 7a 64 1f 3d
       -0.06520679 -0.0211523 -0.058637656 0.03891418
000200 5d c8 04 3d dc cb ab bd 11 43 a4 ba d7 48 b9 bc
       0.032417644 -0.083884925 -0.0012532194 -0.02261774
000210 51 95 9e bc 17 7c 9c 3c de 9e 94 bd a6 35 a6 3d
       -0.019358309 0.01910214 -0.07256864 0.081157014
000220 4c e7 f7 3c 4d a3 bf 3c 4f ae df bc 21 2e 83 bd
       0.030261658 0.023393298 -0.027304797 -0.06405283
000230 1b 11 14 be 53 61 c5 3c aa 75 89 bc 07 c8 03 3d
       -0.1445965 0.02409426 -0.01677974 0.032173183
000240 a2 92 e2 3d 91 38 96 3c 46 40 af 3b c9 b1 0a 3d
       0.11063124 0.01833752 0.005348238 0.033860955
000250 34 12 ba bd 79 df 32 3d 02 a6 6d bc 09 2c 89 bc
       -0.09085503 0.04367015 -0.014504911 -0.01674463
000260 fe c1 c3 3d dd 36 b9 3d 84 9e d2 3d 09 76 a6 3d
       0.095584854 0.090436675 0.10284141 0.08127982
000270 1a 89 01 bd 10 05 4f 3d d6 9c b4 bc 14 2f 78 3d
       -0.03162489 0.050541937 -0.022047441 0.060591772
000280 c5 0d 26 3d ed 7f 9b bd 78 05 f7 bd 69 87 a5 bc
       0.040540475 -0.07592759 -0.1206159 -0.02020617
000290 72 6f a6 3d e2 d8 b9 bd ca d7 84 3d 9d ca 6c 3d
       0.08126725 -0.0907457 0.06486471 0.057810415
0002a0 6c 1a 8c 3d 4d 3b a2 bb 82 1e 2e 3d d2 1c b7 3d
       0.06840977 -0.004950917 0.042509563 0.08941044
0002b0 ae bd 91 3d 42 5e d8 3d 6c 78 b9 3d 05 39 b8 bc
       0.07116257 0.10564853 0.09056172 -0.022488127
0002c0 a5 27 ae 3a 0b a4 00 3b 7d 93 f7 3c 75 07 6d bd
       0.0013286961 0.0019629027 0.030221695 -0.05786844
0002d0 20 ea 09 3d a2 1c 7d bd bd ff 05 bd b6 08 9b 3c
       0.033670545 -0.061794885 -0.032714594 0.018925052
0002e0 3c 25 0e bc 3c 00 ef 3d 7b 50 3e bc c8 6d b8 3d
       -0.00867587 0.116699666 -0.011615868 0.09005314
0002f0 e3 89 da 3d ac 06 92 3b 4f f8 51 3d 9b b4 db ba
       0.10670831 0.0044563618 0.051262196 -0.0016762199
000300 27 67 d1 bd d9 d4 3c bc 58 66 f9 bd 9f 1e db 3c
       -0.10224753 -0.011525356 -0.12177724 0.026748
000310 4a 95 5f 3d f1 43 7a bd 1d 5d a7 3d 4f 1d 8c bc
       0.054585733 -0.06109995 0.08172057 -0.01710382
000320 9b d8 e6 bd 0f 19 16 3c 8b f5 8c 3d ef 14 c8 bd
       -0.11271783 0.009161248 0.06882771 -0.09769618
000330 74 96 82 3d 5b 21 cd bd 3c ca 9d 3c b2 fd be 3d
       0.06376353 -0.10016128 0.019261472 0.09325732
000340 8d 17 b6 3a 25 7a 4d 3d 4f d1 f3 3c 06 53 11 3a
       0.0013892517 0.050165314 0.029762892 0.00055436825
000350 52 29 3a 3e d1 db 86 3d 86 86 b1 bb b8 0d aa 3d
       0.18179825 0.065848954 -0.005417648 0.08303398
000360 6b 14 c7 bd 3d 51 aa bd a7 f9 74 bd 8b 9c bd 3c
       -0.09720691 -0.08316276 -0.0598084 0.023145935
000370 b5 9f 0f 3b cf f8 ff bb 4e 4e d8 3c ee a9 dd bd
       0.0021915261 -0.0078116427 0.026404526 -0.10823427
000380 ca 5e ec 3b 2a 71 e2 bc 9e 7e 91 bd 95 3e ff 3c
       0.007213448 -0.027641851 -0.071042284 0.031157771
000390 a8 d3 7b bc 55 36 7a 3d fe d0 60 bc 42 b9 40 3d
       -0.015370287 0.06108697 -0.013721703 0.047051676
0003a0 0a 5f 92 3d de a8 99 3d 44 9c e1 bc 75 54 30 3b
       0.071470335 0.07502912 -0.027540334 0.002690581
0003b0 0a 2f 59 3d 52 3f 8a 3d 5e 85 87 3d 66 a1 c2 3d
       0.053023376 0.06750359 0.06617235 0.095034406
0003c0 c7 cc ec 3c 7a 5d af bc 12 ec ee bc 94 8e 32 3c
       0.02890624 -0.021406878 -0.029165301 0.010898251
0003d0 7b 37 1a 3e ea 30 19 3e 38 a5 2d bd 65 65 b4 3d
       0.15060227 0.14960065 -0.042393893 0.08808402
0003e0 7a e4 46 bd 8b 16 10 3c 10 0e 31 bd 1b 97 19 3d
       -0.048557736 0.008794437 -0.0432263 0.03749762
0003f0 28 29 3c 3d 7d f1 d3 bd 8c ff 9a bd 8a c9 f4 3d
       0.045937687 -0.103487946 -0.07568273 0.11952503

Conv_BN_ReLU2.0.bias f4 [32]
000000 cd ee 91 bc 68 84 40 bd d5 c4 0e 3d 33 7a 97 bc
       -0.017814064 -0.047001272 0.034855682 -0.018490886
000010 f2 9e b7 bc 22 75 a7 3d 23 b7 8c 3c 73 1c b1 3d
       -0.022414658 0.08176638 0.01717717 0.086480044
000020 b9 5c 1f 3c 8d 23 1d bd 0f fc 4d 3d 1e de 53 bd
       0.009726697 -0.038363982 0.05028921 -0.0517255
000030 88 08 98 3d 51 31 7c bd 55 62 98 bd ae 9c f9 bc
       0.07423502 -0.06157047 -0.0744063 -0.030470219
000040 65 b2 09 bd a8 38 e6 3c 6f 39 30 bd 58 3c be bb
       -0.033617396 0.028103188 -0.043023523 -0.0058055334
000050 2e 15 fb bc b8 4a cc bc 8e f4 9e 3c c1 34 3c bd
       -0.030649748 -0.024937972 0.019403722 -0.045948748
000060 36 73 c6 bc 02 5b 16 3d 29 63 12 bd 54 cb de 3c
       -0.024224859 0.036707886 -0.035739098 0.027196564
000070 26 ca a7 bc 23 7e 30 bd ca 80 89 bd 8e 54 8d bd
       -0.020482134 -0.043089043 -0.06714018 -0.06900893

Conv_BN_ReLU2.1.weight f4 [32]
000000 ea 5a 80 3f 28 00 78 3f b0 11 70 3f f9 c8 64 3f
       1.0027745 0.9687524 0.9377699 0.8936916
000010 df f5 87 3f 20 44 81 3f 64 9f 83 3f 41 7f 88 3f
       1.0621909 1.0098915 1.0283017 1.0663835
000020 9e 41 76 3f fb 51 69 3f a0 59 7a 3f 80 64 82 3f
       0.96193874 0.9114072 0.97793007 1.018692
000030 0b 05 7a 3f cb dd 7a 3f 7a 4e 80 3f fe b2 78 3f
       0.97663945 0.9799468 1.0023949 0.9714812
000040 75 c0 87 3f d1 0e 8c 3f de 95 80 3f ea 8e 86 3f
       1.0605608 1.0942022 1.0045736 1.0512364
000050 24 a7 74 3f 84 fb 85 3f 91 c0 78 3f 01 78 6f 3f
       0.95567536 1.0467381 0.97168833 0.93542486
000060 6c 52 8d 3f cd 03 83 3f be ae 82 3f 72 94 77 3f
       1.1040778 1.0235535 1.0209577 0.96710885
000070 d5 36 80 3f 63 08 7d 3f 6a d7 85 3f 0a 33 9a 3f
       1.0016733 0.9884092 1.0456364 1.2046826

Conv_BN_ReLU2.1.bias f4 [32]
000000 72 63 e5 bb fc 47 8f bd 58 f3 96 bd 58 b6 32 be
       -0.00700038 -0.06996152 -0.07370633 -0.17452371
000010 75 88 04 bd f7 a8 c6 bc 9e 57 4e bd 68 1c 95 bd
       -0.032356698 -0.02425049 -0.050376527 -0.07280809
000020 29 37 f0 bc 4a 03 a7 bd 0e a0 14 bd af 0c 4d bd
       -0.029323177 -0.08154924 -0.036285453 -0.050060924
000030 59 54 8f bd f4 34 c0 bd 79 4d c7 bd 95 04 44 bd
       -0.0699851 -0.093851 -0.097315736 -0.047855932
000040 e8 d0 86 bd f8 3e 43 bc 47 5f be bd 62 29 03 3d
       -0.065828145 -0.011916868 -0.092955165 0.032021888
000050 0b 35 6b bd 96 ec 37 3c 71 87 bc bd ff 09 0b be
       -0.057423633 0.01122584 -0.09205521 -0.13578032
000060 b7 09 04 3d 55 28 a5 bd c6 e7 94 bd 5d af 10 be
       0.032235827 -0.08064333 -0.0727077 -0.14129396
000070 34 92 f8 bd d0 38 ff bd 04 43 02 bd 2d 5b a3 bd
       -0.12137261 -0.12462008 -0.031802192 -0.07976375

Conv_BN_ReLU2.1.running_mean f4 [32]
000000 da a8 83 bd bd ed dc 3e 57 d5 d4 be b8 59 2c be
       -0.0642869 0.4315013 -0.41569015 -0.168311
000010 74 80 15 bd ed 78 a7 be 01 8e 7b be ea ab 1e bf
       -0.036499456 -0.32709447 -0.24565889 -0.6198107
000020 7f 4d b3 be 7f ba 5d bf f6 90 35 bf 8b 33 08 3e
       -0.35020062 -0.86612695 -0.7092432 0.13300912
000030 5d c8 6b 3e 94 e3 e7 be 22 15 41 bf 0f 78 67 bf
       0.23025651 -0.45290816 -0.7542287 -0.9041757
000040 9d cf c5 3e 55 7c d7 be cc 8a f5 be 66 20 02 bf
       0.3863496 -0.42087045 -0.47957456 -0.50830686
000050 ad 6b 8d 3e 83 c7 7a bf ce 83 99 be b9 83 bc 3f
       0.27621213 -0.9796068 -0.29983371 1.4727699
000060 3c a4 1e bf 16 80 fb be 97 da 2a 3e c1 a7 8d 3e
       -0.6196935 -0.4912116 0.16684948 0.2766705
000070 ee 29 5a bf 2d 03 fb be 45 95 fc be cc f5 62 bf
       -0.8522023 -0.4902586 -0.49332634 -0.88656306

Conv_BN_ReLU2.1.running_var f4 [32]
000000 a6 ab 9a 3e b6 0b 9e 3e 75 7f f0 3e e6 c1 9a 3e
       0.30209082 0.3086831 0.46972242 0.30226058
000010 83 89 fd 3e 62 a8 69 3e 6c 97 50 3e f1 7a 9c 3e
       0.49518976 0.22818139 0.20370263 0.30562547
000020 05 32 d7 3e 93 0d c4 3e be ad ab 3e 72 33 dc 3e
       0.4203035 0.38291606 0.33530992 0.43008
000030 0a 9e fb 3e 28 19 d4 3e d3 23 ac 3e bc c0 11 3f
       0.49144012 0.41425443 0.33621082 0.56934714
000040 da a4 82 3e fb 0c 68 3e f7 5c cb 3e 77 da a7 3e
       0.25516397 0.22661202 0.39719364 0.32783863
000050 98 ba 9d 3e 77 88 ec 3e fd b0 12 3f a8 ab c6 3e
       0.30806422 0.46197864 0.5730131 0.38802838
000060 86 8e d0 3e 62 90 9c 3e 52 89 48 3e 76 59 c9 3e
       0.40733737 0.30578905 0.19583634 0.39326066
000070 02 73 ac 3e d9 fe ed 3e f3 91 91 3e f8 68 ae 3e
       0.33681494 0.46483496 0.28431663 0.3406446

Conv_BN_ReLU2.3.weight f4 [32, 32, 3, 3]
000000 a3 88 62 bd 46 5f 89 bd dc f6 b2 bd cd 7f ca bd
       -0.05530609 -0.06707625 -0.08738491 -0.09887657
000010 31 8d 8a bd f5 d5 2b bd 9a 00 f7 3b 49 1b 74 bd
       -0.067652114 -0.041952092 0.0075379135 -0.059596334
000020 0b a8 52 bb fc ce c1 3b 39 90 0b bd fd 06 85 bd
       -0.0032143618 0.005914567 -0.03407309 -0.064954735
000030 52 9e 64 bd d3 23 4b 3d 8c 4e 04 3d 80 ba 21 bd
       -0.05581505 0.04959471 0.03230147 -0.0394845
000040 e5 e2 9f ba ed 4c 0b 3c d5 33 84 bc 0c 9d 13 3d
       -0.0012198357 0.008502227 -0.016137997 0.036038443
000050 3a db 4e 3c 8c fd 81 bd 03 7b 4f 3a da be 78 3d
       0.01262551 -0.06347188 0.00079147535 0.060728885
000060 23 f3 a5 bd b3 bb 1b bd d1 43 fd 3c da 31 0a 3d
       -0.08103015 -0.0380208 0.030916126 0.03373895
000070 95 04 34 3d 66 c6 4a 3d cf 1c 19 bd 41 c0 de 3c
       0.043949682 0.049505614 -0.03738099 0.027191283
000080 d7 16 a0 bc 50 0d 1b 3b 35 14 81 3d a1 5e f1 3c
       -0.01954214 0.0023659058 0.06302682 0.029464068
000090 77 7f 1d bd f8 f0 b2 bd 16 33 89 3c 2e 45 e9 bc
       -0.038451638 -0.087373674 0.016747992 -0.02847537
0000a0 a6 fb c5 bc 4f f5 dc bc 97 98 5c 3c d8 87 cc 3a
       -0.024167847 -0.026972441 0.013464115 0.001560445
0000b0 26 a0 3c bd 91 39 fb bc 1a 5c b1 bc 65 d6 09 bd
       -0.046051167 -0.030667098 -0.021650363 -0.03365173
0000c0 9b 63 03 3c 64 70 1c 3d ad 54 05 bc fb d0 d9 bc
       0.008019353 0.03819312 -0.008137864 -0.026588907
0000d0 0a f7 0e 3c d6 2a 36 bd 7b 3e c9 3c 30 88 a9 3d
       0.008725891 -0.044474445 0.024565926 0.08277929
0000e0 d5 eb 92 bd ca a5 08 3d b0 ed 1c bd c1 fd a9 bd
       -0.07173888 0.033361234 -0.038312614 -0.08300353
0000f0 51 65 9e 3d 01 36 16 bd 27 eb da bd 18 c7 76 bc
       0.07734168 -0.036672596 -0.10689383 -0.015062116
000100 01 67 7f 3b 69 31 a5 bc db 10 20 3d 6f e0 db bc
       0.0038971307 -0.020165162 0.039078575 -0.026840417
000110 79 b9 f8 3a ed 30 51 3d 85 3e 2f bc b8 d0 59 3c
       0.0018976174 0.05107205 -0.010696058 0.013294391
000120 e5 6a 9d 3d d1 eb 1d 3d f0 32 46 bd f8 38 a9 3d
       0.07686404 0.03855497 -0.04838842 0.08262819
000130 90 59 87 3d 12 72 01 bd e1 19 c6 3c 05 aa 1c bb
       0.066088796 -0.031602927 0.024182262 -0.002390505
000140 7b de e2 3c 98 29 47 3a 92 55 b9 3d 9e 1e 8c 3d
       0.027693978 0.00075974455 0.09049524 0.06841777
000150 a7 98 19 3d 7f 60 b5 3b e5 56 38 bc a9 39 51 3d
       0.037499096 0.005535185 -0.011251186 0.05108038
000160 cc 16 93 3c a5 f5 b1 bc 3c 4a 7a 3d f6 30 ee 3c
       0.017955206 -0.021723578 0.06110595 0.02907608
000170 78 49 c0 bc 0d 3c 6c bc a5 48 9b bd 5f 03 8e bc
       -0.023472533 -0.014418614 -0.07582215 -0.017335592
000180 19 df 85 3d 32 4a b9 bc 59 61 cb 3b 25 c5 2d bd
       0.06536693 -0.022618387 0.006206673 -0.04242434
000190 52 f1 e4 bc a8 5e 40 3d b2 2b cf bd 59 ae a9 bc
       -0.027947102 0.04696527 -0.10115756 -0.020713018
0001a0 05 8a ab 3b ee 48 b0 bd b4 e9 27 bd 89 2f 01 3b
       0.005234959 -0.0860766 -0.04099436 0.001971217
0001b0 d5 7b 71 bd c9 bd 0f bc 93 6c a2 bb a6 30 83 bd
       -0.058955986 -0.008773276 -0.0049567907 -0.06405763
0001c0 4a b9 19 3d b3 80 12 3d 05 f7 0d 3d 51 6f 58 bd
       0.03753022 0.03576727 0.034659404 -0.052840535
0001d0 09 b8 ba bc f7 ab 4b bd 87 a6 b3 3c b2 f0 85 bd
       -0.022792833 -0.049724545 0.021929992 -0.065400496
0001e0 9f 90 33 3d 04 6e 97 bc 48 7d e4 bd ea fd 4e bb
       0.043839093 -0.018485077 -0.11156708 -0.003158445
0001f0 69 c2 0d bc ce 3e 52 3c ed 9e d6 3b 24 ab cf bc
       -0.008652308 0.012832357 0.006549707 -0.02535016
000200 65 0a 45 bd a0 09 d8 bd 99 60 2c 3b 75 25 31 3d
       -0.048105616 -0.10548711 0.0026302694 0.043248612
000210 8a c4 7f bd a5 77 00 3d 3c a0 89 3c 9e d1 d0 3c
       -0.062443294 0.031364102 0.016800039 0.025490578
000220 3b aa b0 ba 29 5c 69 bb 81 9a 11 bd c0 3b f1 bc
       -0.0013478467 -0.003560791 -0.035547737 -0.029447436
000230 10 10 f6 3b 75 70 41 3d db 83 17 bc 95 d4 24 3d
       0.007509239 0.047226388 -0.009247745 0.040241797
000240 5d c4 0d 3d cb 02 ef bb 56 5c 93 3d 18 45 1c 3d
       0.034611095 -0.007294034 0.07195346 0.03815183
000250 d5 a2 27 3c a2 5e 34 bd 17 aa db bc 31 86 00 3d
       0.010231693 -0.04403556 -0.026814504 0.031377975
000260 aa 60 78 bc 32 65 97 bc 25 bf be 3d 63 62 0c 3d
       -0.015159765 -0.01848087 0.09313802 0.034273516
000270 a3 a3 cf bc a4 61 3e 3d 74 0a 01 3e 88 1d f4 3c
       -0.025346583 0.046479836 0.12601644 0.029799238
000280 2f 20 aa 3d 39 f1 9b 3d 33 11 7f bd 80 fb f0 3c
       0.0830692 0.07614369 -0.06227226 0.0294168
000290 f8 59 3a bd 9c 5e b8 bd 7f a3 dc 3c ce ab 0d 3c
       -0.045495957 -0.0900242 0.02693343 0.008646918
0002a0 59 a1 07 3d 5b 54 2d 3d 6c c4 e8 3c a9 18 a2 3d
       0.033112857 0.042316776 0.028413974 0.0791486
0002b0 0d 53 00 3e b8 b3 da 3d 0a fa 45 3d 65 50 e3 3d
       0.12531681 0.1067881 0.04833416 0.110993184
0002c0 1b ed c0 3d e9 0b 3a bd fa c4 a0 3d 4a e3 f3 3d
       0.09420224 -0.045421515 0.0785007 0.11908586
0002d0 1c e9 4c 3d ad 6a 4c bc ab f4 b5 bc a3 f6 87 bc
       0.050026998 -0.012476605 -0.022211393 -0.016597098
0002e0 6c 42 ec bc 2d e4 ae 3c 99 65 ed 3b 96 b3 8d bd
       -0.028840266 0.021349037 0.0072447774 -0.06919019
0002f0 c3 32 e3 bc b0 16 86 3d 01 4e bf 3c 39 4e 49 bc
       -0.027734166 0.06547296 0.023352625 -0.012286716
000300 5f cd af 3c 60 7f e1 bc e7 1f 40 bd 2f 23 d5 3d
       0.021460233 -0.027526557 -0.046905424 0.10407101
000310 a1 56 bb bc 97 cb 87 bd 09 0f d5 3c ad b9 a1 bc
       -0.022868456 -0.066306286 0.026008146 -0.019741857
000320 c8 fd 32 3d f6 2d f7 3c ff eb f4 bb f8 6c 26 3d
       0.043699056 0.030173283 -0.007474422 0.040631264
000330 34 72 af bc bc d3 33 3d 61 61 66 3c c9 84 45 bd
       -0.021416761 0.043903098 0.014061303 -0.048222337
000340 b5 e7 d2 3c a2 87 57 3d 07 c5 97 bd 7c 27 01 bd
       0.025745252 0.052619584 -0.07410627 -0.031531796
000350 b9 a8 bd bb eb 88 8a bd 4c cf b3 3c e1 e6 b1 3b
       -0.0057879356 -0.06764396 0.021949433 0.0054291342
000360 e6 37 82 bd a7 37 e4 bd 90 dd 4c bd fb 27 98 bd
       -0.06358318 -0.11143427 -0.050015986 -0.07429501
000370 7f 94 1f be 4e 5f a8 bd 2a 8c 6c bd 38 f8 cf bd
       -0.1558399 -0.08221303 -0.05775086 -0.10154766
000380 2d d2 90 bd 6d 79 6a bd 5c 14 a6 bb 2d d9 0b 3c
       -0.07071338 -0.057244707 -0.005068345 0.008535665
000390 5e 7d 96 3b 15 ca d2 3b d4 58 68 3c 9a 09 ee 39
       0.0045925817 0.0064327815 0.0141813345 0.0004540205
0003a0 a8 7e 18 3d e9 85 91 3d be ff da bb e5 69 27 bd
       0.037230164 0.071056195 -0.006683319 -0.040872473
0003b0 36 d9 8e 3d 71 31 2d bd 97 92 3d bc b3 04 b3 3d
       0.069750234 -0.04228348 -0.011570594 0.08741131
0003c0 0c 00 7a bd 3e 5b f2 bc 49 c3 60 3d ae 68 0d 3d
       -0.0610352 -0.029584523 0.05487374 0.03452366
0003d0 ca 50 b8 bb 65 36 09 3d 02 67 84 3d d2 8d 4f 3d
       -0.005624865 0.03349914 0.0646496 0.05067236
0003e0 fe 65 91 3c 9d 84 a9 3d 12 20 f6 3c cf bd 70 3d
       0.017748829 0.08277247 0.03004459 0.058774766
0003f0 20 2c 0a 3b a3 f4 24 3d 68 c8 2f bc e2 44 68 bd
       0.002108343 0.040272366 -0.010728933 -0.056706317

Conv_BN_ReLU2.3.bias f4 [32]
000000 56 62 4c 3d bf 5b c3 bc 58 63 6f 3d 6c 18 ef 3c
       0.049898468 -0.023847459 0.05844435 0.02918645
000010 f5 6d b4 3c 25 fa 08 bd 0f d3 00 bc 47 58 69 bd
       0.022025088 -0.03344168 -0.00786282 -0.056968953
000020 9d 8f 25 bd 08 91 54 bd 35 56 2d 3c cd bf 55 bd
       -0.040420163 -0.051896125 0.010579635 -0.05218487
000030 7f 6f 76 3d 52 75 7a 3c 45 10 36 3d 97 74 20 3c
       0.060164925 0.01528676 0.04444911 0.009793422
000040 43 5d c2 bb cc 93 db bc a1 aa 3a 3d be 14 1d 3d
       -0.005931528 -0.026803873 0.04557288 0.03834986
000050 b8 89 2a bc ce e2 62 3d 7e ad 20 3c 25 47 ac ba
       -0.010408811 0.05539208 0.009806989 -0.0013143761
000060 c9 d5 44 bd 75 17 16 3d 17 18 93 bc 92 9b 5a 3d
       -0.048055444 0.036643464 -0.017955823 0.05337102
000070 64 98 a2 bc ba 57 0e 3c 2d d1 f8 bc 6b 4f 9f 3c
       -0.019848056 0.008687908 -0.03037318 0.01944705

Conv_BN_ReLU2.4.weight f4 [32]
000000 5e b4 73 3f 7f d4 75 3f f4 32 88 3f 51 30 73 3f
       0.95197093 0.9602737 1.064055 0.949956
000010 78 a8 7c 3f ff 27 70 3f 73 e6 86 3f 55 f5 80 3f
       0.9869456 0.9381103 1.0539078 1.0074869
000020 34 71 7e 3f 72 65 71 3f 74 ec 85 3f 4e 85 7a 3f
       0.99391484 0.9429542 1.0462785 0.97859657
000030 e6 d9 82 3f 85 f4 79 3f 66 17 74 3f 89 cd 79 3f
       1.0222747 0.9763873 0.95348203 0.97579247
000040 7b 9d 75 3f b4 2e 67 3f bd 83 70 3f ea 0a 6e 3f
       0.9594342 0.9030564 0.93951017 0.92985404
000050 c9 88 7d 3f e5 90 71 3f bd 3a 80 3f f4 ab 84 3f
       0.9903684 0.94361717 1.0017926 1.0364976
000060 38 5c 78 3f da 41 8a 3f 08 bd 7c 3f 9a 03 81 3f
       0.97015715 1.0801346 0.9872594 1.0079224
000070 d0 55 80 3f 00 11 73 3f 7f c2 6a 3f 3d c3 6e 3f
       1.0026188 0.94947815 0.9170303 0.9326666

Conv_BN_ReLU2.4.bias f4 [32]
000000 f8 57 4c be bb ac 91 be 1b 2c ca bd 7c 75 af bd
       -0.19955432 -0.28452095 -0.09871694 -0.0856733
000010 58 b8 fb bd df 11 fb bd 6a 0d 93 bc d1 b7 ad bd
       -0.1229102 -0.12259268 -0.017950732 -0.08482326
000020 4f 24 00 be 24 46 a8 bd 99 85 4a bd 2b 6d 7e bd
       -0.1251385 -0.08216503 -0.049443815 -0.06211583
000030 63 69 ac bd 60 d4 f6 bd df 89 51 be a0 d3 03 be
       -0.084185384 -0.12052226 -0.2046275 -0.12873697
000040 bf 86 b9 bd f4 d4 12 be e1 25 07 be c3 52 2b be
       -0.09058904 -0.14339048 -0.13198043 -0.1673079
000050 05 61 7c bd 41 69 17 be 35 c9 03 be 8e 09 6b bd
       -0.061615963 -0.14786245 -0.12869723 -0.05738216
000060 bd 33 fb bd 8a 1c 35 be cf 83 1b be ef 4d 6e bd
       -0.12265728 -0.17686668 -0.15187 -0.058179792
000070 47 41 eb bd 9c 1f 30 be 2b b1 df bd 98 6c f4 bd
       -0.1148706 -0.17199558 -0.10922464 -0.11934775

Conv_BN_ReLU2.4.running_mean f4 [32]
000000 54 84 2b 3d 07 c0 02 bf 31 b7 fb bd 04 79 53 bf
       0.041874245 -0.5107426 -0.122908 -0.8260653
000010 cf 76 1e bf 59 c5 e9 be 60 a9 0e bf 39 fe 69 bf
       -0.6190004 -0.45658377 -0.55727196 -0.9140354
000020 7e c4 0d bf f9 5e bd bc bf b4 af be 6a fa 30 bf
       -0.5537795 -0.023116576 -0.34317586 -0.691321
000030 4b 4c 85 3d ae 87 b5 3e 8c d0 aa bf 80 a2 46 bf
       0.06508692 0.35455078 -1.3344893 -0.77591705
000040 cd 63 4f bf 42 89 8b be 37 d3 1c 3f e0 49 85 3f
       -0.8101166 -0.27253157 0.6125979 1.041317
000050 55 90 2a 3e 9d db 69 bc 55 49 2a bf 94 64 c3 be
       0.16656621 -0.014273551 -0.66518146 -0.38162673
000060 71 1c 73 bf 7b 3d b0 3d bf c1 2e bf 79 6b 7e bf
       -0.94965273 0.086054765 -0.68264383 -0.9938274
000070 42 ae c9 3d 26 77 50 bf 6f 20 b9 be 7c 7d 06 3e
       0.0984769 -0.81431806 -0.36157557 0.13133806

Conv_BN_ReLU2.4.running_var f4 [32]
000000 46 a2 2d 3f e9 8c e2 3e 9c 59 0d 3f ce 51 48 3f
       0.67825735 0.4424813 0.5521486 0.78249824
000010 2c 23 31 3f c3 d5 62 3f 79 67 ee 3e 75 a1 85 3e
       0.69194293 0.88607424 0.46563318 0.26099744
000020 a2 41 d2 3e 76 ec b3 3f f0 43 1d 3f bb e2 70 3f
       0.410657 1.4056537 0.6143179 0.94095963
000030 41 dd 68 3f 98 5d 10 3f cc b5 42 3f 4f 10 32 3f
       0.90962607 0.5639281 0.7605865 0.69556135
000040 f8 96 49 3f 9a 98 36 3f 5b 5f d9 3e 78 e9 1f 3f
       0.78745985 0.713266 0.42455563 0.6246562
000050 a0 a5 82 3f af ac 85 3f 24 df 13 3f df 73 01 3f
       1.0206795 1.0443324 0.5776236 0.5056743
000060 80 15 1e 3f 43 a9 e7 3e a9 fa 6b 3f 0e b9 77 3f
       0.61751556 0.45246324 0.9217935 0.96766746
000070 a0 37 de 3e a8 38 24 3f cf 23 4d 3f 4f b8 9d 3f
       0.43401814 0.6414895 0.80132765 1.2321872

Conv_BN_ReLU3.0.weight f4 [32, 32, 3, 3]
000000 39 39 91 3d f7 4f 8f bd 85 e0 d7 bd 2c f9 df 3d
       0.070909925 -0.06997674 -0.105408706 0.10936198
000010 a6 58 8a 3c 36 b4 90 bd a6 60 98 3d 13 a5 5b 3d
       0.016887974 -0.070656225 0.07440309 0.053624224
000020 97 4a 25 bd 44 19 43 3e c4 f6 16 3b cb 23 a5 bd
       -0.040354338 0.19052607 0.0023035267 -0.080634676
000030 86 14 ec 3d 3d d7 a2 3c 20 65 ce bd 72 12 31 3e
       0.11527352 0.019878024 -0.10077882 0.17292193
000040 98 b9 cb 3d 2e 06 50 bd 2b dc 3e bd a0 9f b3 bb
       0.099475086 -0.050787143 -0.046596687 -0.0054816753
000050 e6 6b e1 bb fa 54 f2 3c df cf 93 bc ff 3f 96 3c
       -0.0068793176 0.029581536 -0.018043457 0.018341063
000060 ba 6f bc 3c bc 40 14 bd 53 0b 70 3c 4f 0a b9 3d
       0.023002494 -0.036194548 0.014651137 0.09035169
000070 e7 14 28 3d f7 e8 8f bc b7 6e 88 3d 65 ab df bc
       0.04103556 -0.017567141 0.06661742 -0.027303407
000080 6c 47 d5 bd 7c 73 45 3d 13 e7 45 bd 76 c2 4f be
       -0.10414013 0.048205838 -0.048316073 -0.20289025
000090 f3 24 a4 3d 41 19 0c bd 94 85 cc bc ea 76 38 3d
       0.0801486 -0.03420377 -0.024966039 0.04503528
0000a0 6f 34 4a bd 23 22 61 bd 8d 1b 10 3c df 3f 80 3c
       -0.04936641 -0.054964196 0.008795631 0.015655456
0000b0 28 0a 54 bd 04 2d 8e 3d d8 f4 fe 3c 30 11 89 bd
       -0.0517675 0.0694218 0.03112261 -0.066927314
0000c0 f0 08 00 bd 2a 87 43 3d f1 5f 85 3b 2a c9 3e bd
       -0.031258523 0.047736324 0.004070275 -0.046578564
0000d0 27 a6 02 3d 43 73 e4 3c b3 32 98 3c 55 87 1c 3d
       0.031896736 0.027886992 0.018578863 0.038215
0000e0 fb 36 55 bd 09 b7 ab 3c 2e d9 52 bb 1f 96 a0 bc
       -0.052054387 0.020961301 -0.0032172906 -0.019602833
0000f0 1c 5e 48 3d 5d 14 be 3d 94 b3 91 3d 40 20 e2 3d
       0.048917875 0.09281228 0.0711433 0.110413074
000100 56 30 a1 3b 13 30 43 be 95 59 26 3d 19 3c 7c 3d
       0.004919092 -0.19061308 0.040612776 0.06158075
000110 89 b8 01 be 8c e0 ce 3d 25 89 98 3d 23 76 7c bd
       -0.12668051 0.10101423 0.07448033 -0.0616361
000120 0a 5b a1 bd c6 a5 c1 bd 39 83 a3 3d 03 41 1c bd
       -0.078786924 -0.09455447 0.07984013 -0.038147938
000130 17 61 dd bc b1 4c 28 3c e1 01 b8 bd 30 9c 93 bc
       -0.027023835 0.010272191 -0.089847334 -0.018018812
000140 ab 48 81 bd 02 3a b9 3c 8c 93 d8 3d 90 79 30 3d
       -0.063126884 0.022610668 0.10575017 0.04308468
000150 38 37 d8 bc 79 fc 7f 3c 60 40 1a 3d 11 69 fc bc
       -0.026393518 0.015624159 0.03765905 -0.030811818
000160 e2 4a cc bc 1a 75 fd 3d 2b 66 56 bd d3 c7 f5 3c
       -0.02493805 0.12375851 -0.05234353 0.03000251
000170 45 1a 9a 3d 5a 56 4c bc 5f 79 56 bc 49 bd dd 3d
       0.07524542 -0.01247176 -0.013090461 0.10827119
000180 55 fd f9 3d e8 13 d5 3c b7 79 ff 3d 11 36 45 bd
       0.122065224 0.026010469 0.12474387 -0.048147265
000190 49 fd db bc 61 13 d5 bd 49 85 c6 3b 8c bb 84 bd
       -0.026854174 -0.10404087 0.0060583693 -0.06481084
0001a0 bc 9b a3 bd ce 50 06 bd 8a 01 98 bd 06 b2 b9 3c
       -0.07988688 -0.032791905 -0.074221686 0.022667896
0001b0 ac f1 47 bc eb ab bd bd 74 42 09 be ed d4 b4 3c
       -0.012203615 -0.092613064 -0.13404256 0.022074187
0001c0 e0 af 64 3b e4 e6 34 bd bd 5b 54 bd 23 b0 32 3c
       0.0034894869 -0.044165507 -0.0518453 0.010906252
0001d0 ed df 07 ba a3 96 be 3b ab 1a 5c 3c 02 47 f5 bd
       -0.0005183209 0.005816297 0.0134340925 -0.11976434
0001e0 f5 6c 12 bd f6 a2 d8 bc 4b 68 04 be 51 c7 95 3d
       -0.03574844 -0.026444893 -0.1293041 0.07313407
0001f0 77 c1 90 3d 1d 10 19 be 40 7c d8 3c 40 68 9b 3d
       0.070681505 -0.14947553 0.026426435 0.075882435
000200 7b 10 90 bc 2a 6a 48 3d 47 cf 1e 3d 18 47 f3 bd
       -0.017585983 0.04892937 0.038771894 -0.118787944
000210 1e 3f 61 3c 71 3f e6 3d d4 11 cb bd 66 ca 4f 3d
       0.0137479585 0.11242569 -0.0991551 0.05073013
000220 94 67 f0 3c 52 01 b3 bd 4d a0 77 bb 6c aa a2 3d
       0.029346265 -0.08740486 -0.0037784756 0.07942662
000230 b7 b0 21 be 44 96 bf bb 35 e2 c0 3b 22 d1 ef bd
       -0.15790068 -0.0058467705 0.005886341 -0.11709811
000240 7e 2d 9f 3d ad c1 76 3d c6 39 fa 3c 49 70 c8 3c
       0.07772349 0.060243297 0.030545127 0.024467604
000250 a2 f8 e6 bc e4 8f da bc d6 1c d2 3c 0c d7 5c bd
       -0.02819473 -0.02667994 0.025648516 -0.053916022
000260 df 04 4e bd 53 2a 6b bd b8 1d 05 3b 82 29 1f 3d
       -0.050297614 -0.05741341 0.0020311903 0.038857944
000270 a1 a8 d7 bb e5 46 71 3c 2c 63 d8 3c c4 cd ef bc
       -0.0065813814 0.014726375 0.026414476 -0.029272921
000280 96 08 22 3d 44 f6 d6 3d a5 4a 1f 3c 5d 8a 81 3c
       0.03955897 0.1049619 0.0097223865 0.015813047
000290 b7 32 16 bb 04 a8 b1 3d b3 31 36 3c 55 3a c1 bd
       -0.0022918412 0.086746246 0.011120248 -0.09434954
0002a0 89 11 e0 3d 30 4d 8c 3d c4 2b b5 bc 6d 65 ba 3d
       0.109408446 0.0685066 -0.022115596 0.09101377
0002b0 bc 2b d8 3c fc b7 30 bd 8d 21 59 3d aa 25 27 3d
       0.026388042 -0.04314421 0.053010512 0.040807404
0002c0 ad 71 9d bc 59 51 6c 3d 3e 56 c2 bc 33 b6 89 bd
       -0.019219244 0.057694767 -0.023722764 -0.06724205
0002d0 a0 92 71 3d ec 65 35 3d f0 40 b7 bd 8a 7c 24 3d
       0.058977723 0.044286653 -0.08947933 0.040157832
0002e0 4b 62 63 bb 46 dc d2 bd 1c 2e 7e 3c 18 83 8f 3d
       -0.0034696038 -0.1029592 0.015513923 0.07007426
0002f0 70 95 20 3d c3 ac cc 3c 99 65 25 3d 3c 25 8c 3a
       0.039205015 0.024984723 0.040380094 0.0010692249
000300 21 f5 3d 3d 3d 0b 99 bc 56 62 01 3d 36 97 84 3d
       0.04637635 -0.018682117 0.03158792 0.06474154
000310 c2 19 dc ba 16 e1 86 3d 9e 04 68 3d 76 48 0f 3d
       -0.0016792344 0.065859005 0.05664503 0.034981214
000320 e7 1d 24 3d 70 09 c2 3c 8b 23 f0 3d 73 de 70 3d
       0.04006758 0.02368614 0.11725529 0.058805894
000330 72 76 97 3d c1 1b 04 bd cf 1a c2 bb af 35 a1 3c
       0.073956385 -0.03225303 -0.005923606 0.019678919
000340 f2 48 3c bb 84 cf 9a 3c ce cd 46 3c 2c b4 a0 b6
       -0.0028730002 0.01889778 0.012134029 -4.7893463e-06
000350 f5 73 26 bb 6f 83 18 3d fe 36 a4 3d c7 cc aa 3d
       -0.0025398706 0.03723472 0.080183014 0.083398394
000360 61 97 94 bc 54 03 26 3c 50 e2 c7 bd 5c 4a 82 bd
       -0.01813859 0.010132629 -0.097599626 -0.06361839
000370 67 27 9c 3c fc 9c 11 3c ef e1 94 bc 39 f2 d5 bc
       0.019061757 0.008887526 -0.01817414 -0.026116477
000380 2a 6c c3 bd 54 a3 f0 bc b3 df 18 3d a0 1a d8 3c
       -0.09542115 -0.029374756 0.03732271 0.026379883
000390 b3 58 13 3d ee be 39 3c dc e7 2c 3d 95 6e b8 3d
       0.035973262 0.011337025 0.042213306 0.09005467
0003a0 e7 d6 82 3d 7c 7b 79 3c d9 1a df bc f1 1a 1e 3c
       0.063886456 0.015227195 -0.027234482 0.009649978
0003b0 97 17 21 3d ae f8 30 bd e0 d1 a3 3c 41 fd 2c 3d
       0.039329138 -0.04320591 0.019997537 0.04223371
0003c0 ee e9 84 3d 48 25 3f 3c 73 b4 1a 3d 49 04 11 bd
       0.06489931 0.011666603 0.037769746 -0.035404477
0003d0 3c e7 64 ba d7 3b b5 3d 63 ee 21 bd 46 f6 b2 3c
       -0.00087319664 0.08849304 -0.039533984 0.021845948
0003e0 0c ae ac 3d cd ec 2d bd 65 bb e7 3c 7f bf 0c 3e
       0.08431634 -0.04246216 0.028287599 0.13744925
0003f0 59 c8 17 bd cf 0c e9 3d d2 71 10 bc 0c 25 ee 3b
       -0.0370563 0.11379396 -0.008816199 0.0072676

Conv_BN_ReLU3.0.bias f4 [32]
000000 66 48 2c 3c 6c ee 21 3d ab 28 46 3d 10 53 42 bd
       0.010515308 0.039534017 0.048378628 -0.047442496
000010 d9 a1 40 3d 56 5a 4e bd 33 df 1d bd 5e 79 3d bd
       0.04702935 -0.05037912 -0.038542937 -0.046258323
000020 17 70 5c 3c 3b 82 bf bc f3 3f 1f 3d 25 20 20 3d
       0.013454459 -0.023377528 0.038879346 0.039093155
000030 17 f6 c2 bc fd 04 33 3d e6 b3 7f bc 6d 04 1f 3d
       -0.023798985 0.04370593 -0.015606856 0.03882258
000040 24 32 1d bc 98 f1 34 bc 96 d8 2f bd 4f 95 6a bc
       -0.009594474 -0.011043929 -0.04293116 -0.0143178245
000050 66 59 f3 3c 21 db 0b bd 15 cb 11 bb 01 91 1b 3b
       0.029705714 -0.034144524 -0.002224629 0.0023737552
000060 d0 fd a7 bc 8a a1 60 3d d9 59 c7 3c 8c 64 d0 3b
       -0.02050677 0.054841556 0.024334835 0.0063596424
000070 e2 21 bf bb a7 ea 28 3c c8 99 45 3d a1 5b 4a 3c
       -0.0058328966 0.010309852 0.04824236 0.012350948

Conv_BN_ReLU3.1.weight f4 [32]
000000 c8 68 91 3f b1 98 83 3f 3f 1a 7a 3f 0f 89 8a 3f
       1.1360102 1.0280973 0.976963 1.0823077
000010 13 a4 80 3f 76 fe 7f 3f 1e f4 90 3f c6 dd 84 3f
       1.0050071 0.9999765 1.1324499 1.038018
000020 59 84 7f 3f 90 52 88 3f a0 28 84 3f a3 c4 85 3f
       0.9981132 1.0650196 1.0324898 1.0450634
000030 ef f0 76 3f 26 a0 70 3f 24 b0 7f 3f 0f a4 81 3f
       0.96461385 0.9399437 0.99878144 1.0128192
000040 3b 63 73 3f 6d c6 78 3f 8b 1a 7a 3f 4b a3 67 3f
       0.9507329 0.97177774 0.9769675 0.9048354
000050 9c 86 80 3f 6f de 87 3f 23 bb 80 3f 1b ff 84 3f
       1.004108 1.0614756 1.005711 1.0390352
000060 e0 d8 77 3f 16 38 80 3f 62 3a 78 3f e5 47 6e 3f
       0.968153 1.0017116 0.96964085 0.9307845
000070 0b e3 5b 3f 49 7b 7f 3f 59 c6 73 3f 5c 8e 7d 3f
       0.85893315 0.99797493 0.9522453 0.9904535
