CA04/checkpoints copy/checkpoint.pth (torch, 710925 bytes, 143 tensors)

Conv_BN_ReLU1.0.weight f4 [16, 3, 3, 3]
0.14288567 -0.20039034 -0.067740865 0.122413635 -0.10219917 0.115014285 0.12153498 -0.040353075
-0.13426706 0.17891243 -0.08034392 -0.15157528 0.12082515 0.17028943 0.14769273 -0.026477125
0.15167473 -0.0011476534 -0.20377062 -0.09853774 0.062807396 -0.080770336 -0.19791685 0.13500808
-0.17146331 -0.04607122 0.044141117 0.10456007 0.18472867 -0.124201335 -0.13617441 -0.10538791
-0.19825932 0.021922693 -0.038881157 -0.07199201 0.1397655 -0.003689931 -0.04116507 0.0522808
0.056871507 -0.12562516 0.13600418 0.10066542 0.05304729 0.018213281 0.14953184 0.14990436
-0.060248457 0.088165075 -0.03825644 0.023803238 -0.041399527 -0.20153686 -0.085718155 0.14416707
0.026695099 0.12597652 0.20738141 -0.052838575 -0.02757985 0.022186352 0.14560603 -0.13963404
-0.179138 -0.04532872 0.0038331978 -0.15578939 -0.110282324 0.08824156 -0.16578344 -0.037856527
-0.10328124 0.19166294 -0.12750766 0.08821567 -0.09679877 -0.036190312 0.1077656 -0.048699927
0.18157986 -0.10372501 -0.21854444 -0.08957354 -0.070111714 -0.043439824 -0.20203441 -0.077450104
0.052801937 0.014535387 0.22938842 0.1823862 -0.0761831 0.13850714 -0.08120452 0.16458988
0.091225535 -0.116659254 -0.08607503 0.22987711 0.07482774 -0.13251735 -0.14983001 -0.14037836
0.1839952 0.04164284 -0.14032598 0.13079877 0.104234986 0.019151585 0.014484436 -0.079541355
-0.16348343 -0.13848501 0.120993815 -0.019364588 -0.09887632 0.09006906 -0.046295226 -0.058059443
0.1499031 -0.1972905 -0.121740885 -0.18749222 -0.1701499 0.013052167 -0.041428573 0.1918909
0.112926476 -0.08212124 -0.13499047 0.14653559 -0.048400614 0.05081533 0.17619921 0.022949154
0.08571775 -0.15476945 0.26183885 -0.098451 0.039037645 0.048242778 -0.13005202 0.024608575
0.047588132 -0.19403659 -0.053492635 0.12313105 0.09285962 -0.1335414 -0.1010426 0.10731675
-0.009084821 0.07589196 0.053783126 -0.15496859 0.16404071 -0.023284476 -0.1587358 0.042153053
0.11647941 -0.078886494 -0.08888137 0.0074940007 0.117776304 0.03637906 0.028826153 0.11353173
-0.14172527 -0.08211293 -0.083698936 -0.22109194 0.019934673 -0.055281088 -0.10054567 0.05481097
-0.2096112 -0.015546501 0.06684312 -0.1030333 -0.162763 0.0503761 0.12860243 0.13808922
0.14678545 0.1344064 0.18282883 0.011672298 0.021257004 0.056348007 -0.21029435 -0.08808159
-0.13408156 0.050757747 -0.005598323 0.008955269 -0.060319915 -0.0055157198 -0.12815283 -0.098222256
0.07839915 -0.15723346 -0.16445485 0.13738954 -0.15598322 0.12568252 0.076103434 -0.12186243
0.17353034 0.11707456 -0.038069747 0.10619214 0.021850817 0.05753031 0.112424314 0.20143075
0.33644918 -0.003135334 0.24374335 0.31888324 -0.009104444 0.054841567 0.06341895 0.19742294
0.019621471 -0.0057102786 -0.04360571 0.021699356 0.011565884 0.11086818 -0.15110366 -0.10825668
-0.14736427 -0.11727768 0.069786 -0.07660417 -0.09420672 0.030468917 0.028829483 -0.014544177
0.0006913778 0.07797249 -0.11320052 -0.0028669564 -0.056990113 0.042255737 -0.008451911 0.13579006
0.05125587 -0.10308625 0.10652642 -0.006284854 -0.0701747 0.13117272 -0.14569014 -0.16873293
00000000: 9f50 123e 2033 4dbe b9bb 8abd 00b4 fa3d
00000010: cc4d d1bd 9c8c eb3d 55e7 f83d 4449 25bd
00000020: 4e7d 09be d234 373e 5a8b a4bd 8d36 1bbe
00000030: 2d73 f73d 5a60 2e3e c33c 173e 8ee6 d8bc
00000040: 9f50 1b3e dc6c 96ba 3fa9 50be 28ce c9bd
00000050: 2aa1 803d eb6a a5bd b7aa 4abe 8f3f 0a3e
00000060: 1494 2fbe 2db5 3cbd 51cd 343d 9723 d63d
00000070: 8329 3d3e 455d febd 4e71 0bbe 9ed5 d7bd
00000080: 7e04 4bbe 3897 b33c d941 1fbd 8c70 93bd
00000090: b01e 0f3e c5d2 71bb b49c 28bd 6424 563d
000000a0: 19f2 683d e2a3 00be ae44 0b3e ac29 ce3d
000000b0: 1d48 593d 0534 953c e01e 193e 8780 193e
000000c0: 16c7 76bd e48f b43d c9b2 1cbd 02ff c23c
000000d0: 8d92 29bd ae5f 4ebe 008d afbd 88a0 133e
000000e0: aeaf da3c fdff 003e cb5b 543e 436d 58bd
000000f0: 23ef e1bc 27c0 b53c bf19 153e 3afc 0ebe
00000100: f46f 37be 9caa 39bd 6336 7b3b 4187 1fbe
00000110: b3db e1bd feb7 b43d 22c3 29be 720f 1bbd
00000120: 1d85 d3bd 4a43 443e 5e91 02be 6baa b43d
00000130: 6f3e c6bd 4b3c 14bd 36b4 dc3d 9379 47bd
00000140: 12f0 393e c76d d4bd 1dca 5fbe 5572 b7bd
00000150: bb96 8fbd f5ed 31bd 1ce2 4ebe 299e 9ebd
00000160: d846 583d d525 6e3c cce4 6a3e 73c3 3a3e
00000170: e305 9cbd d1d4 0d3e 8e4e a6bd 408a 283e
00000180: 74d4 ba3d 0ceb eebd 1b48 b0bd e864 6b3e
00000190: 493f 993d a1b2 07be 0a6d 19be 58bf 0fbe
000001a0: 3d69 3c3e af91 2a3d 9db1 0fbe 1df0 053e
000001b0: 2779 d53d c9e3 9c3c 2150 6d3c 94e6 a2bd
000001c0: 3368 27be 04cf 0dbe 9bcb f73d 7ca2 9ebc
000001d0: ab7f cabd 2176 b83d 10a0 3dbd bdcf 6dbd
000001e0: 3380 193e 8506 4abe 4953 f9bd f6fd 3fbe
000001f0: c63b 2ebe c2d8 553c 02b1 29bd 0c7f 443e
00000200: ff45 e73d 2e2f a8bd f13a 0abe 6d0d 163e
00000210: b93f 46bd bc23 503d 916d 343e ddff bb3c
00000220: ca8c af3d e27b 1ebe be0f 863e aea0 c9bd
00000230: f0e5 1f3d 389a 453d 5b2c 05be ec97 c93c
00000240: c6eb 423d 87b1 46be 181b 5bbd 222c fc3d
00000250: 2f2d be3d 14bf 08be 6cef cebd e2c8 db3d
00000260: 80d8 14bc 3e6d 9b3d b24b 5c3d 16b0 1ebe
00000270: 4afa 273e 16bf bebc a38b 22be aea8 2c3d
00000280: c28c ee3d 3e8f a1bd 7007 b6bd 3c90 f53b
00000290: b434 f13d 3602 153d d324 ec3c 5383 e83d
000002a0: 6e20 11be d32a a8bd 596a abbd ed65 62be
000002b0: 0a4e a33c 6c6e 62bd e3ea cdbd 7881 603d
000002c0: 52a4 56be c0b6 7ebc 0ce5 883d 1f03 d3bd
000002d0: 58ab 26be 2b57 4e3d 5bb0 033e 4367 0d3e
000002e0: ed4e 163e d5a1 093e 7b37 3b3e 2b3d 3f3c
000002f0: 2b23 ae3c 2bcd 663d 6757 57be 1f64 b4bd
00000300: ad4c 09be 5be7 4f3d 2372 b7bb 1fb9 123c
00000310: 0412 77bd 36bd b4bb 7f3a 03be c028 c9bd
00000320: bc8f a03d cf01 21be da66 28be d8af 0c3e
00000330: 11ba 1fbe ebb2 003e 1edc 9b3d 0293 f9bd
00000340: f0b1 313e c9c4 ef3d 06ef 1bbd 447b d93d
00000350: 7c00 b33c e7a4 6b3d b83e e63d dd43 4e3e
00000360: 1143 ac3e 2d7a 4dbb db97 793e aa44 a33e
00000370: ce2a 15bc 8da1 603d cbe1 813d 3d29 4a3e
00000380: 35bd a03c 4a1d bbbb e79b 32bd d9c2 b13c
00000390: d57e 3d3c db0e e33d ebba 1abe aeb5 ddbd
000003a0: a9e6 16be 482f f0bd f6eb 8e3d a6e2 9cbd
000003b0: 74ef c0bd f399 f93c cf2b ec3c b34a 6ebc
000003c0: 943d 353a 0ab0 9f3d add5 e7bd 8ce3 3bbb
000003d0: 776e 69bd 5a14 2d3d e279 0abc 8d0c 0b3e
000003e0: adf1 513d e21e d3bd 862a da3d 2df1 cdbb
000003f0: c1b7 8fbd 2452 063e cc2f 15be 53c8 2cbe

Conv_BN_ReLU1.0.bias f4 [16]
-0.09081404 0.013402884 -0.1317566 0.026941197 -0.18306845 0.13747022 -0.025524333 0.069983415
-0.22245166 -0.010493456 0.00019570287 -0.051302083 -0.110113695 0.11420383 0.1624886 0.006687536
00000000: b6fc b9bd c597 5b3c 34eb 06be c9b3 dc3c
00000010: 4c76 3bbe fec4 0c3e 6818 d1bc 7753 8f3d
00000020: 5eca 63be bfec 2bbc 9735 4d39 2222 52bd
00000030: 4a83 e1bd b3e3 e93d 6963 263e 1e23 db3b

Conv_BN_ReLU1.1.weight f4 [16]
0.97672915 0.98753774 0.98271996 0.93070155 0.95893323 1.0885557 1.0767423 0.8906972
0.952332 1.0723236 0.9502316 1.0877367 0.94513303 0.96468276 1.0634035 0.95761234
00000000: ec0a 7a3f 46cf 7c3f 8993 7b3f 7542 6e3f
00000010: a67c 753f cb55 8b3f b1d2 893f bb04 643f
00000020: 08cc 733f e641 893f 6142 733f f53a 8b3f
00000030: 3df4 713f 73f5 763f 9b1d 883f 1526 753f

Conv_BN_ReLU1.1.bias f4 [16]
0.09930345 0.06350668 0.11293339 0.017563311 -0.2107321 0.42194438 0.1512261 0.009192183
-0.011882538 0.30622315 0.1284641 0.20046204 -0.0028952798 -0.08717351 0.19737776 0.11266563
00000000: 9b5f cb3d ca0f 823d 9f49 e73d efe0 8f3c
00000010: 28ca 57be 1809 d83e 04db 1a3e cf9a 163c
00000020: faae 42bc 48c9 9c3e 188c 033e ec45 4d3e
00000030: bcbe 3dbb 0688 b2bd 651d 4a3e 3dbd e63d

Conv_BN_ReLU1.1.running_mean f4 [16]
-0.10847069 0.050288968 -0.17121427 -0.0621022 -0.37059703 0.14305829 -0.049709592 0.02687443
0.08071659 -0.0061038528 0.045883995 -0.06645948 -0.06137731 0.024251774 0.15923233 0.07817966
00000000: e225 debd cefb 4d3d cb52 2fbe e05e 7ebd
00000010: e5be bdbe df7d 123e 499c 4bbd c427 dc3c
00000020: bd4e a53d d402 c8bb dbf0 3b3d e81b 88bd
00000030: c666 7bbd a8ab c63c cd0d 233e a81c a03d

Conv_BN_ReLU1.1.running_var f4 [16]
0.0039969315 0.0048910426 0.0034418681 0.006920944 0.013091747 0.0056043733 0.004542663 0.00813446
0.0408073 0.0026297949 0.0068683573 0.003083366 0.0047291224 0.0072129583 0.004200316 0.010962238
00000000: b1f8 823b 0a45 a03b f790 613b 16c9 e23b
00000010: c47e 563c e4a4 b73b 9fda 943b 6646 053c
00000020: 8e25 273d a358 2c3b f50f e13b 4c12 4a3b
00000030: c1f6 9a3b ae5a ec3b cea2 893b f59a 333c

Conv_BN_ReLU1.3.weight f4 [16, 16, 3, 3]
0.049423527 -0.055371877 0.027669678 -0.10284522 -0.07601338 0.05730479 -0.054125525 -0.06164631
0.0711692 -0.12105589 -0.076332405 -0.05901097 -0.16503032 -0.008041789 0.0834815 -0.047328614
-0.079473734 -0.007419065 0.036793005 -0.00011558462 0.04462825 0.052467283 0.055302575 -0.062194068
0.06299387 0.032100685 -0.100904405 0.029420251 0.06606943 0.031492576 0.06770012 0.015113217
-0.060503416 -0.0542746 0.070768274 -0.047347475 0.06292456 0.025557501 -0.04189951 0.034593545
0.046239465 0.056126155 0.10582987 0.09496864 -0.02078818 -0.069205634 -0.007097516 0.098423354
-0.1378502 -0.09556645 0.044899546 0.03967284 -0.04913188 -0.14364216 0.054944046 -0.07526152
-0.15380044 0.05391603 0.031875562 -0.08611877 0.024507206 -0.027460745 -0.056118578 -0.043943148
-0.079622954 -0.010692599 -0.0887435 -0.09179169 -0.093328886 -0.04566464 -0.015229463 0.038135637
-0.08937211 -0.06336671 0.09378628 -0.036778066 0.06760333 0.04859079 -0.028904434 0.0507874
0.0057174605 0.0076607647 0.04401547 -0.011584723 -0.10832358 0.06330993 0.027990175 -0.076843694
-0.049243078 0.111617304 0.011866968 0.059414405 0.025547178 -0.028314069 0.012088782 -0.006314087
0.028747708 -0.06222688 0.08042369 0.07023443 0.100597136 0.023855971 -0.12453165 0.08916982
-0.059413183 -0.082543746 -0.032654166 0.071752235 -0.0011511755 -0.07543236 -0.113143 -0.120584935
-0.057857018 -0.012431483 -0.07808383 -0.12343656 -0.0022803408 0.0042003887 -0.052644476 0.002210523
0.04483048 0.039519124 0.01635905 0.06358846 -0.10649949 0.004836743 0.054105595 -0.08194096
-0.0028115304 0.0010911745 0.05686187 0.0033353488 -0.037030976 0.111718535 -0.0044209193 0.049228724
-0.056786403 0.026411049 0.0056620724 -0.017730588 0.08889775 -0.014365827 0.0149366 0.09272718
-0.037569385 0.038137324 0.049109563 0.007383246 -0.06463237 -0.026673794 0.02552188 0.004184132
-0.097326115 -0.09340788 -0.10260523 0.02855417 -0.012606711 -0.07059141 0.008806543 -0.08858511
-0.10798779 0.04062178 0.069009 0.009574207 -0.038411528 0.0494737 -0.07139799 0.058315966
0.071850784 -0.06275962 -0.10059779 0.097086 -0.010949345 0.025693437 0.12159339 0.064105436
-0.022496058 -0.020491268 -0.015751243 -0.06054106 0.08917557 -0.05784783 -0.08207479 0.019387653
0.048232254 0.065681115 0.009971505 0.09318031 0.039241392 -0.23391327 -0.28342 0.03505557
-0.10431512 -0.28200957 -0.041709192 -0.2263455 -0.27674687 0.009816028 -0.04272926 -0.0535221
-0.046311866 -0.08468506 0.077690855 0.08255268 0.09005193 0.054215506 0.07478792 -0.0139168855
0.09578167 0.02644954 0.08127067 0.009813692 -0.012108163 0.038182493 0.03848621 0.079792246
-0.050094906 -0.09231608 0.05379096 -0.017740717 0.040652074 -0.07839157 -0.10621757 -0.02418365
-0.014960996 -0.001119332 0.03440449 0.07819719 -0.0855836 0.04967707 0.012988089 -0.1102413
-0.01885795 0.040058445 0.00230802 0.0052850903 -0.014502509 -0.078088626 0.015454877 0.030378351
-0.09411918 -0.086293936 -0.077966034 0.020192865 0.05962987 -0.122098155 -0.04501904 0.018150536
-0.09468769 -0.1632199 -0.024301652 -0.019101892 -0.05121639 0.048692275 -0.0045660846 -0.038944285
00000000: 5370 4a3d 9fcd 62bd 85ab e23c 84a0 d2bd
00000010: e7ac 9bbd 6db8 6a3d bab2 5dbd d780 7cbd
00000020: 28c1 913d 27ec f7bd 2a54 9cbd 7db5 71bd
00000030: b5fd 28be b5c1 03bc 59f8 aa3d a6db 41bd
00000040: 20c3 a2bd a11b f3bb 43b4 163d 0566 f2b8
00000050: 1dcc 363d efe7 563d f484 623d 35bf 7ebd
00000060: ee02 813d 027c 033d f8a6 cebd bd02 f13c
00000070: 694f 873d 5cfe 003d 5ca6 8a3d 6d9d 773c
00000080: 6ed2 77bd 0b4f 5ebd f5ee 903d 6def 41bd
00000090: 97de 803d f75d d13c d29e 2bbd f6b1 0d3d
000000a0: 9865 3d3d 8ae4 653d 55bd d83d eb7e c23d
000000b0: f94b aabc afbb 8dbd 4892 e8bb 2f92 c93d
000000c0: 9a28 0dbe 58b8 c3bd 96e8 373d fd7f 223d
000000d0: 833e 49bd ee16 13be 020d 613d b622 9abd
000000e0: dd7d 1dbe 0ed7 5c3d f38f 023d 0a5f b0bd
000000f0: 56c3 c83c 5bf5 e0bc 98dc 65bd bbfd 33bd
00000100: 5c11 a3bd 0330 2fbc 27bf b5bd 48fd bbbd
00000110: 3723 bfbd d80a 3bbd ff84 79bc 1d34 1c3d
00000120: ba08 b7bd 68c6 81bd 0513 c03d 99a4 16bd
00000130: 9d73 8a3d 2307 473d fec8 ecbc 7306 503d
00000140: 8959 bb3b 2707 fb3b 9149 343d dacd 3dbc
00000150: c1d8 ddbd a3a8 813d a74b e53c 3a60 9dbd
00000160: 1cb3 49bd 9d97 e43d ac6d 423c 855c 733d
00000170: 5148 d13c e8f2 e7bc 0710 463c 67e6 cebb
00000180: 5080 eb3c 9de1 7ebd 2db5 a43d 12d7 8f3d
00000190: df05 ce3d 996d c33c 730a ffbd ab9e b63d
000001a0: 3d5b 73bd b20c a9bd 60c0 05bd d6f2 923d
000001b0: 0ae3 96ba 487c 9abd 84b7 e7bd 3cf5 f6bd
000001c0: 7bfb 6cbd 6bad 4bbc 6aea 9fbd 4fcc fcbd
000001d0: c571 15bb 6aa3 893b bca1 57bd 6cde 103b
000001e0: 2aa0 373d cede 213d 6a03 863c ab3a 823d
000001f0: 681c dabd 8b7d 9e3b d49d 5d3d a9d0 a7bd
00000200: a741 38bb be05 8f3a fee7 683d de95 5a3b
00000210: cbad 17bd b0cc e43d 5cdd 90bb 0fa4 493d
00000220: dc98 68bd fc5b d83c e888 b93b bd3f 91bc
00000230: 0610 b63d a55e 6bbc a4b8 743c bfe7 bd3d
00000240: 5be2 19bd e235 1c3d 1c27 493d 28ef f13b
00000250: fa5d 84bd 0083 dabc 4313 d13c 0b1b 893b
00000260: ea52 c7bd a14c bfbd b122 d2bd 6fea e93c
00000270: 618c 4ebc 3b92 90bd 5249 103c 1c6c b5bd
00000280: b428 ddbd 0663 263d 9754 8d3d 22dd 1c3c
00000290: 6855 1dbd efa4 4a3d 1c39 92bd b9dc 6e3d
000002a0: 8126 933d 1e88 80bd 3706 cebd 06d5 c63d
000002b0: e264 33bc 0b7b d23c f505 f93d b649 833d
000002c0: a749 b8bc 4edd a7bc c008 81bc e7f9 77bd
000002d0: aea1 b63d d9f1 6cbd d416 a8bd dbd2 9e3c
000002e0: 2f8f 453d d283 863d 865f 233c 52d5 be3d
000002f0: 95bb 203d f686 6fbe 6d1c 91be 6e96 0f3d
00000300: 2aa3 d5bd 8f63 90be 42d7 2abd 1dc7 67be
00000310: c4b1 8dbe 68d3 203c e004 2fbd fd39 5bbd
00000320: 83b1 3dbd 5c6f adbd 621c 9f3d 6111 a93d
00000330: 256d b83d 1411 5e3d 692a 993d a603 64bc
00000340: 2e29 c43d b5ac d83c 3d71 a63d 9cc9 203c
00000350: 5161 46bc 3f65 1c3d b7a3 1d3d 1e6a a33d
00000360: 5130 4dbd 3710 bdbd e953 5c3d fb54 91bc
00000370: ca82 263d c28b a0bd 9988 d9bd ca1c c6bc
00000380: f71e 75bc 8db6 92ba b9eb 0c3d d925 a03d
00000390: 7446 afbd 2f7a 4b3d fecb 543c 31c6 e1bd
000003a0: fd7b 9abc 5314 243d 2642 173b 8d2e ad3b
000003b0: ee9b 6dbc eeec 9fbd 7436 7d3c 05dc f83c
000003c0: 8fc1 c0bd e0ba b0bd a8ac 9fbd 826b a53c
000003d0: 733e 743d 990e fabd e365 38bd 6fb0 943c
000003e0: 9feb c1bd 1e23 27be 4214 c7bc 927b 9cbc
000003f0: 47c8 51bd 8d71 473d 189f 95bb 0b84 1fbd

Conv_BN_ReLU1.3.bias f4 [16]
-0.038729876 0.021883152 -0.025560677 -0.0399106 0.03688466 0.06259218 0.03235777 0.06300713
-0.026336972 -0.0705004 0.08135676 0.018830786 -0.055692066 -0.07506577 0.026106251 0.07421812
00000000: 38a3 1ebd 4c44 b33c a064 d1bc 4c79 23bd
00000010: 5f14 173d 5430 803d 9589 043d e209 813d
00000020: a2c0 d7bc 8462 90bd 5f9e a63d 0543 9a3c
00000030: 5d1d 64bd 15bc 99bd c7dc d53c abff 973d

Conv_BN_ReLU1.4.weight f4 [16]
0.94144714 1.0758554 1.0371497 1.0043979 1.0412828 1.0350769 0.97144735 1.0078717
1.0301952 1.0217354 0.9368085 0.9253883 0.86138946 0.95516974 0.9546191 1.1037066
00000000: ae02 713f a1b5 893f 52c1 843f 1c90 803f
00000010: c148 853f 667d 843f c6b0 783f f101 813f
00000020: 70dd 833f 3ac8 823f afd2 6f3f 3fe6 6c3f
00000030: 0584 5c3f 0186 743f eb61 743f 4246 8d3f

Conv_BN_ReLU1.4.bias f4 [16]
-0.07008259 -0.014287884 -0.13308465 -0.020977918 -0.099234655 0.043501325 -0.056286342 0.061885823
0.006946199 0.055926368 -0.077017054 -0.1518846 -0.28623727 -0.05621789 0.026732724 0.075748965
00000000: 7687 8fbd bb17 6abc 5847 08be e2d9 abbc
00000010: 8a3b cbbd 722e 323d 828c 66bd fd7b 7d3d
00000020: f19c e33b 0c13 653d 1ebb 9dbd a387 1bbe
00000030: b18d 92be bb44 66bd 96fe da3c 4622 9b3d

Conv_BN_ReLU1.4.running_mean f4 [16]
-0.48104224 -0.81824 -0.17089759 0.039844763 -0.9729758 -0.5797145 0.7588384 -0.5041675
-0.64595807 -0.58586127 -0.8724004 0.40777037 1.8934972 -0.70326763 -0.2750255 -0.6885305
00000000: 2b4b f6be 2d78 51bf c7ff 2ebe 4334 233d
00000010: f114 79bf 2b68 14bf 3c43 423f 1f11 01bf
00000020: 825d 25bf 01fb 15bf a255 5fbf 47c7 d03e
00000030: 1e5e f23f 5909 34bf 24d0 8cbe 8943 30bf

Conv_BN_ReLU1.4.running_var f4 [16]
0.5523979 2.565883 0.732709 0.427662 0.86278504 0.6508663 0.94349325 0.6748475
1.4351736 0.47392842 1.0297502 1.1705611 1.2551775 0.96726495 1.6552972 0.7156849
00000000: f369 0d3f 6d37 2440 d192 3b3f 83f6 da3e
00000010: 7bdf 5c3f 2d9f 263f c688 713f cec2 2c3f
00000020: c5b3 b73f bfa6 f23e dbce 833f f2d4 953f
00000030: a8a9 a03f ad9e 773f c7e0 d33f 2037 373f

Conv_BN_ReLU2.0.weight f4 [32, 16, 3, 3]
-0.0022603676 -0.024794534 0.06958742 0.04120713 0.034908522 0.0068008583 0.08707175 -0.023034545
0.018121922 0.058190964 -0.048566323 0.08561675 -0.019688515 0.07789203 0.101525664 0.12603004
0.096442915 0.07103522 -0.089202136 -0.00075575506 -0.009123205 -0.031909548 -0.05439082 0.01843233
-0.11743732 -0.03808665 0.060189005 -0.0573477 -0.10624674 0.09334202 -0.102097094 -0.13231874
0.061311983 -0.05728575 -0.07255197 -0.022683516 0.07126603 0.10040661 -0.02848766 0.041386973
0.07098984 -0.02754116 0.03728041 0.008889326 -0.006630389 -0.023429874 -0.03705476 -0.002490475
-0.11032635 -0.0027983054 -0.0040862197 0.0663878 0.017720528 0.060043 -0.057358503 0.046660252
-0.08937564 -0.02602752 0.056288555 0.03386031 -0.00082057965 0.087513514 0.009894972 -0.019842902
0.055170063 0.047511082 0.030848293 0.03250134 0.067196466 -0.008427356 0.12856162 0.10811763
-0.14289804 -0.05408245 -0.040563848 -0.1446625 -0.11050731 -0.0077401972 -0.1953438 0.014422031
0.02786467 0.0006394684 -0.012129515 0.0072388607 0.038427703 -0.028187532 -0.063383415 -0.07892519
0.005896822 -0.082624756 0.021518966 0.0694431 0.039136652 0.09741939 0.004282409 0.017253906
0.067325555 0.04525302 0.015784912 0.042549 0.075349264 0.03642996 -0.089765415 0.015056147
0.06455548 0.046059903 0.061269235 0.04771078 -0.028851895 0.05961845 0.06832478 -0.038153317
0.037478123 -0.03812457 -0.021494405 0.030313184 0.013710601 -0.096529745 0.04776437 0.045099273
0.0145830475 0.056565665 0.050065577 -0.00824881 -0.011770522 -0.02268218 -0.026106708 -0.036507674
-0.06725661 -0.1367991 -0.07482029 -0.017889442 -0.0840495 0.03794498 -0.10289022 0.07509578
0.05021949 0.09644343 0.13439655 0.07525934 0.004748491 0.040780988 0.058899138 -0.01612763
0.063472874 0.035899922 0.101343215 -0.0245003 0.0030398923 0.025689853 0.11416538 0.045784723
0.16497521 -0.15881689 0.049733132 -0.065124966 -0.0941586 -0.012901327 0.032565285 -0.05936851
0.057682525 0.039154865 -0.053440064 -0.060778193 0.023275012 -0.051424697 0.024341714 -0.053875867
-0.019039841 0.060929075 -0.066877864 -0.04013353 -0.017524209 0.008859488 -0.020720936 0.085614316
0.059199788 0.0044098897 0.062194288 0.0013742651 0.115627825 0.037613202 0.040702436 0.055747177
0.07598681 -0.111261144 0.14498825 0.1125822 -0.014489495 -0.0626437 0.0048914785 -0.047630776
-0.022766156 -0.06633642 0.053381175 -0.03603137 0.061417606 -0.031288214 0.027619833 0.041877083
0.09820177 0.009529085 0.09443021 0.18365021 -0.0034653174 0.0244017 0.11817211 0.09494279
0.0069662 0.012084027 0.030294908 -0.056428634 0.085931785 0.013380382 -0.03465058 0.033091176
-0.09242112 0.008188312 -0.024049684 0.04697372 -0.004607513 -0.059677735 0.02989296 0.043171756
-0.073484406 -0.002987945 0.046626776 -0.0011419876 -0.06543382 0.08335208 -0.019619979 -0.011180647
0.06499252 0.034298435 -0.069964945 -0.03436993 -0.09430161 -0.022377968 -0.09685199 -0.120278254
-0.06871307 -0.050650936 -0.041709688 -0.13391396 -0.115870915 -0.06277818 -0.03593804 -0.0006632337
-0.10531243 -0.03633896 -0.08441115 -0.0919755 0.04753772 -0.07337534 0.028897326 0.03888508
00000000: ad22 14bb e81d cbbc d983 8e3d cfc8 283d
00000010: 3dfc 0e3d bcd9 de3b ac52 b23d f1b2 bcbc
00000020: 6d74 943c a659 6e3d 7bed 46bd d657 af3d
00000030: cf49 a1bc db85 9f3d b0ec cf3d 050e 013e
00000040: dd83 c53d ea7a 913d 9caf b6bd dd1d 46ba
00000050: 7f79 15bc 96b3 02bd e9c8 5ebd 66ff 963c
00000060: fa82 f0bd bf00 1cbd bf88 763d 6ce5 6abd
00000070: e497 d9bd 1a2a bf3d 4818 d1bd 907e 07be
00000080: 4622 7b3d 76a4 6abd 2196 94bd c8d2 b9bc
00000090: edf3 913d fba1 cd3d f45e e9bc 6385 293d
000000a0: 1f63 913d 009e e1bc 58b3 183d 89a4 113c
000000b0: bc43 d9bb 02f0 bfbc bbc6 17bd 3d37 23bb
000000c0: c8f2 e1bd c663 37bb b2e5 85bb 54f6 873d
000000d0: a42a 913c a6ef 753d c0f0 6abd d21e 3f3d
000000e0: 930a b7bd aa37 d5bc d48e 663d 1cb1 0a3d
000000f0: 2b1c 57ba 493a b33d 851e 223c 958d a2bc
00000100: 01fa 613d fb9a 423d 8fb5 fc3c 2020 053d
00000110: 4d9e 893d e512 0abc a8a5 033e c76c dd3d
00000120: dd53 12be 8f85 5dbd 4726 26bd 6822 14be
00000130: a851 e2bd 7ba1 fdbb 3508 48be 624a 6c3c
00000140: 7344 e43c ffa1 273a e0ba 46bc f733 ed3b
00000150: 5e66 1d3d 8ae9 e6bc 2acf 81bd 88a3 a1bd
00000160: 213a c13b 2b37 a9bd 8b48 b03c 2f38 8e3d
00000170: c14d 203d d183 c73d 7353 8c3b 1058 8d3c
00000180: fbe1 893d 3b5b 393d 5c4f 813c dc47 2e3d
00000190: b750 9a3d 9537 153d eed6 b7bd 0fae 763c
000001a0: aa35 843d 4fa9 3c3d 73f5 7a3d 616c 433d
000001b0: cf5a ecbc 7a32 743d dded 8b3d a746 1cbd
000001c0: a982 193d 8228 1cbd 0915 b0bc 5b53 f83c
000001d0: 6ea2 603c 63b1 c5bd 92a4 433d 04ba 383d
000001e0: bced 6e3c 66b1 673d 9011 4d3d 0426 07bc
000001f0: 26d9 40bc fbcf b9bc bcdd d5bc 1289 15bd
00000200: d5bd 89bd 1015 0cbe 613b 99bd e18c 92bc
00000210: 2522 acbd 326c 1b3d 1cb8 d2bd d1cb 993d
00000220: f4b2 4d3d 2284 c53d 409f 093e 9221 9a3d
00000230: 3b99 9b3b f709 273d 3940 713d 171e 84bc
00000240: 11fe 813d cc0b 133d 088d cf3d dab4 c8bc
00000250: ee38 473b 8773 d23c 8acf e93d c388 3b3d
00000260: 43ef 283e e5a0 22be f8b4 4b3d 3d60 85bd
00000270: 39d6 c0bd 1660 53bc 2d63 053d 652c 73bd
00000280: 8344 6c3d da60 203d f8e3 5abd 8ef2 78bd
00000290: 3dab be3c b4a2 52bd 4668 c73c f1ac 5cbd
000002a0: 71f9 9bbc c490 793d 43f7 88bd 0e63 24bd
000002b0: ee8e 8fbc 6327 113c f4be a9bc 8f56 af3d
000002c0: 7a7b 723d d680 903b 70bf 7e3d af20 b43a
000002d0: 48ce ec3d 4d10 1a3d 99b7 263d 2757 643d
000002e0: f99e 9b3d e2dc e3bd cd77 143e 7f91 e63d
000002f0: 5965 6dbc 574b 80bd b248 a03b 7d18 43bd
00000300: 1780 babc 64db 87bd 38a6 5a3d a195 13bd
00000310: 0791 7b3d 1228 00bd fd42 e23c 4e87 2b3d
00000320: 021e c93d e11f 1c3c a064 c13d cd0e 3c3e
00000330: 611a 63bb 13e6 c73c 3804 f23d 5e71 c23d
00000340: b944 e43b 15fc 453c 072d f83c b621 67bd
00000350: 01fd af3d 6439 5b3c c4ed 0dbd 9d8a 073d
00000360: 4947 bdbd 4528 063c d803 c5bc 8467 403d
00000370: 9ffa 96bb a470 74bd 15e2 f43c ded4 303d
00000380: fe7e 96bd 66d1 43bb b8fb 3e3d bfae 95ba
00000390: 2b02 86bd 7fb4 aa3d 14ba a0bc 082f 37bc
000003a0: cc1a 853d 847c 0c3d c849 8fbd 7cc7 0cbd
000003b0: 3421 c1bd 0052 b7bc 565a c6bd 7254 f6bd
000003c0: 70b9 8cbd 5b77 4fbd c7d7 2abd be20 09be
000003d0: bb4d edbd d991 80bd c433 13bd dcdc 2dba
000003e0: 0bae d7bd 29d8 14bd c1df acbd a75d bcbd
000003f0: eab6 423d cf45 96bd 16ba ec3c f645 1f3d

Conv_BN_ReLU2.0.bias f4 [32]
0.0073014316 -0.0011630569 -0.02274011 0.015654523 0.080202326 -0.030228067 -0.04657389 0.044642523
0.026061937 -0.0021079753 -0.022631679 0.040489186 0.05016968 -0.031191293 0.023967288 0.048044425
-0.060690045 -0.006334865 -0.07671139 -0.024613524 -0.045246545 0.048101272 0.009960744 0.002400615
0.056973036 0.0021904116 -0.04929216 -0.009290332 0.0879187 -0.036765143 0.06526786 0.008903929
00000000: d940 ef3b b771 98ba 7849 babc ea3d 803c
00000010: 1e41 a43d daa0 f7bc 43c4 3ebd 14db 363d
00000020: d87f d53c f525 0abb 1266 b9bc fdd7 253d
00000030: b97e 4d3d e284 ffbc 0c57 c43c 3bca 443d
00000040: 2096 78bd b394 cfbb dc1a 9dbd 4da2 c9bc
00000050: 7154 39bd d705 453d 6332 233c a353 1d3b
00000060: 8f5c 693d 028d 0f3b 93e6 49bd 7a36 18bc
00000070: b80e b43d 0c97 16bd 28ab 853d c9e1 113c

Conv_BN_ReLU2.1.weight f4 [32]
0.94206077 1.0115981 0.99572283 1.2120703 1.1588131 0.9974427 0.90858734 0.9933784
0.90048367 1.0174935 0.9331332 1.0355752 1.0154533 1.137545 1.3593024 1.1011311
1.1550213 0.9495625 0.9172733 0.97047645 1.0725365 0.9395295 1.0370483 0.88184685
1.0267541 1.0872712 0.9174608 0.9963963 1.079309 0.9339836 0.9063406 1.0145943
00000000: e52a 713f 0c7c 813f b1e7 7e3f 1f25 9b3f
00000010: fd53 943f 6858 7f3f 2e99 683f 0c4e 7e3f
00000020: 1986 663f 3a3d 823f d1e1 6e3f ba8d 843f
00000030: 60fa 813f 139b 913f 9ffd ad3f ddf1 8c3f
00000040: bdd7 933f 8716 733f 6cd2 6a3f 2571 783f
00000050: e048 893f 0185 703f 00be 843f b7c0 613f
00000060: ae6c 833f b42b 8b3f b6de 6a3f d413 7f3f
00000070: cc26 8a3f 8d19 6f3f f005 683f 3ade 813f

Conv_BN_ReLU2.1.bias f4 [32]
-0.058249995 -0.15375355 -0.057670664 -0.019097615 -0.032157708 0.03715203 -0.12962957 -0.08222274
-0.10248593 -0.066848695 -0.17145321 -0.075025946 -0.033733223 0.051556587 0.085121 -0.05244454
-0.009220221 -0.16542202 -0.1613258 -0.118186474 -0.10009802 -0.031977084 -0.015791968 -0.12622663
-0.06236981 -0.007351634 -0.15695827 -0.06788835 0.018727785 -0.1279917 -0.16496822 -0.059416227
00000000: 8c97 6ebd 9271 1dbe 1338 6cbd 9a72 9cbc
00000010: cdb7 03bd ba2c 183d 9dbd 04be 6564 a8bd
00000020: 25e4 d1bd f8e7 88bd 6e91 2fbe 34a7 99bd
00000030: d92b 0abd 002d 533d eb53 ae3d 16d0 56bd
00000040: 6910 17bc 6464 29be 9732 25be c00b f2bd
00000050: 3100 cdbd 67fa 02bd 285e 81bc 8e41 01be
00000060: 7c77 7fbd fae5 f0bb abb9 20be 0c09 8bbd
00000070: 036b 993c 4210 03be 6eed 28be 6e5e 73bd

Conv_BN_ReLU2.1.running_mean f4 [32]
0.3298696 0.30497104 -0.50189245 -0.6716285 -0.480835 -0.5544201 -0.9665669 -1.0477923
-0.20262884 -0.77623206 -0.06998503 -0.7532196 -0.42972875 -0.7025524 -0.5738556 -0.88835263
-0.38878968 0.62778306 0.09951829 -0.66192466 -0.25161183 -0.31023002 -0.9957543 0.71400636
-0.55480105 -0.45450655 -0.60308313 -0.35066414 -0.58226854 -0.13639814 1.1904032 -0.21630299
00000000: abe4 a83e 2a25 9c3e 067c 00bf d8ef 2bbf
00000010: 0130 f6be 7aee 0dbf ee70 77bf 0f1e 86bf
00000020: ef7d 4fbe 25b7 46bf 5054 8fbd 00d3 40bf
00000030: 6805 dcbe 79da 33bf 33e8 12bf 146b 63bf
00000040: 710f c7be 64b6 203f 3fd0 cb3d e573 29bf
00000050: 44d3 80be 78d6 9ebe c1e9 7ebf 1fc9 363f
00000060: 7107 0ebf 15b5 e8be a863 1abf 408a b3be
00000070: 8d0f 15bf f4ab 0bbe 225f 983f 887e 5dbe

Conv_BN_ReLU2.1.running_var f4 [32]
0.6611583 0.93561995 0.6150393 0.4957771 0.59108174 0.710417 0.68769515 0.85676235
0.46863505 0.9042924 0.6052339 0.68928623 0.5504194 0.9918224 0.7183216 0.99802953
0.38147536 0.79740536 0.43956095 1.0204672 0.25114933 0.36941266 0.9192814 0.8087799
0.81267726 0.51165956 0.292847 0.38503915 0.44249463 0.4349321 0.77003694 0.28031644
00000000: ac41 293f ca84 6f3f 3773 1d3f 7fd6 fd3e
00000010: 2251 173f e3dd 353f ca0c 303f c754 5b3f
00000020: eff0 ef3e b57f 673f 9cf0 1a3f 1075 303f
00000030: 49e8 0c3f 13e8 7d3f ede3 373f dd7e 7f3f
00000040: bd50 c33e c222 4c3f 220e e13e ab9e 823f
00000050: a596 803e a823 bd3e 0756 6b3f 330c 4f3f
00000060: 9e0b 503f 1ffc 023f 0bf0 953e da23 c53e
00000070: a88e e23e 6caf de3e 2421 453f a385 8f3e

Conv_BN_ReLU2.3.weight f4 [32, 32, 3, 3]
-0.10055152 -0.10883713 -0.056170013 -0.12881339 -0.034574296 -0.011471012 -0.0730217 -0.09178907
0.013539556 0.10922163 0.104284495 0.09659752 0.07444246 0.033809725 0.15610693 0.07165334
0.12216599 0.08447884 0.009660007 0.080161124 0.12251872 0.016076418 0.0006590662 0.018485287
-0.009057146 -0.014502282 0.028260456 -0.05314426 -0.05229801 -0.059028786 0.021921804 0.012019201
-0.091789685 0.033785313 -0.0304715 -0.024322545 -0.017240165 -0.04298833 -0.0776911 0.01022263
-0.022917056 0.021524368 -0.030748837 0.0028744943 -0.08179443 0.00036905726 9.614198e-05 0.05364919
-0.05133128 0.059252992 0.0095770005 -0.06961756 -0.025313815 0.057612527 0.06685158 0.0898777
0.06267006 0.11337852 0.0062819845 0.046177473 0.08293617 0.06516896 0.08798826 -0.07515329
-0.116531156 -0.012289176 -0.053644788 -0.027899615 0.0026658583 0.0045754905 0.0018893658 0.0039406368
0.0054062596 0.0038878236 0.0999343 0.037737466 -0.024375297 0.019100659 -0.0074727493 -0.013786123
-0.031344306 -0.09075832 -0.026658252 -0.03514259 -0.04119751 -0.037705377 -0.0550066 -0.082596734
-0.09005971 -0.09568479 -0.048650395 -0.07918138 -0.03032462 -0.040771388 -0.08279108 -0.019661905
-0.0022418671 -0.03260059 -0.040622246 0.025615053 -0.0399354 0.019230269 -0.03224608 0.054728955
-0.010621377 -0.007060447 0.0011617925 0.07579044 -0.04474601 -0.026123526 -0.06601517 -0.022832835
-0.04259692 -0.058080215 -0.015183633 -0.04978071 0.0024155877 0.01565137 -0.018556425 0.014036889
-0.024028273 -0.05956838 -0.05310242 0.022371566 -0.032635596 -0.03762259 0.080410995 -0.07131376
-0.06542105 -0.057245433 -0.0536134 0.03466584 -0.07633137 -0.044523884 -0.011487863 0.017153816
0.046373107 -0.032000538 -0.046030357 -0.014220713 -0.026412636 0.045255944 0.015450833 0.03471516
0.059708346 0.013584897 -0.037284378 0.001353428 0.05460025 -0.060965046 -0.013819758 0.060461115
-0.010111638 -0.019332286 0.03991184 0.06885702 0.053456407 -0.01372955 0.0733296 -0.013671076
-0.029744137 -0.046498902 -0.0740291 -0.019993873 -0.04385231 0.029328948 -0.004259667 -0.10171771
-0.05998931 -0.06844204 -0.042279806 -0.074378796 0.042229 -0.018584626 -0.024373448 -0.025270881
-0.00043868585 0.008955988 -0.0034615998 -0.0377257 -0.051988132 -0.043411385 -0.018441834 0.00948923
-0.06663822 -0.09983511 -0.04216569 0.0268467 -0.06623061 0.01742022 0.0019429536 0.015381445
-0.00063535094 0.008841137 -0.0020732705 0.027257362 0.018775584 -0.045565788 -0.031099955 -0.032641776
0.043669704 0.038267154 0.049668465 -0.014175704 -0.029136607 0.05522459 0.030831259 0.02008598
-0.06306943 0.026192559 0.04706329 0.006505895 0.058463495 0.034480713 -0.019592337 0.0629599
-0.09262745 -0.1227839 -0.019707682 -0.05298123 -0.114719 -0.034666643 -0.109532155 -0.06485077
-0.07141927 -0.008218535 -0.025268424 -0.06774415 0.015995527 -0.0044968086 -0.09126938 0.06590612
-0.06487319 -0.0684713 0.08067957 0.105858475 0.031808544 0.046019733 0.10538712 0.06760588
0.05137985 0.10198409 0.13368246 0.07080988 -0.02316889 -0.021684334 0.040847886 -0.008209711
-0.03225376 0.12054756 0.0529786 -0.013943851 -0.07122101 -0.036438935 -0.04147871 -0.08408592
00000000: f5ed cdbd 00e6 debd 8712 66bd a8e7 03be
00000010: c79d 0dbd e9f0 3bbc 678c 95bd e8fb bbbd
00000020: 04d5 5d3c 97af df3d 1c93 d53d ecd4 c53d
00000030: 4a75 983d 117c 0a3d 7fda 1f3e fcbe 923d
00000040: 2a32 fa3d 3e03 ad3d 0245 1e3c 842b a43d
00000050: 18eb fa3d b1b2 833c 2fc5 2c3a 756e 973c
00000060: 6c64 14bc fb9a 6dbc 7982 e73c ccad 59bd
00000070: 7036 56bd 2bc8 71bd 5b95 b33c 2fec 443c
00000080: 3bfc bbbd 7862 0a3d 5e9f f9bc 1340 c7bc
00000090: 3f3b 8dbc 8814 30bd 831c 9fbd d17c 273c
000000a0: 8dbc bbbc df53 b03c fce4 fbbc 0362 3c3b
000000b0: d783 a7bd 077e c139 d59f c938 41bf 5b3d
000000c0: c040 52bd 44b3 723d dae8 1c3c a793 8ebd
000000d0: eb5e cfbc 1dfb 6b3d 7be9 883d cd11 b83d
000000e0: 2959 803d ff32 e83d 1bd9 cd3b 9724 3d3d
000000f0: 70da a93d 4e77 853d 3033 b43d f8e9 99bd
00000100: e3a7 eebd 8a58 49bc a3ba 5bbd bc8d e4bc
00000110: aeb5 2e3b ffed 953b 99a4 f73a 7520 813b
00000120: fe26 b13b dbca 7e3b 5baa cc3d 9a92 1a3d
00000130: b4ae c7bc fc78 9c3c f7dd f4bb 31df 61bc
00000140: e362 00bd 80df b9bd 6862 dabc adf1 0fbd
00000150: b8be 28bd f470 1abd 9a4e 61bd 7a28 a9bd
00000160: 3a71 b8bd 63f6 c3bd a345 47bd d929 a2bd
00000170: 566b f8bc e6ff 26bd 5f8e a9bd 0112 a1bc
00000180: 4aec 12bb 3288 05bd 8363 26bd a9d6 d13c
00000190: 4d93 23bd cc88 9d3c 7714 04bd 782b 603d
000001a0: 4905 2ebc 525b e7bb 4a47 983a 0538 9b3d
000001b0: 9847 37bd 0101 d6bc f632 87bd ed0b bbbc
000001c0: 1c7a 2ebd 85e5 6dbd c6c4 78bc dce6 4bbd
000001d0: d64e 1e3b 4d37 803c a503 98bc fbfa 653c
000001e0: f1d6 c4bc f9fd 73bd ec81 59bd 9344 b73c
000001f0: e7ac 05bd 251a 1abd 85ae a43d f30c 92bd
00000200: 79fb 85bd 307a 6abd b999 5bbd c5fd 0d3d
00000210: 9f53 9cbd ad5e 36bd 9737 3cbc 2986 8c3c
00000220: baf1 3d3d ff12 03bd 548a 3cbd fefd 68bc
00000230: 505f d8bc 4c5e 393d 7e25 7d3c 7c31 0e3d
00000240: bd90 743d 3093 5e3c 81b7 18bd 8265 b13a
00000250: 83a4 5f3d 7cb6 79bd 446c 62bc 13a6 773d
00000260: 49ab 25bc be5e 9ebc 997a 233d e904 8d3d
00000270: 1bf5 5a3d e8f1 60bc d42d 963d a6fc 5fbc
00000280: faa9 f3bc a275 3ebd 929c 97bd 31ca a3bc
00000290: 7b9e 33bd 4343 f03c ad94 8bbb 6051 d0bd
000002a0: 5ab7 75bd 572b 8cbd 972d 2dbd e953 98bd
000002b0: 51f8 2c3d c93e 98bc d3aa c7bc e104 cfbc
000002c0: 6bff e5b9 23bc 123c 02dc 62bb 4386 1abd
000002d0: 82f1 54bd 23d0 31bd 5413 97bc b778 1b3c
000002e0: 9e79 88bd 5a76 ccbd eeb5 2cbd 9ced db3c
000002f0: eaa3 87bd d9b4 8e3c b4aa fe3a 7502 7c3c
00000300: ae8d 26ba 6bda 103c b5df 07bb d54a df3c
00000310: 41cf 993c 31a3 3abd 55c5 febc 62b3 05bd
00000320: 01df 323d 05be 1c3d 2971 4b3d 3641 68bc
00000330: e5af eebc 2e33 623d d691 fc3c 5a8b a43c
00000340: 8c2a 81bd c791 d63c 70c5 403d 672f d53b
00000350: 6b77 6f3d a63b 0d3d 1c80 a0bc 1ff1 803d
00000360: 76b3 bdbd 2076 fbbd 0172 a1bc d902 59bd
00000370: ccf1 eabd 9cfe 0dbd 6552 e0bd 7bd0 84bd
00000380: 4444 92bd 09a7 06bc baff cebc 72bd 8abd
00000390: 0d09 833c f759 93bb 71eb babd caf9 863d
000003a0: 3cdc 84bd ae3a 8cbd 553b a53d 54cc d83d
000003b0: ad49 023d 307f 3c3d 34d5 d73d f474 8a3d
000003c0: ad73 523d 09dd d03d 0ee4 083e c504 913d
000003d0: afcc bdbc 58a3 b1bc 1d50 273d 0682 06bc
000003e0: 851c 04bd a4e1 f63d 1700 593d c074 64bc
000003f0: 52dc 91bd fe40 15bd 94e5 29bd 3d35 acbd

Conv_BN_ReLU2.3.bias f4 [32]
-0.05021868 -0.04536174 -0.06000121 0.04144171 -0.055120103 -0.0063367565 0.03122641 0.04127465
-0.026741453 0.015380466 -0.036569953 0.0501065 -0.051539827 0.04665653 0.028825238 0.030676248
0.0404782 -0.009557192 -0.048119884 -0.036120832 -0.045310088 0.028729195 -0.057698917 -0.03937002
0.02503643 0.00089811784 -0.0014802519 -0.030463565 -0.051696364 0.028201552 -0.026478492 -0.041234456
00000000: 1ab2 4dbd 3bcd 39bd d4c3 75bd c8be 293d
00000010: 9ec5 61bd 91a4 cfbb 87ce ff3c 9b0f 293d
00000020: e410 dbbc 5afe 7b3c 60ca 15bd 793c 4d3d
00000030: 6d1b 53bd eb1a 3f3d e822 ec3c c14c fb3c
00000040: 78cc 253d c595 1cbc 5b19 45bd 70f3 13bd
00000050: 1297 39bd 7d59 eb3c b355 6cbd 7542 21bd
00000060: 3319 cd3c ab6f 6b3a 0305 c2ba ba8e f9bc
00000070: 91bf 53bd f106 e73c 6ce9 d8bc 76e5 28bd

Conv_BN_ReLU2.4.weight f4 [32]
0.9802234 1.00089 1.0634451 0.9859428 1.0321076 0.9363835 0.95322025 0.95857555
0.9867136 0.97121227 0.9772864 1.0592469 0.99323696 0.96467865 0.93309635 0.93591046
1.0831952 0.95945543 0.9610418 0.9454369 0.99275416 0.9216044 0.9499635 1.0980918
0.85051584 0.98797584 0.9853204 0.98403937 0.9981868 0.9467198 1.0006108 0.86208606
00000000: ecef 7a3f 2a1d 803f f81e 883f bf66 7c3f
00000010: 1a1c 843f d4b6 6f3f 3e06 743f 3565 753f
00000020: 4399 7c3f 5ea1 783f 712f 7a3f 6795 873f
00000030: c744 7e3f 2ef5 763f 67df 6e3f d497 6f3f
00000040: 24a6 8a3f df9e 753f d606 763f 2708 723f
00000050: 2325 7e3f 44ee 6b3f cf30 733f 468e 8c3f
00000060: 68bb 593f fceb 7c3f f53d 7c3f 01ea 7b3f
00000070: 2c89 7f3f 3b5c 723f 0414 803f acb1 5c3f

Conv_BN_ReLU2.4.bias f4 [32]
-0.0952308 -0.1780212 -0.18878597 -0.15061873 -0.15655546 -0.16642772 -0.10538431 -0.16266178
-0.102261275 -0.19772649 -0.1893213 -0.09909198 -0.16002433 -0.18388881 -0.035392813 -0.071435586
-0.13609804 -0.11505451 -0.23426984 -0.10369445 -0.14586116 -0.14404896 -0.096367076 -0.24495567
-0.22615749 -0.08463601 -0.12266318 -0.10754634 -0.023959482 -0.13476369 -0.12018273 -0.12282127
00000000: 5e08 c3bd 304b 36be 1c51 41be cc3b 1abe
00000010: 1350 20be 076c 2abe bbd3 d7bd cf90 26be
00000020: 5c6e d1bd d078 4abe 71dd 41be bcf0 cabd
00000030: 6bdd 23be 594d 3cbe 0ef8 10bd d24c 92bd
00000040: 495d 0bbe b3a1 ebbd 6fe4 6fbe c15d d4bd
00000050: a15c 15be 9281 13be 1a5c c5bd a9d5 7abe
00000060: d495 67be a555 adbd d536 fbbd 4141 dcbd
00000070: ad46 c4bc 7eff 09be 5d22 f6bd b889 fbbd

Conv_BN_ReLU2.4.running_mean f4 [32]
-0.9743521 -0.4981092 -0.64013606 -0.8837074 -1.1496434 0.35182878 -0.6309515 -0.4303045
-0.24111393 -0.92407817 -0.12013434 -0.7927238 -0.18371524 -0.24434118 -0.222288 -0.41482636
0.10681459 -1.0208551 -0.06443657 -0.4431135 2.04508 0.7249538 -0.7353146 -0.04277361
-1.0579493 -0.07439815 -0.9333664 -0.32029396 -0.49858528 -0.3125233 0.3045678 -1.1250377
00000000: 246f 79bf 2b08 ffbe f5df 23bf a63a 62bf
00000010: 8427 93bf e722 b43e 0a86 21bf df50 dcbe
00000020: 92e6 76be 6390 6cbf fe08 f6bd f2ef 4abf
00000030: d91f 3cbe 9334 7abe 779f 63be 1f64 d4be
00000040: 9cc1 da3d 61ab 82bf 52f7 83bd c6df e2be
00000050: 97e2 0240 9296 393f 943d 3cbf 6233 2fbd
00000060: e26a 87bf 0f5e 98bd 1af1 6ebf 92fd a3be
00000070: 9246 ffbe 0e03 a0be 50f0 9b3e 3c01 90bf

Conv_BN_ReLU2.4.running_var f4 [32]
1.178068 0.91229624 0.8559452 1.3174063 0.8244646 0.9278329 0.58225363 1.5917475
0.8937239 0.5670986 0.7702414 1.0425767 0.7640621 1.2318866 0.61512476 1.2167633
0.8233612 0.56716603 0.56541014 1.162905 1.0711101 0.45953697 0.65777355 0.9018628
0.87751704 1.0886168 0.61670583 0.90344423 1.0620612 0.6342137 0.88200366 0.77588797
00000000: efca 963f 3f8c 693f 3a1f 5b3f c5a0 a83f
00000010: 1d10 533f 7586 6d3f 930e 153f 62be cb3f
00000020: 17cb 643f 602d 113f 8a2e 453f 2773 853f
00000030: 9399 433f 76ae 9d3f d178 1d3f e6be 9b3f
00000040: cdc7 523f cb31 113f b8be 103f 12da 943f
00000050: 231a 893f 6e48 eb3e d963 283f 7be0 663f
00000060: f5a4 603f cc57 8b3f 6fe0 1d3f 1f48 673f
00000070: 9ff1 873f d45b 223f feca 613f 98a0 463f

Conv_BN_ReLU3.0.weight f4 [32, 32, 3, 3]
0.07180334 -0.039120175 0.037893325 0.0075472537 0.014467144 0.025287142 -0.0061045317 -0.041390736
-0.08942965 -0.08762464 0.10130576 0.0642692 0.054111544 0.06287205 0.052487154 0.0116386935
-0.070304796 -0.051257752 0.0037991598 0.1226725 0.09610447 -0.0020501958 0.13398051 0.04938467
-0.026830232 0.11843705 0.16723767 -0.08301498 -0.08118754 -0.049389564 -0.12464774 -0.01527316
-0.07501517 -0.09628875 -0.00083418295 -0.008120347 0.03864574 0.005701236 -0.0038788258 0.011093625
0.07075439 0.077102944 0.07080871 0.048292767 0.047164794 0.034534816 -0.07373928 0.026093658
-0.005897712 -0.035880685 0.11070069 0.05013421 0.03771452 0.024797752 0.14203551 0.10071875
-0.030193154 0.0333826 0.013859848 -0.06606793 0.08305153 0.105618075 0.018467108 0.020297147
0.04705359 -0.013354233 -0.002216327 -0.019299783 -0.050774023 0.044476945 0.046991058 -0.052289944
0.0065156245 0.042291317 -0.011389187 0.016675577 0.029893478 -0.013422113 0.022662057 -0.021582376
-0.10837055 0.13054013 0.008210731 0.035695318 0.029960323 -0.0026216714 -0.015590164 0.068221785
-0.01898619 -0.052801482 0.054608997 0.06542195 0.06869507 0.0407414 -0.043955423 -0.079833955
0.023182768 0.025951058 -0.0019320174 -0.06672744 0.085360795 0.062326603 0.016177932 -0.010155676
0.01937022 -0.036363058 0.008795182 0.09331156 0.1467888 0.051885646 0.1329372 0.084438175
0.045317147 0.12003643 -0.0420229 0.07560204 0.17558712 -0.034188215 0.035857994 -0.04165989
-0.02832834 -0.031092849 -0.041698325 -0.036611214 8.169003e-05 -0.05706981 0.12106374 0.12987748
0.045842435 -0.011298455 0.122520834 -0.015860206 -0.05831791 0.098267645 -0.044675954 0.0043135365
-0.007869096 -0.03677012 -0.01554058 -0.079536155 -0.082262166 0.025402129 0.038466964 0.0012137409
0.16309099 0.23648793 0.18390694 0.10737359 0.18049519 0.05652597 0.10820663 0.1313125
0.04654896 0.03539757 0.04858661 -0.033229306 0.07339031 0.063306786 0.05060594 0.07068901
0.090989575 0.08882872 -0.09357801 -0.038566135 -0.19726539 -0.00019637714 -0.032129403 -0.13742873
0.045991335 0.008837854 -0.07020909 0.03278589 0.09855969 -0.027600208 0.003675011 0.09037336
-0.03168602 0.05696399 0.026155733 -0.044914104 -0.022000747 0.05288943 0.09825783 0.043190643
0.08051902 0.12977223 -0.009366227 -0.027516996 0.044869483 -0.086924374 0.06646154 -0.0111563355
-0.050033536 0.04300975 -0.08154005 -0.059805013 -0.077889554 -0.13325739 0.12672462 0.085392706
-0.0021574365 0.122285515 0.13744132 -0.023533804 0.028118476 0.050385743 -0.06947863 0.09203777
0.055036314 0.053543743 0.029200992 -0.028509526 0.05547746 -0.013372902 -0.04250463 0.068096004
-0.062233508 0.015619397 -0.049927242 0.0025226718 -0.0075962674 -0.08004837 0.064063706 0.016478293
-0.067323916 0.0691236 -0.011095554 -0.0032689213 0.06309112 -0.015416965 0.016835162 -0.014558085
-0.035031874 -0.04471709 0.0041880067 0.025185416 0.07628294 0.03336253 0.02431511 0.046515606
0.05452092 0.09086362 0.1191438 0.0049087526 -0.035608366 0.07765783 -0.014534228 0.040664572
0.09972094 -0.06534346 -0.013638224 0.059128154 -0.092570245 0.04118691 0.046397734 -0.13007356
00000000: a10d 933d 7a3c 20bd 0836 1b3d f44e f73b
00000010: 9a07 6d3c fb26 cf3c 8608 c8bb 5589 29bd
00000020: e426 b7bd 8c74 b3bd 6579 cf3d 929f 833d
00000030: 11a4 5d3d 10c3 803d c5fc 563d 38b0 3e3c
00000040: f6fb 8fbd a6f3 51bd 53fb 783b b83b fb3d
00000050: 6cd2 c43d 945c 06bb 3032 093e 9447 4a3d
00000060: 13cb dbbc 208f f23d 5a40 2b3e c203 aabd
00000070: a745 a6bd b64c 4abd 5047 ffbd 473c 7abc
00000080: 8ea1 99bd 0933 c5bd 12ad 5aba 340b 05bc
00000090: ff4a 1e3d 6fd1 ba3b e633 7ebb 09c2 353c
000000a0: ade7 903d 26e8 9d3d 2804 913d a3ce 453d
000000b0: df2f 413d 6174 0d3d 9f04 97bd 5ec2 d53c
000000c0: 9841 c1bb a0f7 12bd 0bb7 e23d 8859 4d3d
000000d0: 8a7a 1a3d a824 cb3c c271 113e a245 ce3d
000000e0: a257 f7bc 31bc 083d 6a14 633c 9f4e 87bd
000000f0: ec16 aa3d 4a4e d83d 5548 973c 3446 a63c
00000100: 44bb 403d b6cb 5abc cc3f 11bb 941a 9ebc
00000110: 6cf8 4fbd 752d 363d b279 403d fb2d 56bd
00000120: 0581 d53b a939 2d3d b699 3abc 389b 883c
00000130: 2be3 f43c 6ce8 5bbc c7a5 b93c 86cd b0bc
00000140: 61f1 ddbd 50ac 053e 4d86 063c 4135 123d
00000150: 5a6f f53c 59d0 2bbb e36d 7fbc ddb7 8b3d
00000160: ed88 9bbc 5e46 58bd afad 5f3d f1fb 853d
00000170: 00b0 8c3d 74e0 263d 9a0a 34bd fc7f a3bd
00000180: cae9 bd3c 5097 d43c bf3b fdba 65a8 88bd
00000190: a4d1 ae3d 2e4a 7f3d 9587 843c fe63 26bc
000001a0: 4cae 9e3c 6ef1 14bd ab19 103c 221a bf3d
000001b0: ce4f 163e 0b86 543d b020 083e eced ac3d
000001c0: 799e 393d a9d5 f53d 3420 2cbd 3ed5 9a3d
000001d0: 1ccd 333e f108 0cbd d5df 123d 90a3 2abd
000001e0: d610 e8bc 6eb6 febc ddcb 2abd a4f5 15bd
000001f0: 0051 ab38 08c2 69bd 44f0 f73d 9afe 043e
00000200: 47c5 3b3d 281d 39bc 34ec fa3d 43ed 81bc
00000210: c3de 6ebd 8c40 c93d 22fe 36bd 9158 8d3b
00000220: 61ed 00bc 449c 16bd eb9d 7ebc dae3 a2bd
00000230: 1179 a8bd 2018 d03c 898f 1d3d 6316 9f3a
00000240: 5301 273e e429 723e 1a52 3c3e afe6 db3d
00000250: bbd3 383e c787 673d 709b dd3d c976 063e
00000260: 1faa 3e3d 0bfd 103d c102 473d 741b 08bd
00000270: a94d 963d fda6 813d 2d48 4f3d 66c5 903d
00000280: be58 ba3d d5eb b53d d4a5 bfbd 86f7 1dbd
00000290: f0ff 49be 96ea 4db9 1f9a 03bd 1eba 0cbe
000002a0: 6961 3c3d a5cc 103c c9c9 8fbd 7f4a 063d
000002b0: aad9 c93d d519 e2bc 74d8 703b ab15 b93d
000002c0: 33c9 01bd 1353 693d 8c44 d63c daf7 37bd
000002d0: e93a b4bc 96a2 583d 673b c93d ace8 303d
000002e0: 28e7 a43d 03e3 043e ce74 19bc 536b e1bc
000002f0: 10c9 373d 6805 b2bd fd1c 883d 10c9 36bc
00000300: f7ef 4cbd fe2a 303d 78fe a6bd 1af6 74bd
00000310: 8f84 9fbd a074 08be 19c4 013e 5fe2 ae3d
00000320: c763 0dbb d470 fa3d 6bbd 0c3e f7c9 c0bc
00000330: b858 e63c 4861 4e3d d04a 8ebd 4c7e bc3d
00000340: c26d 613d af50 5b3d eb36 ef3c cf8c e9bc
00000350: 553c 633d 041a 5bbc 5619 2ebd eb75 8b3d
00000360: 90e8 7ebd 80e8 7f3c 8280 4cbd 6953 253b
00000370: 1cea f8bb 66f0 a3bd d533 833d 7cfd 863c
00000380: 1fe1 89bd ad90 8d3d 20ca 35bc 663b 56bb
00000390: eb35 813d 7097 7cbc e5e9 893c 0985 6ebc
000003a0: 957d 0fbd 4429 37bd 8c3b 893b a551 ce3c
000003b0: 3b3a 9c3d 26a7 083d 7b30 c73c 2687 3e3d
000003c0: 5451 5f3d b516 ba3d aa01 f43d 9ad9 a03b
000003d0: 14da 11bd 120b 9f3d f820 6ebc e58f 263d
000003e0: 7e3a cc3d cbd2 85bd dc72 5fbc 5d30 723d
000003f0: 7895 bdbd 9bb3 283d 8d0b 3e3d 0132 05be

Conv_BN_ReLU3.0.bias f4 [32]
0.03747821 0.025676234 -0.023868041 -0.021871047 -0.056275174 0.023649191 -0.00018916615 0.046719644
-0.023389407 -0.04441442 0.03760381 -0.012832953 -0.01746032 -0.03666969 0.054782886 0.055167608
-0.05756277 0.03127453 -0.03259619 0.042623624 0.034473088 -0.064527266 -0.0075810296 -0.046530485
-0.023853451 -0.044065822 -0.055946905 -0.033964925 0.055500194 0.052906368 0.03089213 0.011374433
00000000: c082 193d f756 d23c e986 c3bc e92a b3bc
00000010: cc80 66bd f3bb c13c e75a 46b9 195d 3f3d
00000020: 249b bfbc e5eb 35bd 7406 1a3d 4e41 52bc
00000030: f208 8fbc f532 16bd 0564 603d 6ef7 613d
00000040: f0c6 6bbd b919 003d 9583 05bd 1c96 2e3d
00000050: a733 0d3d df26 84bd 496a f8bb c096 3ebd
00000060: 5068 c3bc 5d7e 34bd 9528 65bd ce1e 0bbd
00000070: 2c54 633d 59b4 583d 7e11 fd3c d45b 3a3c

Conv_BN_ReLU3.1.weight f4 [32]
0.99796546 0.93687457 1.0759591 1.0505645 1.0119874 1.2075592 1.0207411 0.8899432
1.0574251 0.927943 0.9405077 0.9444979 0.9431743 0.9736868 0.9863189 0.9175268
1.005111 0.90602595 0.8889783 0.98898005 0.96182555 1.0773617 0.8907946 1.0373211
0.9495247 0.95771825 1.0422933 0.96309775 0.9524716 0.90648735 0.9908919 0.9725698
00000000: aa7a 7f3f 03d7 6f3f 07b9 893f e678 863f
00000010: ce88 813f 4d91 9a3f a5a7 823f 51d3 633f
00000020: b559 873f ac8d 6d3f 1dc5 703f 9dca 713f
00000030: df73 713f 8a43 793f 657f 7c3f 09e3 6a3f
00000040: 7aa7 803f 51f1 673f 1594 633f cc2d 7d3f
00000050: 333a 763f fde6 893f 1d0b 643f f0c6 843f
00000060: 0d14 733f 062d 753f de69 853f 938d 763f
00000070: 2ed5 733f 8e0f 683f 17ab 7d3f 56fa 783f

Conv_BN_ReLU3.1.bias f4 [32]
-0.09106895 -0.17222852 0.08690013 -0.08473352 -0.044336475 -0.42597255 -0.14202341 -0.14562564
0.07665375 -0.13667715 -0.13614294 -0.0036655755 -0.10355723 -0.081828974 -0.10862015 -0.20256689
-0.07425145 -0.30314755 -0.15863667 -0.15693063 -0.2300294 -0.21026358 -0.120132856 -0.31811267
-0.26326904 -0.21778871 -0.19285744 -0.19682941 -0.2735723 -0.03944182 -0.07092126 -0.07261992
00000000: 5c82 babd ac5c 30be b2f8 b13d c588 adbd
00000010: 2a9a 35bd 1319 dabe 966e 11be e31e 15be
00000020: a4fc 9c3d 18f5 0bbe 0e69 0bbe 273a 70bb
00000030: d015 d4bd f395 a7bd 3e74 debd b26d 4fbe
00000040: 2511 98bd 2836 9bbe a771 22be 6cb2 20be
00000050: d48c 6bbe 564f 57be 3708 f6bd aadf a2be
00000060: 33cb 86be 0104 5fbe 6c7c 45be a68d 49be
00000070: ab11 8cbe bf8d 21bd 2a3f 91bd c1b9 94bd

Conv_BN_ReLU3.1.running_mean f4 [32]
3.3358166 1.4976674 -1.7385374 -1.3618214 -1.7429799 1.3978283 -0.5854439 -0.9327599
-0.89964986 -0.7641244 0.85273427 -1.2320749 0.6746064 -0.99005055 -1.6317412 0.16339836
-1.7370149 0.23196372 -0.5217373 -1.1977609 0.33988595 0.8317485 -1.1232065 0.70504946
-1.1484935 0.8356339 -1.0328938 -0.06667385 0.43284804 0.2133251 -1.2306563 -1.1045257
00000000: 057e 5540 91b3 bf3f 6588 debf 2a50 aebf
00000010: f719 dfbf 0aec b23f a7df 15bf 5ac9 6ebf
00000020: 744f 66bf a89d 43bf cb4c 5a3f a1b4 9dbf
00000030: 01b3 2c3f f473 7dbf e5dc d0bf e651 273e
00000040: 8156 debf e687 6d3e 9390 05bf 3b50 99bf
00000050: 8805 ae3e 78ed 543f 3bc5 8fbf 1f7e 343f
00000060: d601 93bf 1aec 553f dd35 84bf 4d8c 88bd
00000070: 429e dd3e e571 5a3e 2586 9dbf 1961 8dbf

Conv_BN_ReLU3.1.running_var f4 [32]
1.87109 1.3614345 0.9655194 1.1291257 1.6801623 0.9211836 1.2739468 1.4301213
0.7402527 1.337095 1.3630031 0.86863315 1.268547 1.4552923 1.9398588 1.1624464
1.6308403 1.9521132 1.6141424 1.3176908 0.98889047 0.95472044 1.0853236 0.8216854
1.7563512 0.8063103 1.2403315 0.8430577 0.89193165 0.70854264 0.8630454 2.234368
00000000: e17f ef3f 7c43 ae3f 482c 773f 3187 903f
00000010: 8f0f d73f b0d2 6b3f b010 a33f 370e b73f
00000020: 3381 3d3f ee25 ab3f e376 ae3f be5e 5e3f
00000030: c05f a23f 0547 ba3f 4b4d f83f 0bcb 943f
00000040: 60bf d03f d8de f93f 389c ce3f 18aa a83f
00000050: ed27 7d3f 8f68 743f e2eb 8a3f f959 523f
00000060: 1ed0 e03f 5a6a 4e3f 2fc3 9e3f a1d2 573f
00000070: a255 643f 0d63 353f 8bf0 5c3f e3ff 0e40
