CA04/checkpoints/checkpoint.pth (torch, 707509 bytes, 143 tensors)

Conv_BN_ReLU1.0.weight f4 [16, 3, 3, 3]
0	0x3e19e0b4	0.15027124
1	0xbda4a0f8	-0.08038515
2	0xbc0702f6	-0.008240452
3	0xbcc9f89f	-0.024654685
4	0xbe289fd9	-0.16467227
5	0xbd8af6fc	-0.0678539
6	0xbd92524f	-0.07144605
7	0xbd8cc4ed	-0.06873498
8	0xbe37b539	-0.17940225
9	0x3d1f4a41	0.038889173
10	0xbd288740	-0.04114461
11	0x3e49fe52	0.19725922
12	0xbe4bfde0	-0.19921064
13	0x3e7e129e	0.2481179
14	0x3dd11b87	0.102103285
15	0xbe46e404	-0.19422919
16	0x3e149e80	0.14513588
17	0x3e3dcfd3	0.1853631
18	0x3e8e3d9f	0.27781388
19	0xbda3370a	-0.07969482
20	0xbdfc0cc8	-0.12307125
21	0x3e33b1ab	0.17548244
22	0xbe0492e2	-0.12946656
23	0xbe2092f2	-0.15681055
24	0xbda1d47c	-0.07901856
25	0x3e376721	0.17910434
26	0xbe5d499c	-0.21610111
27	0xbe39b5e3	-0.1813579
28	0xbd2b9e1c	-0.04189883
29	0xbe03201d	-0.12805219
30	0xbb5f9285	-0.0034114432
31	0x3e24c0e4	0.16089207
32	0x3da1fe63	0.079098485
33	0xbdfb14d8	-0.12259835
34	0xbd456dae	-0.0482003
35	0x3d67ec5f	0.056621905
36	0xbc0cf49f	-0.008603244
37	0x3e2ea451	0.17054869
38	0x3d25629c	0.040377244
39	0x3e904d61	0.28184035
40	0x3dd7b7e8	0.10533124
41	0xbdec71a1	-0.115451105
42	0x3d2cad92	0.042157717
43	0x3c66bb26	0.014082706
44	0xbe353899	-0.17697372
45	0xbdd8ac77	-0.1057977
46	0xbd16bc52	-0.03680069
47	0x3bbeac90	0.005818911
48	0x3dea6e6d	0.11446843
49	0xbdb0274e	-0.08601247
50	0x3da7c0f4	0.081911
51	0xbe1f43f6	-0.15553269
52	0xbe35f8dd	-0.17770715
53	0x3df4ed50	0.11959326
54	0x3cb0a6cd	0.021563912
55	0x3e9b1652	0.30290467
56	0x3e8bdf45	0.2731878
57	0xbdb6ea0c	-0.0893136
58	0x3e3f1f9d	0.18664403
59	0xbd848f9f	-0.06472706
60	0x3c86eb7c	0.01646971
61	0xbddfd7fe	-0.10929869
62	0xbd2045bf	-0.039129015
63	0x3e18a8cc	0.14908141
64	0xbe908f27	-0.28234217
65	0xbe81597f	-0.25263593
66	0xbc147754	-0.009061653
67	0xbdfc8863	-0.12330701
68	0x3de18463	0.11011579
69	0xbc983b52	-0.018582974
70	0x3d9d179f	0.07670521
71	0xbcac2fa1	-0.021018805
72	0xbdacbe70	-0.084347606
73	0xbc1a89b9	-0.00943225
74	0xbcbcfd8f	-0.023070125
75	0x3e020107	0.12695704
76	0x3c8a67e1	0.016895236
77	0xbd800337	-0.06250613
78	0xbea6d307	-0.32582876
79	0x3d998f71	0.074980624
80	0xbda8767c	-0.08225724
81	0x3d9fc9b5	0.078021444
82	0xbc1721ce	-0.009224368
83	0x3d931bdb	0.071830474
84	0x3e3e715c	0.1859793
85	0xbe4fba37	-0.20285879
86	0x3cc681fc	0.024231903
87	0xbe379b90	-0.17930436
88	0xbe03e4ef	-0.128803
89	0x3e573173	0.21014957
90	0x3e43ea78	0.19132411
91	0xbdb177e5	-0.08665446
92	0xbe2e0664	-0.16994625
93	0x3e37977f	0.17928885
94	0xbe48fba2	-0.1962724
95	0xbc3d429a	-0.011551524
96	0xbdabaf0f	-0.08382999
97	0x3e0aa775	0.13540442
98	0xbe4cf541	-0.20015432
99	0x3de0f1ce	0.109836206
100	0xbe2e059b	-0.16994326
101	0xbbd15aad	-0.006388983
102	0xbd5eda9b	-0.054407697
103	0xbdd3427a	-0.10315414
104	0x3e282e66	0.1642395
105	0xbe6c5a65	-0.23081358
106	0x3e37c83a	0.17947474
107	0x3e67ebca	0.2264854
108	0xbe095314	-0.13410598
109	0xbe03bd22	-0.12865117
110	0x3e450c7a	0.1924304
111	0x3da93394	0.08261791
112	0x3da15c45	0.07878927
113	0xbdfef873	-0.12449732
114	0x3ea48de6	0.3213951
115	0xbe1bbdbb	-0.15209095
116	0x3ea52464	0.32254326
117	0x3d900c38	0.070335805
118	0xbb94f868	-0.004546214
119	0xbc1fa45f	-0.009743779
120	0x3cf798bc	0.030224197
121	0x3d970aa7	0.07375079
122	0xbe3af909	-0.18259062
123	0xbe1902d4	-0.14942485
124	0xbe7b28de	-0.24527308
125	0xbdaef3d4	-0.085426
126	0x3d057671	0.032583658
127	0x3d427ac0	0.047480345
128	0xbc0e530a	-0.00868679
129	0xbe303998	-0.1720947
130	0x3eb1e4d9	0.3474491
131	0xbda2b6fa	-0.07945056
132	0x3e9a762c	0.30168283
133	0x3e1c6e16	0.1527637
134	0x3e07e846	0.13272199
135	0x3d5d8336	0.05408021
136	0x3cd4e561	0.025988283
137	0xbe8268d1	-0.25470594
138	0x3e556fd7	0.20843445
139	0x3dc90292	0.098149434
140	0x3c4c4ae4	0.012469027
141	0xbdfea570	-0.124338984
142	0x3e8e13cd	0.27749482
143	0x3e192eb7	0.14959227
144	0xbde24d32	-0.1104988
145	0x3d2cbce2	0.04217232
146	0x3d877044	0.0661321
147	0x3cfe1eca	0.03102054
148	0x3dfe3c36	0.12413828
149	0x3d8e2834	0.06941262
150	0xbe46aefe	-0.19402692
151	0xbe3651aa	-0.1780459
152	0x3cd4ce7e	0.02597737
153	0x3ce15eb6	0.027510982
154	0xbdc864fd	-0.09784887
155	0x3e0f633d	0.140027
156	0xbe654d2d	-0.22392721
157	0x3cc1b57a	0.023646105
158	0xbe1970ed	-0.14984484
159	0xbe5d47d1	-0.21609427
160	0xbe24a993	-0.16080312
161	0x3e591cef	0.21202444
162	0x3de4efc8	0.11178547
163	0xbbf44d06	-0.007455471
164	0x3e8862e6	0.26637954
165	0xbb53242a	-0.00322176
166	0xbd93633c	-0.07196662
167	0xbbdbdc14	-0.006709585
168	0xbdc93e29	-0.09826309
169	0xbd29372f	-0.041312393
170	0x3d2c61d3	0.04208548
171	0xbe33da8d	-0.1756384
172	0xbea1c069	-0.3159211
173	0xbd02aaf9	-0.031901333
174	0x3d2770ba	0.04087899
175	0xbc6660ef	-0.014061197
176	0xbdecd679	-0.11564345
177	0xbc893fa1	-0.016753973
178	0x3d5cebd6	0.05393585
179	0xbd73d0ef	-0.059525426
180	0x3e247de7	0.16063653
181	0xbe01b74d	-0.1266758
182	0xbdb66dc0	-0.08907652
183	0xbe02b1a2	-0.12763074
184	0x3e58a3ae	0.21156189
185	0xbbcc2002	-0.0062294016
186	0x3ddaac3e	0.10677384
187	0x3e7f9d01	0.24962236
188	0xbd87adc5	-0.06624941
189	0xbe1ffe72	-0.15624407
190	0xbe79928d	-0.24372311
191	0xbe2db796	-0.16964564
192	0x3dc67fcc	0.09692344
193	0xbac194d8	-0.001476909
194	0x3e0252a9	0.12726845
195	0x3d210fa6	0.039321564
196	0xbd3ad283	-0.045610916
197	0x3e7c4607	0.24636088
198	0xbdb5f54f	-0.088846795
199	0xbe6c1c66	-0.23057708
200	0xbdbd6b78	-0.09249014
201	0xbe67bc27	-0.22630368
202	0x3d8cc1e4	0.06872919
203	0xbd504b80	-0.050853252
204	0x3de5b533	0.11216202
205	0x3d4d6d18	0.050152868
206	0xbdd5be8b	-0.10436734
207	0x3e122290	0.14270997
208	0xbe4e93c3	-0.20173554
209	0x3e057521	0.13032962
210	0x3e455149	0.19269289
211	0x3d93938a	0.07205875
212	0xbca7c4cf	-0.020479588
213	0xbeb15c1f	-0.34640595
214	0xbec2b775	-0.38030592
215	0x3d3ad4b8	0.04561302
216	0x3cedf54b	0.029047629
217	0x3d10298e	0.03519588
218	0xbb2782ed	-0.0025560216
219	0xbe276afd	-0.16349407
220	0xbe807d9c	-0.25095832
221	0x3e03578a	0.12826362
222	0xbeea2348	-0.45730042
223	0xbe3378ff	-0.17526625
224	0x3e09576b	0.13412254
225	0x3dd32a1a	0.103107646
226	0x3d2d2aea	0.042277254
227	0xbcbd856a	-0.023134906
228	0x3de1a986	0.11018662
229	0xbc664ff9	-0.014057153
230	0x3e0a0e83	0.13482098
231	0xbea05037	-0.313112
232	0x3de79e08	0.11309439
233	0x3e6a9079	0.22906674
234	0xbd498041	-0.049194578
235	0x3d36c84a	0.044624604
236	0xbd360802	-0.04444123
237	0x3e3faad8	0.18717515
238	0xbe4a6165	-0.19763716
239	0xbd22d035	-0.039749343
240	0xbe923720	-0.28557682
241	0x3c5f488e	0.013628138
242	0xbe151efe	-0.14562604
243	0xbe17c40b	-0.14820878
244	0xbe14afab	-0.14520137
245	0x3cab2b52	0.02089468
246	0xbdfd2044	-0.1235967
247	0xbdd782f2	-0.10523023
248	0xbd1ac6dc	-0.037787303
249	0x3d805e40	0.06267977
250	0xbe85b603	-0.26115426
251	0xbda87c6f	-0.08226859
252	0x3e519820	0.20468187
253	0xbdd187cb	-0.102309786
254	0x3d6602d9	0.05615506
255	0xbdb47aae	-0.08812462

Conv_BN_ReLU1.0.bias f4 [16]
0	0xbd75a04b	-0.05996732
1	0x3e220689	0.15822805
2	0xbe217979	-0.15768994
3	0xbdb2ab4d	-0.08724079
4	0xbe27e791	-0.1639693
5	0xbcac1fc9	-0.02101125
6	0x3e258155	0.16162618
7	0x3b2b37b1	0.0026125724
8	0x3df96e19	0.121792026
9	0x3e2adcf5	0.16685851
10	0x39e11680	0.00042932108
11	0xbe27a328	-0.16370833
12	0xbd93d67b	-0.07218643
13	0xbe5c1c49	-0.21495165
14	0x3e5f2a63	0.21793513
15	0xbd86127b	-0.065464936

Conv_BN_ReLU1.1.weight f4 [16]
0	0x3f63d337	0.88994163
1	0x3f840b09	1.0315868
2	0x3f5bbbb2	0.85833275
3	0x3f8d9e87	1.1064004
4	0x3f5c7aa8	0.8612466
5	0x3f7bf34a	0.98418105
6	0x3f7c2d87	0.9850697
7	0x3f547d1a	0.8300339
8	0x3f517269	0.818152
9	0x3f8602e7	1.0469636
10	0x3f89178f	1.0710315
11	0x3f88d651	1.0690404
12	0x3f7a9343	0.97880954
13	0x3f946e3c	1.1596141
14	0x3f854125	1.0410506
15	0x3f99a886	1.2004554

Conv_BN_ReLU1.1.bias f4 [16]
0	0xbc5fd261	-0.013660998
1	0x3d936425	0.071968354
2	0x3b0e19a4	0.0021682763
3	0x3e3b606b	0.182985
4	0xbeadeb0c	-0.3396839
5	0x3ec52204	0.38502514
6	0x3cdbfcf3	0.026854014
7	0xbe342474	-0.17592031
8	0xbe3bd51a	-0.1834301
9	0x3dddf17d	0.10837076
10	0xbd423327	-0.047412064
11	0x3e03e0d8	0.1287874
12	0xbde61665	-0.1123474
13	0x3e829f78	0.2551229
14	0xbdb7bce1	-0.08971573
15	0x3edb24c2	0.4280148

Conv_BN_ReLU1.1.running_mean f4 [16]
0	0xbe024149	-0.12720217
1	0x3e04576f	0.12923978
2	0xbe8074b1	-0.25089028
3	0xbe012225	-0.12610681
4	0x3dd23640	0.102642536
5	0xbd625d3b	-0.055264693
6	0x3dc1d5c4	0.09464601
7	0xbedbe39a	-0.42947084
8	0xbe6a3010	-0.22869897
9	0x3e203bb8	0.15647781
10	0xbdbc0792	-0.091811314
11	0xbdb28ac8	-0.08717877
12	0x3db4f56c	0.08835873
13	0xbe670b3f	-0.22562884
14	0xbd3344d6	-0.04376682
15	0xbd674253	-0.056459736

Conv_BN_ReLU1.1.running_var f4 [16]
0	0x3bef2091	0.0072975834
1	0x3b8e0167	0.0043336633
2	0x3bd0298d	0.0063526095
3	0x3bce5172	0.00629633
4	0x3cf8217b	0.030289402
5	0x3c0af7d8	0.008481942
6	0x3b87669b	0.0041321046
7	0x3d700cb3	0.05860586
8	0x3d6c5b56	0.057704292
9	0x3c30d870	0.01079379
10	0x3c4f23bd	0.012642798
11	0x3c61e647	0.013787813
12	0x3c746afc	0.014918085
13	0x3c3d2843	0.011545244
14	0x3d477fc6	0.04870584
15	0x3c9715a7	0.018442942

Conv_BN_ReLU1.3.weight f4 [16, 16, 3, 3]
0	0x3d541eb1	0.051787082
1	0x3e1c85bc	0.1528539
2	0xbdddfd92	-0.1083938
3	0x3c02d90c	0.007986318
4	0xbe3d022c	-0.1845786
5	0xbd8ce21f	-0.06879067
6	0xbd049574	-0.032369092
7	0x3cac61ba	0.021042693
8	0xbddfd19b	-0.10928651
9	0xbe2eea1e	-0.17081496
10	0x3cb0dc94	0.021589555
11	0x3e06e707	0.13174067
12	0xbcc0ac6e	-0.02351972
13	0x3e2df619	0.1698841
14	0xbe20b8db	-0.15695517
15	0xbd696a5c	-0.056986198
16	0x3de1133d	0.109899975
17	0x3d044c04	0.032299057
18	0x3da8f2c5	0.082494296
19	0x3dff72b3	0.12473049
20	0xbdd1908c	-0.10232648
21	0x3dfc2614	0.1231195
22	0x3dcf1e1a	0.10113163
23	0xbd6306d2	-0.055426426
24	0xbe0213c9	-0.1270286
25	0xbe9bf1c3	-0.30457887
26	0xbbae7c56	-0.0053248806
27	0xbe5d3024	-0.21600395
28	0xbe04fb7a	-0.12986556
29	0x3cd6e065	0.026230047
30	0xbd81108f	-0.063019864
31	0xbdb9fb6a	-0.090811566
32	0x3e48651b	0.19569819
33	0xbdad621e	-0.0846598
34	0x3ce61745	0.028087268
35	0x3e4e74b6	0.20161709
36	0xbe21deb6	-0.15807614
37	0x3d711eb9	0.05886719
38	0xbd9ad52b	-0.0756019
39	0xbc2f3550	-0.010693863
40	0x3da6d54b	0.08146151
41	0x3cd4b65a	0.025965858
42	0xbd91c148	-0.071169436
43	0xbc58f206	-0.013241297
44	0xbe1a32d2	-0.15058449
45	0xbda776e0	-0.081769705
46	0x3d064705	0.032782573
47	0xbd9ff8cf	-0.07811128
48	0xbd3b3bad	-0.045711208
49	0xbe281632	-0.16414717
50	0x3de1a600	0.1101799
51	0x3d40d4d7	0.04707798
52	0xbe9199eb	-0.28437743
53	0xbd9c3623	-0.07627513
54	0x3dbf22c9	0.093328066
55	0x3b8da1dd	0.004322274
56	0xbe4fc5d1	-0.20290305
57	0xbda4d3ea	-0.08048232
58	0xbd59d444	-0.053180948
59	0x3e24a77a	0.16079512
60	0xbe31b92a	-0.1735579
61	0xbd02be22	-0.031919606
62	0x3e0eb537	0.13936315
63	0xbcc9c9d3	-0.02463237
64	0x3d83e256	0.064396545
65	0x3e0acdde	0.13555095
66	0xbb9c337f	-0.004766881
67	0x3d4d6e8f	0.050154265
68	0xbcedbfd1	-0.02902213
69	0x3d8e941f	0.069618456
70	0xbd100a17	-0.035165872
71	0xbd8d6ca7	-0.069054894
72	0x3e1e9b54	0.1548894
73	0x3dc983c3	0.09839585
74	0x3d96f46c	0.073708385
75	0x3db3cb3b	0.087789975
76	0x3d98c94e	0.07460271
77	0x3da99a55	0.082813896
78	0xbd9d8b8e	-0.076926336
79	0xbc12196f	-0.008917197
80	0xbe140ee8	-0.14458811
81	0x3da80beb	0.08205398
82	0xbdf982e5	-0.12183169
83	0xbdf76e5a	-0.12081595
84	0xbe105f02	-0.14098743
85	0xbead21b5	-0.3381478
86	0xbe6955a9	-0.22786583
87	0x3da603c2	0.081061855
88	0xbddb711e	-0.10714935
89	0xbda20424	-0.07910946
90	0x3d6686eb	0.05628101
91	0xbd14efa3	-0.036361348
92	0x3d820fb8	0.06350654
93	0xbd4d153c	-0.05006908
94	0xbd5bf78c	-0.053702876
95	0x3e0f4f92	0.13995197
96	0xbc16c403	-0.009202006
97	0xbd49b22c	-0.049242184
98	0x3dbca114	0.09210411
99	0xbe24eb0a	-0.16105285
100	0xbdd3caa7	-0.10341387
101	0xbdd2999a	-0.102832034
102	0x3c6d3d12	0.014479892
103	0xbde2ecff	-0.1108036
104	0x3cd61ee6	0.02613778
105	0x3e269c40	0.16270542
106	0xbcd84ec5	-0.026404748
107	0x3d347d2c	0.044064686
108	0x3e3faef4	0.18719083
109	0x3e1e1872	0.15439013
110	0xbe743046	-0.2384654
111	0x3d8bb069	0.06820757
112	0x3d0e4ea9	0.034742985
113	0x3ceb5f99	0.028732108
114	0xbe1962f4	-0.14979154
115	0x3d3e2361	0.04642046
116	0xbe0d2b48	-0.13786042
117	0x3c9c8a19	0.019108819
118	0xbcb63861	-0.02224368
119	0xbdf3edff	-0.119106285
120	0xbe1461c7	-0.14490424
121	0xbb28d288	-0.0025760252
122	0x3e0e6909	0.13907255
123	0x3d9a1709	0.07523925
124	0xbe0bbe8e	-0.1364691
125	0x3bccc625	0.0062492066
126	0x3ce5fda6	0.02807505
127	0x3e17c75c	0.14822143
128	0x3c7aac4b	0.015299867
129	0x3cda0254	0.026612438
130	0xbda18ba0	-0.078879595
131	0xbd3b05c4	-0.045659795
132	0xbe31a751	-0.17348982
133	0xbe6b863a	-0.23000422
134	0x3dc00b59	0.093771644
135	0xbdb4043a	-0.08789869
136	0x3e4d6ab4	0.20060235
137	0x3ddfba3b	0.109241925
138	0x3dc79203	0.097446464
139	0x3d318b8b	0.04334597
140	0xbde194c3	-0.11014702
141	0x3c9c56ac	0.019084297
142	0xbdeab31c	-0.11459944
143	0xbde8ef1e	-0.11373733
144	0x3d609bb3	0.054835986
145	0x3ded2620	0.115795374
146	0xbc21c8f1	-0.009874568
147	0xbb2532c4	-0.002520726
148	0x3d9595f7	0.07303994
149	0x3da0984e	0.0784155
150	0x3d5efff5	0.05444332
151	0xbe773ce0	-0.24144316
152	0x3dffc26f	0.12488257
153	0xbda658bf	-0.08122396
154	0xbcb39ade	-0.021924432
155	0x3cd8ab46	0.026448857
156	0x3de8e36d	0.11371503
157	0x3dc8216c	0.09772
158	0x3d54798d	0.051873732
159	0xbcc5e3b3	-0.024156427
160	0xbdc2d4a4	-0.09513214
161	0x3cda0bd8	0.026616976
162	0x3e0f4184	0.13989836
163	0x3d2ca0dc	0.042145595
164	0xbd05908e	-0.03260856
165	0x3d8fd832	0.07023658
166	0xbd8dab92	-0.0691749
167	0x3d72dd49	0.059293065
168	0xbe068117	-0.13135181
169	0xbe006f67	-0.12542497
170	0x3dd3b6df	0.10337614
171	0xbdb99900	-0.090623856
172	0xbc0b8238	-0.008514933
173	0xbd635708	-0.05550292
174	0x3e6a19e0	0.22861433
175	0x3e3dcdbd	0.18535514
176	0x3c638474	0.01388656
177	0x3d527f3f	0.051390883
178	0xbdafea1d	-0.085895754
179	0x3da8ad5f	0.08236193
180	0x3da0fe3d	0.07860992
181	0xbe0fa78a	-0.14028755
182	0xbcdf93f3	-0.027292227
183	0xbb47222f	-0.0030385365
184	0xbcfcebfa	-0.030874241
185	0xbd9c291d	-0.07625029
186	0xbdb54e33	-0.08852806
187	0x3e37a665	0.17934568
188	0xbd69e5c3	-0.057103883
189	0xbeb2470e	-0.34819835
190	0xbd834fe2	-0.06411721
191	0xbd90846b	-0.07056507
192	0xbddedf0d	-0.10882387
193	0xbd8c230e	-0.06842624
194	0x3c9285cd	0.017886067
195	0x3dd5fd32	0.10448684
196	0xbd86f12f	-0.06588971
197	0x3cd6ad7f	0.026205776
198	0xbe0cbcc4	-0.13743883
199	0x3e037eac	0.1284129
200	0xbd891d91	-0.066950925
201	0xbc8b9999	-0.017041015
202	0xbc93e72e	-0.018054571
203	0x3ce093d6	0.027414244
204	0xbd3ed67f	-0.04659128
205	0xbd0cecd3	-0.03440554
206	0xbbe55435	-0.0069985637
207	0xbe046e6c	-0.12932748
208	0xbd3e13f6	-0.046405755
209	0xbde1f73a	-0.11033483
210	0x3d433752	0.04766018
211	0x3d7876d3	0.060660195
212	0xbe3de097	-0.18542705
213	0x3d19eb40	0.037577868
214	0x3de4a80e	0.111648664
215	0xbdd91ef2	-0.106016055
216	0xbcf0d14c	-0.029396676
217	0x3e106616	0.14101443
218	0x3e17289e	0.14761588
219	0x3e0b6b47	0.13615142
220	0x3e5138a5	0.20431764
221	0x3d99de0d	0.07513056
222	0xbdbc6b0f	-0.09200107
223	0xbcc08456	-0.023500603
224	0x3e61f2a6	0.2206522
225	0xbe165380	-0.1468029
226	0x3d934274	0.07190409
227	0x3d9b44c9	0.07581479
228	0x3d3989b4	0.04529734
229	0x3d027fb1	0.031860057
230	0xbd357489	-0.04430059
231	0xbe30d101	-0.17267229
232	0x3d103ea7	0.035216
233	0x3e574112	0.21020916
234	0x3d276003	0.04086305
235	0x3cbde7c6	0.023181807
236	0xbdea3f4f	-0.114378564
237	0x3d98bba3	0.07457664
238	0xbe86a593	-0.26298198
239	0xbe619e91	-0.22033145
240	0x3e2fb5a6	0.17159137
241	0xbce29d4b	-0.027662894
242	0x3b57bc1f	0.0032918525
243	0xbd4f2caa	-0.050579704
244	0xbd4188f5	-0.047249753
245	0x3d424a09	0.047433887
246	0x3c83c0d7	0.016083164
247	0x3de309d9	0.11085863
248	0x3df18fc9	0.11795003
249	0xbe6c03c7	-0.23048316
250	0xbe8f7746	-0.28020686
251	0x3d2712f5	0.040789563
252	0x3d86230c	0.065496534
253	0xbe631457	-0.22175728
254	0x3e44fc20	0.19236803
255	0xbde261d7	-0.11053818

Conv_BN_ReLU1.3.bias f4 [16]
0	0x3c8e39aa	0.01736148
1	0xbd31eb5a	-0.04343734
2	0xbc919405	-0.017770777
3	0xbc92f7e7	-0.017940475
4	0x3d5b195c	0.05349098
5	0x3c9b3e69	0.018950658
6	0xbe35bce6	-0.1774784
7	0xbdd91c9f	-0.10601162
8	0xbd1ab80e	-0.037773184
9	0xbdce52f7	-0.10074418
10	0x3d980f80	0.074248314
11	0xbcd528bb	-0.026020398
12	0xbd0ce370	-0.03439659
13	0xbc0ecf5f	-0.008716433
14	0xbb51a034	-0.0031986358
15	0xbe4697e5	-0.1939388

Conv_BN_ReLU1.4.weight f4 [16]
0	0x3f7e73be	0.9939536
1	0x3f799586	0.9749378
2	0x3f85e2e3	1.0459865
3	0x3f79fba7	0.97649616
4	0x3f58f5a2	0.84749806
5	0x3f6e76f7	0.93150276
6	0x3f879656	1.0592754
7	0x3f5af80d	0.85534745
8	0x3f67b148	0.90504885
9	0x3f90967c	1.1295924
10	0x3f90ca5e	1.1311758
11	0x3f7981fc	0.97463965
12	0x3f7b56e7	0.9817948
13	0x3f6bb01d	0.920656
14	0x3f80346b	1.0015997
15	0x3f63b368	0.8894563

Conv_BN_ReLU1.4.bias f4 [16]
0	0x3e3aaaa6	0.1822916
1	0xbdc4a5f1	-0.09601963
2	0x3cc0f6cc	0.023555182
3	0xbdd31d46	-0.10308318
4	0xbb3572a0	-0.002768673
5	0x3daf2c62	0.08553387
6	0xbd57fd65	-0.05273189
7	0xbbe39802	-0.006945611
8	0x3cc85513	0.024454629
9	0xbe5a4c30	-0.21318126
10	0xbe5dcad1	-0.216594
11	0xbe108662	-0.14113763
12	0x3c8f72a8	0.017510727
13	0xbd7b9112	-0.061417647
14	0xbe176b87	-0.14787112
15	0xbe14ea81	-0.14542581

Conv_BN_ReLU1.4.running_mean f4 [16]
0	0xbf884f61	-1.0649225
1	0xbebfebe3	-0.37484655
2	0xbe6387e6	-0.2221981
3	0xbf5818da	-0.8441292
4	0xbf1978e0	-0.59950066
5	0xbc0c611d	-0.0085680755
6	0xbf7a7962	-0.97841465
7	0x3f295931	0.6615172
8	0xbead993b	-0.33905968
9	0xbf0771f8	-0.5290828
10	0xbe432112	-0.19055584
11	0xbfe3d7fa	-1.7800286
12	0xbf701c1a	-0.9379288
13	0xbf6fb2fa	-0.9363247
14	0xbe7d8388	-0.24757206
15	0xbea75312	-0.32680565

Conv_BN_ReLU1.4.running_var f4 [16]
0	0x3f572d04	0.84053063
1	0x3fae6b98	1.3626585
2	0x3f4cebcb	0.8004729
3	0x3f8fb844	1.1228108
4	0x3f86a6b9	1.051963
5	0x3f4a1aed	0.78947335
6	0x3faa0721	1.3283426
7	0x3f9af633	1.2106384
8	0x3f48653d	0.7827948
9	0x3fcac6f9	1.5841972
10	0x3fd314e9	1.6490756
11	0x3fe32711	1.7746297
12	0x3fb613bb	1.4224771
13	0x3f90fb29	1.1326648
14	0x3f73535c	0.9504907
15	0x3f5f7d82	0.87300885

Conv_BN_ReLU2.0.weight f4 [32, 16, 3, 3]
0	0xbd9a882d	-0.07545505
1	0x3c2bc77a	0.010484571
2	0x3dcfa946	0.10139708
3	0x3d1ee6f3	0.03879447
4	0x3e059016	0.13043246
5	0x3e4f5d8d	0.2025053
6	0xbe3b2032	-0.18274
7	0x3ceb8e47	0.028754367
8	0x3ddb3903	0.107042335
9	0x3d94fd55	0.07274882
10	0xbe5aa701	-0.2135277
11	0xbc800c3d	-0.015630836
12	0x3e644354	0.22291309
13	0x3db8b0c7	0.090180926
14	0xbd2e99a9	-0.04262701
15	0x3ecf3784	0.40472043
16	0xbdf046de	-0.11732267
17	0xbe0a1a86	-0.1348668
18	0xbdd374be	-0.10325001
19	0x3ddb96a0	0.10722089
20	0x3e128f36	0.14312443
21	0x3d64715f	0.05577218
22	0x3e639600	0.22225189
23	0xbe274e03	-0.16338353
24	0x3c3f831a	0.011688972
25	0x3dcf9b6f	0.101370685
26	0x3e6c47c8	0.23074257
27	0xbe0ae9da	-0.1356577
28	0xbd43832b	-0.047732513
29	0xbe51ffcd	-0.20507737
30	0xbe5fed56	-0.2186788
31	0x3d33c6b6	0.043890677
32	0xbda89e84	-0.082333595
33	0x3dfd3285	0.123631515
34	0x3cdeb849	0.027187483
35	0x3c9ae29d	0.018906886
36	0x3da1a133	0.078920744
37	0x3d4fafc7	0.050704744
38	0xbd9ad655	-0.07560412
39	0xbc6e41e7	-0.0145420795
40	0xbd327cc7	-0.04357603
41	0x3de13ef5	0.10998336
42	0xbd8f88b6	-0.070084974
43	0xbd8ac336	-0.06775515
44	0xbd88e085	-0.06683449
45	0x3e15c282	0.1462498
46	0x3e3cf0f4	0.18451291
47	0xbe047d51	-0.1293843
48	0xbe1aa595	-0.15102227
49	0x3d454da7	0.04816976
50	0xbe2f6a76	-0.17130455
51	0xbddaa7b5	-0.10676519
52	0x3cec7869	0.02886601
53	0x3dbf841c	0.0935137
54	0xbd70c4d8	-0.058781475
55	0x3e72d9b9	0.23715867
56	0x3c25040f	0.010071768
57	0x3d9ed1db	0.077548705
58	0xbd9ee4cb	-0.077584825
59	0xbd443224	-0.04789938
60	0x3d58c22b	0.052919548
61	0x3dbf8824	0.09352139
62	0xbb67ea5d	-0.0035387494
63	0xbc535ff6	-0.012901297
64	0x3d11db37	0.03560945
65	0x3d1c9388	0.038226634
66	0x3bfd532c	0.007730862
67	0x3b39891c	0.0028310483
68	0x3d3cf760	0.046134353
69	0x3e437e67	0.19091187
70	0xbdef233d	-0.11676643
71	0xbe3058ab	-0.17221324
72	0xbd369d1d	-0.04458343
73	0xbe19c931	-0.15018155
74	0x3e38d18f	0.1804869
75	0xbc2b54fd	-0.0104572745
76	0x3d1c06fd	0.038092602
77	0xbb865a51	-0.004100122
78	0xbc7c1181	-0.015385033
79	0xbe35419e	-0.17700812
80	0xbe0233b6	-0.12715039
81	0x3db22709	0.086988516
82	0xbe239198	-0.15973508
83	0xbda46ef5	-0.08028976
84	0xbda0d6ad	-0.07853446
85	0xbe1a4144	-0.1506396
86	0xbdd4d4dc	-0.10392162
87	0xbb593f31	-0.0033149237
88	0x3e918d80	0.28428268
89	0x3d44271a	0.047888853
90	0xbe37342c	-0.17890996
91	0xbcd7127a	-0.026253927
92	0x3cc8e575	0.024523476
93	0xbc6eb54c	-0.014569592
94	0xbcc2633c	-0.02372896
95	0x3df032f8	0.117284715
96	0xbce821d9	-0.028336452
97	0xbc843115	-0.016136685
98	0x3da37023	0.07980373
99	0xbdfd9a51	-0.12382949
100	0xbde30f19	-0.11086864
101	0x3e0f8e96	0.14019236
102	0xbd5f81a1	-0.054566983
103	0x3db2a0bd	0.08722065
104	0x3d785a52	0.06063301
105	0xbdcdd484	-0.100503
106	0x3dae1500	0.08500099
107	0xbe1a1d74	-0.15050298
108	0xbe3511d0	-0.17682576
109	0x3da23d49	0.079218455
110	0x3c25d983	0.01012266
111	0xbc8cddf9	-0.017195689
112	0x3d843b2d	0.064565994
113	0x3a6fa8de	0.00091422896
114	0xbe110ce3	-0.14165072
115	0xbd645d82	-0.05575324
116	0xbdd7e607	-0.10541921
117	0x3d65d7c3	0.05611397
118	0xbd3ece60	-0.046583533
119	0x3c050eb3	0.00812118
120	0xbd2295d5	-0.039693672
121	0x3d8129ad	0.06306777
122	0x3cfc8951	0.030827196
123	0xbe468672	-0.19387224
124	0x3e825838	0.2545793
125	0x3d2c8c14	0.042125776
126	0xbe746784	-0.23867613
127	0x3dc7ba91	0.097523816
128	0x3ccab594	0.024744786
129	0xbde33063	-0.110932134
130	0x3d96aa71	0.07356728
131	0xbe122ad6	-0.14274153
132	0xbc0ae1d5	-0.008476694
133	0x3db3a5c8	0.08771855
134	0xbea33513	-0.3187643
135	0x3da9009d	0.0825207
136	0xbe0423dd	-0.12904306
137	0x3d36eb42	0.044657953
138	0x3cba0e19	0.0227118
139	0x3cf97caa	0.030454952
140	0xbe257570	-0.1615808
141	0x3ca070cb	0.019585034
142	0x3dfe2544	0.124094516
143	0xbd6c6288	-0.057711154
144	0xbe351a73	-0.17685871
145	0x3dd0381f	0.10166954
146	0xbcf9965f	-0.03046721
147	0xbe35dd9e	-0.17760321
148	0x3ca690ae	0.02033266
149	0xbda46441	-0.080269344
150	0xbc020e56	-0.007937988
151	0x3dd1229a	0.10211678
152	0xbd0cc504	-0.034367576
153	0x3d4e926b	0.050432604
154	0xbe3ed53f	-0.18636034
155	0x3c4dc359	0.012558782
156	0x3e2e3c96	0.17015299
157	0xbe1abf9e	-0.15112159
158	0xbc066816	-0.008203527
159	0xbd20511a	-0.039139844
160	0x3e27bcc4	0.16380602
161	0x3de13e63	0.109982274
162	0x3e2028b6	0.1564053
163	0x3a70d11b	0.00091864326
164	0xbc89ae83	-0.016806846
165	0xbdf20cc5	-0.11818842
166	0x3d692dc7	0.056928422
167	0x3db381d0	0.08764994
168	0x3e2b8b9e	0.16752478
169	0x3da698ff	0.081346504
170	0xbdec8988	-0.115496695
171	0xbcd0081d	-0.025394494
172	0x3e1d40fc	0.15356821
173	0x3d75567e	0.05989694
174	0xbe0bc484	-0.13649184
175	0x3e8770a0	0.26453114
176	0x3db34185	0.08752731
177	0x3d699e96	0.057036005
178	0xbd327aab	-0.043574017
179	0x3d74a460	0.059727073
180	0x3d719ac6	0.058985494
181	0x3e1e8e84	0.15484053
182	0x3d69c996	0.057077013
183	0x3ad544e3	0.001627114
184	0x3e104f58	0.14092767
185	0xbe0ff250	-0.14057279
186	0x3e53b0a9	0.20672859
187	0xbd7a8629	-0.0611631
188	0xbd7d80c6	-0.061890386
189	0x3db5c045	0.08874563
190	0x3e5ba1c1	0.21448423
191	0x3dc3eaf4	0.09566298
192	0xbcefa540	-0.029253602
193	0xbbee9c54	-0.0072818194
194	0xbcbc39cd	-0.02297678
195	0xbe25fab7	-0.16208921
196	0xbda2f090	-0.0795604
197	0x3e082011	0.13293482
198	0xbd37d93e	-0.044884913
199	0x3de5ed64	0.11226919
200	0xbe2615ef	-0.16219305
201	0x3e5b8eaf	0.21441148
202	0x3dd6ea2c	0.104938835
203	0xbdb981ff	-0.09057998
204	0x3c312e3c	0.010814246
205	0x3b9fa8f8	0.0048724376
206	0xbce053d6	-0.027383726
207	0xbe4d0bf4	-0.20024091
208	0x3e5f8bd3	0.21830682
209	0x3c442b9f	0.011973291
210	0xbcd0eaf0	-0.025502652
211	0x3d94610f	0.07245075
212	0xbcdfecdc	-0.027334623
213	0x3e0b8a66	0.13627014
214	0x3e0ec5e8	0.13942683
215	0xbcdb1ffa	-0.026748646
216	0xbe09c437	-0.13453756
217	0x3df6e691	0.12055696
218	0x3dc09fe4	0.09405497
219	0xbc9e8158	-0.019348785
220	0xbdd9a514	-0.10627189
221	0x3e3723ba	0.17884722
222	0xbe60b171	-0.21942689
223	0x3d5aab03	0.053385746
224	0x3e0a0542	0.13478568
225	0x3e66ad49	0.2252704
226	0x3d46739a	0.04845009
227	0xbc3683a3	-0.011139783
228	0xbdf07ea1	-0.117429025
229	0x3cb0af4c	0.021567963
230	0x3d96dc03	0.07366183
231	0x3df1613c	0.11786124
232	0xbdbab374	-0.09116259
233	0xbb12fbfa	-0.0022428022
234	0xbd8af801	-0.06785584
235	0xbe7fc9e8	-0.24979365
236	0xbdac4b16	-0.08412759
237	0xbea65f58	-0.32494617
238	0xbe7c8b38	-0.24662483
239	0x3d372a95	0.044718344
240	0x3c8a79a4	0.016903706
241	0x3d89ebed	0.067344524
242	0x3d91bfa4	0.07116631
243	0xbcb659d6	-0.022259634
244	0xbd746533	-0.059666824
245	0xbe089d81	-0.13341333
246	0x3dca4b74	0.09877673
247	0xbe0b65c4	-0.1361304
248	0x3dc0907b	0.094025575
249	0x3cae33f0	0.021265
250	0xbd5855c2	-0.05281616
251	0x3dc1f952	0.09471382
252	0xbd1b69ac	-0.037942573
253	0x3d802c9c	0.062585086
254	0x3cbcb3c7	0.023034943
255	0x3e15c70f	0.14626716

Conv_BN_ReLU2.0.bias f4 [32]
0	0x3d9cf2ee	0.07663523
1	0xbc840d5f	-0.016119657
2	0xbd9fd7a6	-0.078048036
3	0x3c911a5b	0.017712763
4	0xbb180cda	-0.002320102
5	0xbdd8be0c	-0.105831236
6	0xbd4de542	-0.050267465
7	0xbd84bd34	-0.064814
8	0xbd88a746	-0.0667253
9	0xbdd633e5	-0.10459117
10	0x3d4b58ce	0.049645238
11	0x3dbca049	0.092102595
12	0x3de26f05	0.110563315
13	0x3d114577	0.035466637
14	0xbc4ef209	-0.012630948
15	0xbdc803c5	-0.09766344
16	0xbd3b68f1	-0.045754377
17	0x3d95bde0	0.073116064
18	0x3db5451e	0.08851074
19	0x3d313dc6	0.043271802
20	0x3d83d8a9	0.06437809
21	0xbd5805e2	-0.052739985
22	0x3a5d59bb	0.0008443852
23	0x3bf71f84	0.0075415988
24	0x3d3cdd08	0.04610923
25	0xbc6ed9bd	-0.01457828
26	0xbc402c9a	-0.011729384
27	0x3dbd580b	0.092453085
28	0x3c8fd83e	0.017559167
29	0xbd85ecb1	-0.06539286
30	0xbd6ecf2b	-0.05830304
31	0xbd6cc538	-0.05780527

Conv_BN_ReLU2.1.weight f4 [32]
0	0x3f8d7226	1.105046
1	0x3f7d52a7	0.9895424
2	0x3f6f208d	0.93409044
3	0x3f85ae43	1.0443805
4	0x3f722ab1	0.9459639
5	0x3f824a76	1.0178974
6	0x3f684a4d	0.90738374
7	0x3f792644	0.97324014
8	0x3f8ace08	1.0844126
9	0x3f5ec9d9	0.87026745
10	0x3f916c63	1.1361202
11	0x3f80c1de	1.0059164
12	0x3f6f7b51	0.9354754
13	0x3f8ea3e6	1.1143768
14	0x3f68af6c	0.9089267
15	0x3f8c008f	1.093767
16	0x3f742695	0.9537137
17	0x3f87c76d	1.0607735
18	0x3f82c189	1.0215312
19	0x3f87718d	1.0581528
20	0x3f7cee16	0.9880079
21	0x3f8c77af	1.0974025
22	0x3f646fd0	0.8923311
23	0x3f857356	1.0425823
24	0x3f86b50c	1.0524001
25	0x3f77c99e	0.9679202
26	0x3f864976	1.0491168
27	0x3f87f8fd	1.062286
28	0x3f642cae	0.89130676
29	0x3f8ba990	1.0911121
30	0x3f8f744a	1.1207364
31	0x3f80fb92	1.0076773

Conv_BN_ReLU2.1.bias f4 [32]
0	0xbe70fa5e	-0.23533008
1	0xbe7e49fb	-0.24832909
2	0xbe5701c6	-0.2099677
3	0xbde0dd7a	-0.10979743
4	0xbe0b842c	-0.13624638
5	0xbe1e105c	-0.15435928
6	0xbe330236	-0.17481312
7	0xbe00545e	-0.12532184
8	0xbde410eb	-0.11136039
9	0xbdc4042b	-0.095711075
10	0xbdb9ae9f	-0.090665095
11	0xbe87ac97	-0.26498863
12	0xbdfcd928	-0.12346107
13	0xbda1c450	-0.07898772
14	0xbe50410a	-0.2033731
15	0xbd8807b1	-0.06642092
16	0xbdb7022f	-0.08935963
17	0xbe199827	-0.14999448
18	0xbe217271	-0.15766312
19	0xbdac3eb3	-0.084103964
20	0xbd3d9a77	-0.046289887
21	0xbe137c6f	-0.14402936
22	0xbde961a1	-0.11395574
23	0xbdcbaa59	-0.099446006
24	0xbe50ad36	-0.20378575
25	0xbdd7d55a	-0.105387405
26	0xbe2b864d	-0.1675045
27	0xbdbf615b	-0.09344741
28	0xbe376181	-0.17908289
29	0xbda16ff3	-0.07882681
30	0xbe5a3a25	-0.21311243
31	0xbd5bf4b5	-0.053700168

Conv_BN_ReLU2.1.running_mean f4 [32]
0	0x3b22693e	0.0024781968
1	0x3e28c737	0.16482244
2	0x3e76606a	0.24060217
3	0xbea03cfa	-0.3129652
4	0x3cd94951	0.026524218
5	0xbea20381	-0.31643298
6	0xbe15c73a	-0.1462678
7	0x3c8e4ef9	0.017371641
8	0xbfb1b323	-1.3882793
9	0xbe5755a1	-0.21028759
10	0xbee6dbcc	-0.45089567
11	0xbed9c9ce	-0.42536777
12	0x3fda325c	1.7046618
13	0xc00196b0	-2.0248222
14	0xbf6ccf0c	-0.9250343
15	0xbec2db7a	-0.38058072
16	0xbf84a973	-1.0364212
17	0xbdc1648b	-0.09443005
18	0xbea8128a	-0.32826644
19	0xbf4dd2db	-0.80399865
20	0xbddf2a27	-0.10896712
21	0xbf4853a1	-0.7825261
22	0xbf832c3e	-1.0247877
23	0xbfde07cb	-1.7346128
24	0xbfa2808f	-1.2695483
25	0x3d3b44b8	0.045719832
26	0xbf132691	-0.5748072
27	0xbe5176d1	-0.20455481
28	0x3dfdca08	0.1239205
29	0xbf490e54	-0.7853749
30	0xbe17f7e4	-0.14840657
31	0xbfa2f43e	-1.2730787

Conv_BN_ReLU2.1.running_var f4 [32]
0	0x3f94a84e	1.1613863
1	0x3fa8aa43	1.317696
2	0x3f9d4307	1.228608
3	0x3f8b9773	1.0905594
4	0x3fa4d400	1.2877197
5	0x3f851177	1.0395955
6	0x3f8af392	1.0855582
7	0x3f8524ec	1.0401893
8	0x3fc41e13	1.5321678
9	0x3f880dd9	1.0629226
10	0x3fa01eb0	1.2509365
11	0x3fa47978	1.2849569
12	0x3fd4676a	1.659406
13	0x4023edfb	2.5614002
14	0x3f89c9f5	1.0764757
15	0x3f99f2d1	1.2027227
16	0x3fed365e	1.8532217
17	0x3f97288d	1.180925
18	0x3fadb479	1.3570701
19	0x3fa09b87	1.2547463
20	0x3f5b138b	0.85576695
21	0x3fc0f39e	1.5074346
22	0x3fe6792d	1.800573
23	0x3fd169b4	1.6360383
24	0x3fe5ccf3	1.795317
25	0x3f9b7a36	1.2146671
26	0x3f9e1660	1.2350578
27	0x3f81ba87	1.0135049
28	0x3f92a95a	1.1457932
29	0x3f9cbc6c	1.2245002
30	0x3fa375c6	1.2770317
31	0x3f9fbb6b	1.247907

Conv_BN_ReLU2.3.weight f4 [32, 32, 3, 3]
0	0x3caf9c70	0.0214369
1	0xbe566917	-0.20938526
2	0xbc8bd977	-0.017071469
3	0x3e833184	0.25623715
4	0x3e56becc	0.2097122
5	0xbe88ac3a	-0.26693898
6	0xbc47f26f	-0.012203797
7	0x3e398f79	0.18121137
8	0xbd61c7c3	-0.05512215
9	0x3e970d21	0.29502204
10	0xbd037050	-0.03208953
11	0x3e0acec3	0.13555436
12	0xbc7e6723	-0.015527519
13	0xbdfbf3a6	-0.123023316
14	0x3e1d86f6	0.15383515
15	0x3c8ae5bb	0.016955247
16	0x3e0249c3	0.1272345
17	0xbe045d7b	-0.12926285
18	0x3e149eac	0.14513654
19	0xbd60b5c4	-0.054860845
20	0xbdb5ab9e	-0.08870624
21	0xbdeac62a	-0.11463578
22	0x3d2c08ac	0.042000458
23	0xbd5961ec	-0.0530719
24	0x3e735922	0.2376447
25	0x3d9ded95	0.07711331
26	0xbd43b29a	-0.04777775
27	0xbd992d8b	-0.0747939
28	0xbc9bcaeb	-0.019017657
29	0xbd9ec187	-0.07751756
30	0xbe0eb45c	-0.13935989
31	0xbdd7ac43	-0.10530903
32	0x3e06c90a	0.13162628
33	0xbdb108f6	-0.08644287
34	0xbdb9662d	-0.090526916
35	0x3c954507	0.018221391
36	0x3d362262	0.044466384
37	0x3ea98b5e	0.3311414
38	0xbd24aac6	-0.040201925
39	0xbda3fb3e	-0.08006905
40	0xbdcc4080	-0.0997324
41	0xbda9a7c3	-0.08283951
42	0x3d1d8a76	0.038462125
43	0x3dc3ec99	0.09566612
44	0xbdd050e9	-0.101716824
45	0x3e3c2442	0.18373206
46	0x3b64d376	0.003491608
47	0x3d845bc1	0.06462813
48	0x3d351eea	0.044218935
49	0xbd8d6599	-0.06904144
50	0xbe74620a	-0.23865524
51	0xbe29bc12	-0.1657565
52	0x3c9a68d8	0.018848822
53	0xbe3f2888	-0.18667805
54	0xbe32ceb7	-0.17461668
55	0xbac23bbe	-0.001481883
56	0xbddce846	-0.1078649
57	0x3e04c8af	0.1296718
58	0xbe41b9f8	-0.18918598
59	0xbe92dea2	-0.2868548
60	0x3cf0395e	0.02932423
61	0x3c7f5369	0.015583851
62	0x3a795940	0.00095118955
63	0xbd7091f9	-0.05873296
64	0xbb427d82	-0.002967686
65	0x3d9d8729	0.076917954
66	0x3cf2e8b5	0.029651979
67	0x3c808774	0.01568959
68	0xbdbce756	-0.09223811
69	0xbdeeb415	-0.11655442
70	0x3e00caf6	0.12577423
71	0xbd09ab87	-0.033610847
72	0x3b7e299c	0.0038782125
73	0xbdc68b0d	-0.096944906
74	0x3e3bc71a	0.1833767
75	0xbdd13c46	-0.10216574
76	0x3d7e2358	0.062045425
77	0x3ca65cf1	0.02030799
78	0x3c85186f	0.016247002
79	0xbd5d31eb	-0.054002684
80	0xbe2f0b14	-0.1709407
81	0xbe14a19a	-0.14514771
82	0xbea0e3d3	-0.31423816
83	0x3e7e3038	0.24823081
84	0xbdf0364f	-0.117291085
85	0x3d9a1b2c	0.07524714
86	0x3d87d637	0.06632655
87	0xbe48e977	-0.1962031
88	0x3e50c3d7	0.20387207
89	0x3d59be1d	0.05315982
90	0xbd09e4dd	-0.033665527
91	0xbd869434	-0.06571236
92	0x3cda778b	0.02666833
93	0xbd91de88	-0.071225226
94	0x3d71ee6e	0.059065275
95	0x3d1ab59c	0.037770852
96	0x3dbe105c	0.09280464
97	0x3da74a03	0.081684135
98	0x3dcd1c9f	0.10015225
99	0xbd49402c	-0.049133465
100	0x3dd771c2	0.105197445
101	0x3e1ed694	0.15511543
102	0x3ae63ef4	0.0017566369
103	0x3c5f20d1	0.013618664
104	0x3d3d8606	0.046270393
105	0x3bb9cd15	0.0056701996
106	0xbda9f014	-0.082977444
107	0xbd3846e8	-0.044989496
108	0x3b8074a6	0.0039201556
109	0x3e168d5e	0.14702365
110	0xbe4e4767	-0.20144425
111	0xbd04162a	-0.0322477
112	0x3d6f191d	0.05837356
113	0xbc17d933	-0.009268093
114	0x3d73b6a1	0.05950034
115	0x3e1347e6	0.14382896
116	0x3e13125c	0.14362472
117	0xbca87b61	-0.020566644
118	0x3e6ddebf	0.23229502
119	0x3da1e065	0.07904128
120	0xbd2bf620	-0.04198277
121	0x3d9f433a	0.07776494
122	0x3ce60344	0.028077729
123	0xbda1c4e3	-0.07898881
124	0x3da3a462	0.07990338
125	0xbd675e39	-0.056486342
126	0xbdd3f7a5	-0.10349969
127	0x3dd9ffd1	0.10644496
128	0xbd5c4b7c	-0.053782925
129	0x3dd3cd97	0.103419475
130	0xbe21e02d	-0.15808173
131	0xbdacc3f1	-0.0843581
132	0x3db6670b	0.08906373
133	0xbd65a81d	-0.05606853
134	0xbe027a87	-0.12742053
135	0x3da5e7d4	0.08100858
136	0x3cc73b86	0.024320375
137	0x3dc6314c	0.096773714
138	0xbe37e7ba	-0.1795949
139	0xbd4a8cc7	-0.049450662
140	0x3d7244ee	0.059147768
141	0xbccdd776	-0.025127154
142	0xbdac729d	-0.08420298
143	0xbb5dafee	-0.0033826786
144	0xbdf7eed2	-0.12106098
145	0x3db89b34	0.09013978
146	0x3e0728b0	0.13199115
147	0xbdb2d8a1	-0.08732725
148	0x3cb9b81b	0.022670796
149	0x3e3862c1	0.18006422
150	0x3af1db7d	0.0018452253
151	0x3e133544	0.14375788
152	0x3e05d9bd	0.13071342
153	0xbdaf23e6	-0.08551769
154	0x3e31e0f5	0.1737097
155	0xbd9321f6	-0.07184212
156	0x3c1811ff	0.009281634
157	0xbd4b7bf8	-0.049678773
158	0x3d6c17b3	0.05763979
159	0xbe08e83a	-0.13369837
160	0x3d67a6f2	0.056555696
161	0xbd9798f4	-0.0740222
162	0x3d053498	0.03252086
163	0x3d1f558f	0.038899954
164	0x3e114d62	0.14189675
165	0x3d07894a	0.033089913
166	0xbddc28b4	-0.10749951
167	0x3d9c2b47	0.07625442
168	0xbda2281d	-0.07917807
169	0xbe41e7ed	-0.18936129
170	0xbccae35d	-0.024766618
171	0x3c6d3928	0.014478959
172	0x3db3e7ae	0.08784424
173	0x3e3ce4be	0.18446633
174	0xbe045bbb	-0.12925617
175	0xbe0e7390	-0.13911271
176	0xbdddfdd3	-0.10839429
177	0x3de8e1fb	0.11371227
178	0x3c1d6d24	0.009608541
179	0x3e12793e	0.14304063
180	0x3e37092a	0.1787459
181	0xbca4c85f	-0.020115076
182	0xbe92673f	-0.28594396
183	0x3d9d12c2	0.076695934
184	0x3e2b703d	0.16742034
185	0xbd97d474	-0.07413569
186	0xbd975cfa	-0.07390781
187	0x3dec4a5c	0.115376204
188	0x3d74f2bf	0.059801813
189	0xbe40332d	-0.18769522
190	0x3d96bd1f	0.07360291
191	0xbdf9cd7b	-0.121973954
192	0xbe0f9bd0	-0.14024282
193	0x3a9d3c6d	0.0011996158
194	0xbddb6b9c	-0.10713884
195	0x3dfadb59	0.122488685
196	0x3e16f105	0.14740379
197	0x3d956fa8	0.07296687
198	0x3db1afd7	0.08676117
199	0x3e26899b	0.1626343
200	0x3d75d7a9	0.060020123
201	0x3cde340c	0.027124427
202	0xbdb59339	-0.08865971
203	0xbd7e51df	-0.062089797
204	0x3d43ebde	0.047832362
205	0xbdd7618c	-0.105166525
206	0xbd368090	-0.0445562
207	0x3e839752	0.25701386
208	0x3d671598	0.056417078
209	0x3cbdaf4d	0.023154879
210	0xbd5e88b9	-0.054329608
211	0x3c0bd924	0.008535657
212	0xbe1b5c8f	-0.15172027
213	0xbdd8c013	-0.1058351
214	0x3de9434b	0.11389788
215	0xbd173f94	-0.036925867
216	0xbd4e78d8	-0.050408214
217	0xbdacd4c2	-0.08439018
218	0x3d18639f	0.03720438
219	0xbda62df0	-0.08114231
220	0xbe3c1c9a	-0.18370286
221	0x3e11412b	0.14185016
222	0xbe2210ca	-0.15826717
223	0x3c9e3723	0.0193134
224	0xbc87874a	-0.016544003
225	0x3ea33b3c	0.3188113
226	0x3cb059c1	0.021527173
227	0xbd513025	-0.051071305
228	0xbd129128	-0.035782963
229	0xbda8f653	-0.082501076
230	0x3d69bd32	0.057065196
231	0x3c3c7388	0.011502154
232	0x3d9a49d6	0.07533614
233	0xbe340d30	-0.17583156
234	0x3db112a7	0.08646136
235	0xbe01aae7	-0.1266285
236	0x3e0b7a15	0.1362079
237	0xbe150234	-0.14551622
238	0xbc2a5cc3	-0.010398093
239	0xbbc184a6	-0.0059057055
240	0x3cbb2183	0.022843128
241	0xbe942b64	-0.28939354
242	0x3e35585e	0.1770949
243	0xbc07daec	-0.008291941
244	0xbe007d50	-0.12547803
245	0xbb8ec10b	-0.0043565086
246	0xbd57f4b2	-0.052723594
247	0x3cf81e73	0.030287957
248	0x3d940025	0.0722659
249	0xbe11b495	-0.14229043
250	0xbcbd6257	-0.023118181
251	0x3e24f442	0.16108802
252	0x3d44b0ed	0.048020292
253	0x3c80a0c3	0.015701657
254	0xbe0b005d	-0.13574357
255	0xbe10c5fa	-0.14138022

Conv_BN_ReLU2.3.bias f4 [32]
0	0x3a1b5cdd	0.00059266185
1	0x3cc7d85f	0.024395166
2	0xbced9824	-0.02900321
3	0x3babeb01	0.0052465205
4	0x3c3e6c41	0.011622489
5	0xbc8ab646	-0.016932618
6	0x3d8eec77	0.06978696
7	0x3e179711	0.14803721
8	0xbd4e29e9	-0.050332937
9	0x3c15d840	0.009145796
10	0x3d2d9827	0.042381432
11	0xbca04bef	-0.019567458
12	0xbd2beac2	-0.04197193
13	0x3c9ac189	0.018891113
14	0x3d7bcd56	0.06147512
15	0xbd184327	-0.037173416
16	0xbbc85db5	-0.0061146864
17	0xbd89275e	-0.06696962
18	0xbcd5f242	-0.026116494
19	0x3d698899	0.057015035
20	0x3d3c8b33	0.04603119
21	0x3d50d8a3	0.05098785
22	0x3cba737b	0.022760144
23	0xbd2ac96d	-0.041696
24	0xbd7f484a	-0.0623248
25	0xbd92f123	-0.071748994
26	0x3d4da2b6	0.050204
27	0x3d1facff	0.03898334
28	0x3cb2ece7	0.02184148
29	0xbc549e21	-0.012977154
30	0xbcf231ed	-0.029564822
31	0x3ccb3be7	0.024808837

Conv_BN_ReLU2.4.weight f4 [32]
0	0x3f7fbe81	0.9990006
1	0x3f839237	1.0278996
2	0x3f71e8eb	0.9449603
3	0x3f77eda2	0.96846974
4	0x3f62efae	0.8864697
5	0x3f81add8	1.0131178
6	0x3f7139ce	0.9422883
7	0x3f80f336	1.0074222
8	0x3f72817c	0.9472883
9	0x3f5bc12a	0.8584162
10	0x3f865404	1.049439
11	0x3f6c60b8	0.9233508
12	0x3f7d1db5	0.98873454
13	0x3f7d376f	0.9891271
14	0x3f7ba425	0.9829734
15	0x3f6d981c	0.92810225
16	0x3f6f8e42	0.93576443
17	0x3f850531	1.0392209
18	0x3f81cb32	1.0140135
19	0x3f6d4494	0.92682767
20	0x3f6ebf2d	0.9326046
21	0x3f7959ea	0.9740282
22	0x3f776d4c	0.9665115
23	0x3f611379	0.8792034
24	0x3f5d13f6	0.8635858
25	0x3f55f1e6	0.8357223
26	0x3f815c8e	1.010637
27	0x3f818675	1.0119158
28	0x3f887dfe	1.066345
29	0x3f818fdb	1.0122026
30	0x3f546134	0.8296082
31	0x3f72eb55	0.9489034

Conv_BN_ReLU2.4.bias f4 [32]
0	0xbe8d0f85	-0.27550903
1	0xbe943fe8	-0.28955007
2	0xbe9bf422	-0.30459696
3	0xbe95522f	-0.29164264
4	0xbe35f822	-0.17770436
5	0x3cb0d4e7	0.021585895
6	0x3d6174d2	0.05504305
7	0xbea3d5e9	-0.31999138
8	0xbe8685fa	-0.2627409
9	0xbe8d9d52	-0.27659088
10	0xbe3f0347	-0.18653594
11	0x3d201f62	0.03909243
12	0xbe903c05	-0.2817079
13	0xbdc73499	-0.09726829
14	0xbe77bf7c	-0.24194139
15	0xbe93c949	-0.28864506
16	0xbe949594	-0.2902037
17	0xbdd0fee5	-0.10204867
18	0xbeac39c1	-0.33637813
19	0xbe7d9bc1	-0.24766447
20	0xbd931597	-0.07181852
21	0xbea4ad1a	-0.32163316
22	0xbe18e5be	-0.1493139
23	0xbe7f65e6	-0.24941215
24	0xbe5e96c0	-0.21737194
25	0xbedaea92	-0.42757088
26	0xbed60dd7	-0.41807434
27	0xbe2cae45	-0.16863354
28	0xbdfdc977	-0.12391942
29	0xbec463ad	-0.38357297
30	0xbe792e63	-0.24334101
31	0xbe5aa46d	-0.21351786

Conv_BN_ReLU2.4.running_mean f4 [32]
0	0xbe8b88b8	-0.27252746
1	0xbf79ccd4	-0.9757817
2	0xbfaf7764	-1.370831
3	0xbf922597	-1.1417722
4	0xbefc7c52	-0.493136
5	0xbfa4f270	-1.2886486
6	0xbe158b0d	-0.14603825
7	0xbf1756c4	-0.5911677
8	0xbff8550c	-1.9400954
9	0xbe9521fb	-0.29127488
10	0x3d085669	0.033285532
11	0xbf12a1eb	-0.5727832
12	0xbe59e12b	-0.21277301
13	0xbecb874a	-0.39751655
14	0xbe532ad8	-0.20621812
15	0x3e1ae371	0.15125825
16	0xbecc2e0c	-0.3987888
17	0xbf9c127d	-1.2193142
18	0xbf5962b9	-0.84916264
19	0xbf61f360	-0.88261986
20	0xbeb7bbde	-0.3588552
21	0xbf846e35	-1.0346133
22	0xbf9fdab8	-1.2488623
23	0xbf3d1548	-0.738606
24	0xbeb0a4f3	-0.34500846
25	0xbf376940	-0.71644974
26	0xbf371cab	-0.7152812
27	0xbf5f23df	-0.8716411
28	0xbff61a9b	-1.9226869
29	0xbf8abcf4	-1.0838914
30	0xbe756436	-0.23964009
31	0x3d7a614d	0.06112795

Conv_BN_ReLU2.4.running_var f4 [32]
0	0x3faf1890	1.3679371
1	0x3fb87eb8	1.4413671
2	0x3fcc1018	1.5942411
3	0x3fc5cf33	1.5453857
4	0x3fa4b698	1.2868223
5	0x3fe31db4	1.774344
6	0x3fc84718	1.5646696
7	0x3faeb652	1.364939
8	0x3f9c9af5	1.2234789
9	0x3fa959db	1.3230547
10	0x400dd89f	2.2163465
11	0x3f805233	1.0025085
12	0x3fb50c11	1.4144307
13	0x3ffbe9c0	1.968071
14	0x3fa1483b	1.2600168
15	0x3fd448c9	1.6584712
16	0x3fc64250	1.5488987
17	0x3fbbaf6b	1.4662908
18	0x3fb3fc66	1.4061401
19	0x3fc89d34	1.5672975
20	0x3fcba7f9	1.5910636
21	0x3f9a0fd2	1.2036078
22	0x3fe48305	1.7852484
23	0x3f8235de	1.0172689
24	0x3f98b30f	1.1929644
25	0x3f86c442	1.0528643
26	0x3fb7577c	1.4323573
27	0x3fda2439	1.7042304
28	0x3fd15317	1.6353482
29	0x3fb059c6	1.3777397
30	0x3f64c007	0.8935551
31	0x3fc45278	1.5337667

Conv_BN_ReLU3.0.weight f4 [32, 32, 3, 3]
0	0xbe134df9	-0.14385213
1	0xbdac4a0c	-0.08412561
2	0x3ec117dc	0.37713516
3	0xbc64904d	-0.01395042
4	0x3d9e2afa	0.07723041
5	0x3cee5076	0.029091101
6	0xbe33e0e9	-0.17566265
7	0xbdeeb6d8	-0.116559684
8	0x3e25e6d2	0.16201332
9	0x3d16e997	0.036843862
10	0x3da67ef0	0.0812968
11	0xbd8cf27c	-0.06882188
12	0x3d3b46a4	0.045721665
13	0x3e0ef372	0.13960055
14	0x3de8bd4a	0.11364229
15	0x3d8d8cc1	0.06911612
16	0x3ddb8c05	0.10720066
17	0x3e3115f6	0.17293534
18	0xbd2e59aa	-0.04256598
19	0x3dbfe0ad	0.093690254
20	0xbd96ba6f	-0.07359778
21	0xbcf58b46	-0.029973637
22	0xbe158415	-0.14601167
23	0x3d0034fe	0.031300537
24	0x3cedc24d	0.029023314
25	0xbde68d92	-0.11257471
26	0x3e11e3aa	0.14247003
27	0xbdb3c5fb	-0.08777996
28	0x3e013aee	0.12620136
29	0x3e17d26f	0.14826368
30	0xbe849597	-0.25895378
31	0xbde3dc36	-0.11125986
32	0x3dda9fbd	0.10674999
33	0xbe1a70dc	-0.15082115
34	0xbab45372	-0.0013757779
35	0x3e8b000f	0.27148482
36	0xbde89b36	-0.11357729
37	0x3d9013b2	0.070350066
38	0x3b57ec8d	0.0032947392
39	0xbdcdf7bf	-0.100570194
40	0x3d72db4f	0.05929118
41	0xbe783e0d	-0.2424242
42	0xbd43a7fe	-0.04776763
43	0xbde7e838	-0.11323589
44	0xbda76c8d	-0.08175001
45	0xbe072c1f	-0.13200425
46	0xbd51ab17	-0.051188555
47	0xbe40c34b	-0.18824498
48	0x3e1b83df	0.15187024
49	0xbd76eee0	-0.060286403
50	0xbd9bb9d8	-0.07603806
51	0x3d96c951	0.07362617
52	0xbd89c84d	-0.067276575
53	0xbe154b43	-0.14579491
54	0x3def82ed	0.11694894
55	0xbd892a13	-0.06697478
56	0x3e2ee956	0.17081198
57	0xbe3277fa	-0.1742858
58	0xbce951f7	-0.028481467
59	0x3ce531c1	0.027977826
60	0x3e1b05f5	0.15138991
61	0x3d262bdf	0.040569182
62	0x3d8c3698	0.068463504
63	0xbdc18fd1	-0.09451259
64	0x3db13668	0.08652955
65	0xbe6ec73f	-0.23318194
66	0xbde352ad	-0.110997535
67	0xbc741b39	-0.0148990685
68	0x3da0c534	0.078501135
69	0xbdb9f0b0	-0.090791106
70	0x3e020590	0.12697434
71	0x3dbcdbc8	0.092216074
72	0x3dae8711	0.085218556
73	0xbe1bb4f8	-0.15205753
74	0x3ca083cb	0.019594094
75	0xbdeaf61c	-0.11472723
76	0x3cc75ed5	0.024337212
77	0x3e49afec	0.19696015
78	0xbe505b33	-0.2034729
79	0xbaefaa7a	-0.0018285059
80	0xbd4acc16	-0.049511038
81	0x3d8e9d2e	0.069635734
82	0xbdd5bac8	-0.10436016
83	0xbd40916f	-0.047013696
84	0xbdb8d6e3	-0.090253614
85	0xbd974b80	-0.07387447
86	0xbdd0ff46	-0.102049395
87	0xbd430214	-0.047609404
88	0xbe17ffd6	-0.14843687
89	0xbdb102ff	-0.086431496
90	0x3e2e94ff	0.17049025
91	0x3cd0f36c	0.025506698
92	0x3d183990	0.03716427
93	0x3dc3d1b2	0.095614806
94	0x3db07e61	0.08617855
95	0xbdcc32ea	-0.099706486
96	0xbd3aca44	-0.04560305
97	0xbca09c62	-0.01960582
98	0x3d8eb500	0.06968117
99	0x3ca4715b	0.020073583
100	0xbd180f32	-0.037123866
101	0x3c6eb8b2	0.014570402
102	0x3d14dc0a	0.036342658
103	0xbd02a47c	-0.031895146
104	0xbd9e19eb	-0.07719787
105	0x3d21bf18	0.03948888
106	0xbdb44210	-0.08801663
107	0xbc9bb49e	-0.019007023
108	0xbba2c2ea	-0.004967083
109	0x3d1f5898	0.03890285
110	0x3da61a95	0.08110539
111	0x3daaf61f	0.08347725
112	0xbb0d299e	-0.0021539698
113	0x3b48fa06	0.0030666604
114	0x3d8817e7	0.06645184
115	0xbb1a5b1f	-0.0023552848
116	0xbcb9867f	-0.02264714
117	0x3cccc247	0.024994982
118	0x3d440e94	0.047865465
119	0xbe83098a	-0.25593215
120	0x3deda5fa	0.11603923
121	0x3d5415f6	0.051778756
122	0xbda0546e	-0.07828604
123	0x3a0f13e2	0.000545798
124	0xbc1bf0d7	-0.00951787
125	0x3c8e42f6	0.017365914
126	0xbdf15fda	-0.1178586
127	0xbe450f30	-0.19244075
128	0xbe89bbfd	-0.26901236
129	0xbc063d80	-0.008193374
130	0x3d2381da	0.039918758
131	0xbe550ac7	-0.20804892
132	0xbe802671	-0.25029328
133	0xbe0d2c5a	-0.1378645
134	0x3d249511	0.040181223
135	0xbd63b34a	-0.055590905
136	0xbcb49b6f	-0.022046773
137	0x3c47ea98	0.012201928
138	0xbd871620	-0.06596017
139	0xbda734fe	-0.08164404
140	0xbe0fc575	-0.14040168
141	0xbd758eba	-0.059950568
142	0xbccb091f	-0.024784623
143	0x3cbb2db2	0.022848938
144	0xbd3ab99a	-0.04558716
145	0xbdc3b776	-0.09556477
146	0x3e06a241	0.13147832
147	0x3d832e68	0.06405336
148	0x3df705d8	0.120616615
149	0x3da155fe	0.0787773
150	0xbc284a3e	-0.010271607
151	0xbdab2b19	-0.083578296
152	0x3d0bfb5f	0.034175273
153	0xbd46529e	-0.048418634
154	0x3d55c953	0.05219395
155	0x3e40ec02	0.1884003
156	0x3e06e1bc	0.13172048
157	0xbd856e81	-0.065152176
158	0x3c8a1635	0.016856292
159	0xbdd0afe3	-0.10189798
160	0xbe814ef8	-0.2525556
161	0xbe06ab09	-0.13151182
162	0xbe6c21d4	-0.2305978
163	0xbe34ccd7	-0.17656265
164	0x3e51e277	0.20496546
165	0x3cbc8e88	0.023017183
166	0xbe23f7d7	-0.16012512
167	0x3cd2461d	0.025668198
168	0xbe05a2b9	-0.13050355
169	0xbdcf4996	-0.10121457
170	0x3d845509	0.06461532
171	0x3c02361a	0.007947469
172	0xbe3e6479	-0.18593015
173	0x3e204c8a	0.15654197
174	0xbd626968	-0.055276304
175	0xbd0e7dc5	-0.034787912
176	0xbb3b2f2b	-0.002856205
177	0xbe3a3772	-0.18185213
178	0x3dd23fd9	0.10266084
179	0xbdca1642	-0.098675266
180	0xbd4707bd	-0.048591364
181	0xbcb31204	-0.021859176
182	0xbbe67079	-0.0070324508
183	0xbd0739cc	-0.033014104
184	0xbd35ad5b	-0.044354778
185	0x3d085087	0.03327992
186	0xbca23434	-0.019800283
187	0x3da01bdc	0.07817814
188	0xbdd6cd93	-0.10488429
189	0xbd552733	-0.052039336
190	0x3cb36493	0.021898543
191	0x3d20dd73	0.03927369
192	0x3d13ada5	0.036054272
193	0xbd3277ad	-0.043571163
194	0xbda7f2e5	-0.08200625
195	0xbe5a18b7	-0.2129849
196	0xbc5a739d	-0.013333228
197	0xbe3745ad	-0.17897673
198	0xbe5539dd	-0.20822854
199	0x3dccad34	0.099939734
200	0x3dbc0fdd	0.09182713
201	0x3c1105c0	0.008851469
202	0x3c016c60	0.007899374
203	0x3e325e33	0.17418747
204	0xbc05773b	-0.008146103
205	0x3d891dd5	0.06695143
206	0x3eb3fc24	0.35153306
207	0xbe10c8b8	-0.14139068
208	0x3cd86278	0.026414141
209	0xbe190267	-0.14942323
210	0x3d7d4a37	0.061838355
211	0xbe2d2ec6	-0.16912374
212	0xbb5fca32	-0.0034147617
213	0x3d0ad8e9	0.033898268
214	0xbd043a20	-0.032281995
215	0x3cd215c9	0.025645154
216	0x3df4dc56	0.11956088
217	0x3d41a356	0.04727491
218	0x3dcf93ce	0.101356134
219	0xbda0f165	-0.07858542
220	0x3d7d8592	0.06189496
221	0x3bf85a59	0.0075791297
222	0x3e017ac5	0.12644489
223	0x3bf0bbf5	0.007346625
224	0xbd0eb31c	-0.03483878
225	0x3da78491	0.08179582
226	0x3d86a669	0.06574709
227	0xbe204caf	-0.15654252
228	0x3d68d417	0.05684289
229	0x3da25161	0.07925678
230	0xbdefc928	-0.117082894
231	0x3e00d69f	0.12581871
232	0xbd9c3340	-0.07626963
233	0xbdfbb7f3	-0.12290945
234	0xbd78dc58	-0.06075701
235	0x3d05bf2d	0.032653023
236	0x3e265a48	0.16245377
237	0x3e3b9313	0.18317823
238	0x3d4f79d2	0.050653286
239	0x3e4ecada	0.20194569
240	0xbe1839a3	-0.14865737
241	0xbd4ee53e	-0.05051159
242	0x3da2b896	0.07945363
243	0x3dd6207d	0.104554154
244	0x3e09d103	0.13458638
245	0x3d1c1262	0.03810347
246	0x3e1b1820	0.15145922
247	0xbca54690	-0.020175248
248	0xbbcb9149	-0.0062123877
249	0xbd9b3ef4	-0.07580367
250	0x3dd8913b	0.105745755
251	0xbe9961ec	-0.2995752
252	0xbd54b48b	-0.05192999
253	0xbc57d6fd	-0.013173816
254	0x3e0293d1	0.127517
255	0xbd33df56	-0.04391416

Conv_BN_ReLU3.0.bias f4 [32]
0	0xbd3d9e62	-0.046293624
1	0x3ceac355	0.028657595
2	0xbd79a52d	-0.06094854
3	0x3d2811c2	0.04103256
4	0xbd6d421f	-0.057924386
5	0xbcbd63e9	-0.02311893
6	0xbc81d95a	-0.015850712
7	0xbd21677a	-0.039405324
8	0x3d867326	0.065649316
9	0xbc1b3195	-0.0094722705
10	0x3d3768f2	0.044777818
11	0xbce5efdf	-0.028068481
12	0xbd0b5b34	-0.034022525
13	0x3d2ef31f	0.042712327
14	0xbd3ffb36	-0.046870433
15	0xbc96dc1a	-0.0184155
16	0x3b609ed4	0.0034274356
17	0x3ce9d6fd	0.028544897
18	0xbd389545	-0.04506423
19	0x3d5550b6	0.052078925
20	0x3c8d947f	0.017282723
21	0xbcdc6bd0	-0.026906878
22	0x3c6f9ead	0.014625234
23	0xbcc5da7d	-0.024152035
24	0xbd508ca0	-0.05091536
25	0xbd5a17c7	-0.053245332
26	0xbd414452	-0.047184296
27	0xbd25de93	-0.040495466
28	0x3ce2ff57	0.027709646
29	0xbd75f5c6	-0.06004884
30	0x3d07dcc0	0.033169508
31	0xbc4a33f5	-0.012341489

Conv_BN_ReLU3.1.weight f4 [32]
0	0x3f786e82	0.9704362
1	0x3f7df214	0.99197507
2	0x3f6eb50d	0.9324501
3	0x3f887a47	1.0662316
4	0x3f7540d6	0.95802057
5	0x3f786f81	0.9704514
6	0x3f89b5bc	1.0758586
7	0x3f7badd8	0.9831214
8	0x3f710330	0.9414549
9	0x3f7c26b8	0.9849658
10	0x3f6cb4b0	0.9246321
11	0x3f86064d	1.0470673
12	0x3f87bb2d	1.0603997
13	0x3f85c494	1.0450616
14	0x3f86c57c	1.0529017
15	0x3f7ff9b2	0.9999038
16	0x3f82f9d1	1.0232488
17	0x3f6b3a68	0.91885996
18	0x3f6f2657	0.93417877
19	0x3f607d26	0.8769096
20	0x3f82e341	1.0225602
21	0x3f749a14	0.95547605
22	0x3f766338	0.96245146
23	0x3f7693f9	0.9631954
24	0x3f7a12bf	0.97684854
25	0x3f6c76dc	0.92368865
26	0x3f7f1182	0.9963609
27	0x3f7beffc	0.9841306
28	0x3f84b166	1.0366638
29	0x3f85df8a	1.0458844
30	0x3f80ac06	1.0052497
31	0x3f8270d1	1.0190679

Conv_BN_ReLU3.1.bias f4 [32]
0	0xbe57eaa2	-0.21085599
1	0xbeb2ee6b	-0.34947523
2	0xbbed6264	-0.007244395
3	0xbe9546b9	-0.2915552
4	0xbe8be095	-0.2731978
5	0xbec81f6b	-0.3908647
6	0xbe24c1b9	-0.16089524
7	0xbe8e587f	-0.27801892
8	0xbe91b526	-0.28458518
9	0xbe959738	-0.29216933
10	0xbe9e8d19	-0.30967024
11	0xbe312791	-0.1730025
12	0xbdf657a3	-0.12028434
13	0xbe4160aa	-0.1888453
14	0xbe871705	-0.2638475
15	0xbe987b05	-0.29781356
16	0xbdd45c57	-0.10369175
17	0xbe7a0ea5	-0.24419649
18	0xbe79fc52	-0.24412659
19	0xbe09c8e4	-0.1345554
20	0xbe288544	-0.16457087
21	0xbeaa0a49	-0.33210972
22	0xbe536e61	-0.20647575
23	0xbe8aa24c	-0.27076948
24	0xbe670406	-0.22560129
25	0xbe450ec1	-0.1924391
26	0xbe59383a	-0.21212855
27	0xbe58705f	-0.21136616
28	0xbe9138bc	-0.28363597
29	0xbee64046	-0.44970912
30	0xbeabb740	-0.33538246
31	0xbe2f1cf6	-0.17100891

Conv_BN_ReLU3.1.running_mean f4 [32]
0	0xbf3874f6	-0.7205347
1	0x3ecfed77	0.4061086
2	0xc0102d0f	-2.2527502
3	0xc00dc9ef	-2.21545
4	0x3f4e3c28	0.8056054
5	0x3f12e51d	0.5738085
6	0xbfd2807a	-1.6445458
7	0xbdb26f17	-0.08712595
8	0x3fb70239	1.4297553
9	0x3fb2c8bf	1.3967513
10	0xbef63e51	-0.4809442
11	0xbfd421f6	-1.6572864
12	0xc00d2396	-2.205297
13	0x3f0d16ee	0.5511311
14	0x3f17a9d5	0.5924352
15	0x3fb1de1a	1.3895905
16	0xc08516ac	-4.1590176
17	0xbef22403	-0.472931
18	0x3f801449	1.000619
19	0xbf8f7dc8	-1.121026
20	0xbfa89a5e	-1.3172109
21	0x3f03a39a	0.5142151
22	0x3be555fc	0.0069987755
23	0xbeec9014	-0.46203673
24	0xbf979c4d	-1.1844574
25	0xbf177dbb	-0.59176224
26	0xc0155a5e	-2.3336406
27	0x3f1591eb	0.5842578
28	0xc04808ea	-3.125544
29	0xc0021f9b	-2.033179
30	0xbf4ae5b2	-0.7925674
31	0xbf8582a7	-1.0430497

Conv_BN_ReLU3.1.running_var f4 [32]
0	0x3fdcefa5	1.7260634
1	0x3fa91e23	1.3212322
2	0x3fa57eaf	1.2929286
3	0x3fd0da91	1.6316701
4	0x3f95187f	1.1648101
5	0x3f9a25b5	1.2042757
6	0x3fb74a2d	1.4319512
7	0x3fae2602	1.3605349
8	0x3fe3cc4c	1.7796721
9	0x3fba4ca3	1.4554638
10	0x3fbc407b	1.4707178
11	0x3fad511d	1.3540379
12	0x3fe728ac	1.8059287
13	0x3fb247c9	1.3928157
14	0x3fb90a14	1.4456201
15	0x40005ec2	2.0057836
16	0x401e09f8	2.4693584
17	0x3fb80d47	1.4379052
18	0x3fa956d7	1.3229626
19	0x3fb439d1	1.4080144
20	0x4004ae08	2.073122
21	0x3fbc3411	1.470339
22	0x3fc41fc4	1.5322194
23	0x3fc78546	1.5587547
24	0x3fb4de6e	1.413038
25	0x3fb6d5c7	1.428399
26	0x3ffb4b49	1.963235
27	0x3fb07fde	1.3789022
28	0x3fdec1fe	1.7402952
29	0x3fdf2a0e	1.7434709
30	0x3fae13f5	1.359984
31	0x3fcdbbef	1.6072978
