CA04/checkpoints/checkpoint.pth (torch, 707509 bytes, 143 tensors)

Conv_BN_ReLU1.0.weight f4 [16, 3, 3, 3]
0	0xbc04551a	-0.00807693
1	0x3e4bbe31	0.19896771
2	0x3db45daa	0.088069275
3	0xbd1113e7	-0.03541937
4	0xbe3807aa	-0.17971674
5	0x3e4e1ec5	0.20128925
6	0x3e00b142	0.12567618
7	0x3c3a3d86	0.011367207
8	0x3cfec2ad	0.031098688
9	0xbd8ec76b	-0.0697163
10	0x3da729dc	0.08162281
11	0x3daf7ccf	0.08568727
12	0xbe53f284	-0.20697981
13	0xbe3a7c5b	-0.182115
14	0x3d070619	0.0329648
15	0xbd4e480a	-0.05036167
16	0x3e32f3f5	0.17475875
17	0xbe05ea31	-0.13077618
18	0x3ca372fa	0.019952286
19	0x3da6d02c	0.081451744
20	0x3da5f50d	0.0810338
21	0x3db92620	0.09040475
22	0xbe8b70c8	-0.27234483
23	0xbddd5f10	-0.10809147
24	0xbe3b9df9	-0.1832198
25	0xbabcc90c	-0.0014403178
26	0x3dd5ffa0	0.10449147
27	0xbe16e6bf	-0.1473646
28	0xbe53a29b	-0.20667498
29	0xbe181018	-0.1484989
30	0x3de8ad83	0.1136122
31	0x3bd52df4	0.006505722
32	0x3dae7885	0.08519081
33	0xbe20dcd1	-0.15709235
34	0xbe40aa4d	-0.18814965
35	0x3e0fb0d6	0.14032301
36	0x3e470f02	0.19439319
37	0xbdec607e	-0.11541842
38	0x3e246a4f	0.16056179
39	0x3d578b54	0.052623108
40	0x3e115bf9	0.14195241
41	0x3d6bb732	0.057547756
42	0x3a7aba38	0.0009564492
43	0x3df5f608	0.12009817
44	0xbe061fef	-0.13098119
45	0x3e389a25	0.18027551
46	0xbe08df29	-0.13366379
47	0xbc833662	-0.016017143
48	0x3dde1f51	0.10845817
49	0xbd272597	-0.040807333
50	0x3d9d7b42	0.07689525
51	0xbd5d2898	-0.05399379
52	0x3cbb890d	0.0228925
53	0xbe119dc4	-0.14220339
54	0xbe4afefa	-0.19823828
55	0xbdb88e9d	-0.09011576
56	0xbc1c73cd	-0.009549093
57	0xbe277ef0	-0.16357017
58	0xbd56a52c	-0.052403614
59	0xbd1b09f7	-0.0378513
60	0x3dbdda61	0.09270168
61	0x3e81a77e	0.253231
62	0xbd39b473	-0.045338105
63	0x3c951ffa	0.018203724
64	0x3c4ca4d3	0.012490469
65	0xbd0af43e	-0.033924334
66	0xbe464723	-0.19363074
67	0x3d7902bd	0.060793627
68	0xbe1731d6	-0.14765105
69	0x3c376e58	0.011195742
70	0x3e27eefb	0.16399758
71	0x3c44f48b	0.012021194
72	0x3d5dae4b	0.054121297
73	0xbd1d232f	-0.03836363
74	0xbdc3b47d	-0.0955591
75	0xbdfe599d	-0.12419436
76	0x3e0399f5	0.12851699
77	0xbd0982e3	-0.03357209
78	0x3da9b924	0.08287266
79	0xbddda20c	-0.108219236
80	0xbe315118	-0.17316091
81	0x3e19450c	0.14967746
82	0x3e035cb4	0.12828332
83	0xbe2628fd	-0.16226573
84	0x3e8fbaf3	0.28072318
85	0xbe0cee88	-0.13762867
86	0xbd5d1d35	-0.053982932
87	0xbdbc07f7	-0.09181207
88	0x3ddec7c0	0.10877943
89	0x3c14f635	0.009091903
90	0xbe30b441	-0.17256261
91	0xbe010a8a	-0.12601677
92	0x3df2622f	0.11835133
93	0xbe857929	-0.26069
94	0xbd80e2a8	-0.06293231
95	0x3ca4f768	0.020137504
96	0x3d452aa7	0.04813638
97	0x3e264211	0.1623614
98	0x3d61f4c9	0.055165086
99	0x3e08e177	0.13367258
100	0xbc6c08ac	-0.014406364
101	0xbd2f3df7	-0.042783704
102	0xbddd2f5e	-0.1080005
103	0x3e2fcd62	0.17168191
104	0xbc38b0f2	-0.011272656
105	0xbe3657ae	-0.17806885
106	0xbe0cea1c	-0.1376118
107	0xbc8f5630	-0.017497152
108	0xbdd1a290	-0.102360845
109	0xbd0b07a7	-0.033942845
110	0xbe0f28de	-0.13980433
111	0xbd0fe5bd	-0.035131205
112	0x3e0bc8d7	0.13650833
113	0xbe30e442	-0.17274573
114	0x3e8c3270	0.2738223
115	0x3e403db5	0.1877354
116	0xbc50ca55	-0.012743552
117	0xbc04304b	-0.008068155
118	0xbdb663d0	-0.089057565
119	0x3d8d1329	0.0688842
120	0xbdf35475	-0.11881343
121	0xbe3106df	-0.17287777
122	0xbc845ec5	-0.01615847
123	0x3d7adee3	0.061247718
124	0x3d717919	0.05895338
125	0xbdafcdea	-0.08584197
126	0xbe6894dc	-0.22713035
127	0x3d636ec9	0.055525575
128	0x3e67706d	0.22601481
129	0x3cd56169	0.026047425
130	0xbdcbd5b3	-0.09952869
131	0x3e25d994	0.1619628
132	0x3df490e3	0.119416974
133	0x3d874b6b	0.06606182
134	0xbdb0a1ec	-0.08624634
135	0xbda3c1dd	-0.07995961
136	0xbe1107fc	-0.14163202
137	0x3cddb874	0.027065493
138	0x3dc18082	0.09448339
139	0xbe4a75cb	-0.19771497
140	0xbe0239e2	-0.12717393
141	0x3c8aeff1	0.016960116
142	0xbe79b164	-0.24384075
143	0x3e3fd30e	0.18732855
144	0x3d80397c	0.06260964
145	0xbe1aff4c	-0.1513645
146	0x3e0af33b	0.13569348
147	0xbd47fa9b	-0.04882298
148	0x3d51a471	0.051182214
149	0xbd803096	-0.06259267
150	0xbe15e07a	-0.14636412
151	0xbd74ed4c	-0.059796616
152	0x3e5f414a	0.2180225
153	0x3d291b1e	0.041285627
154	0x3d9b48e9	0.07582266
155	0xbcf98da5	-0.03046305
156	0xbbf425f7	-0.007450815
157	0x3e0f93ef	0.14021276
158	0x3da37da6	0.0798295
159	0x3dfeeaa5	0.12447099
160	0xbe09f297	-0.13471447
161	0x3e20e602	0.15712741
162	0xbd53c8a3	-0.051705014
163	0xbe00352f	-0.12520288
164	0xbe2a1754	-0.16610461
165	0x3c33c9ac	0.010973375
166	0x3c530696	0.012879988
167	0x3e6ede70	0.2332704
168	0xbd7dfe76	-0.06201025
169	0xbc9d21c0	-0.019181132
170	0x3e588395	0.21143945
171	0xbd165e18	-0.03671083
172	0x3d372390	0.04471165
173	0xbe6e4bfd	-0.23271175
174	0x3e35195f	0.1768546
175	0x3dbc724e	0.092014894
176	0xbda16a59	-0.07881612
177	0x3d2f3738	0.04277727
178	0x3e0c9401	0.13728334
179	0xbe2a6584	-0.16640288
180	0xbd49b206	-0.049242042
181	0xbe3d098a	-0.1846067
182	0xbd111739	-0.035422537
183	0xbdb8ea75	-0.09029094
184	0x3e59ad49	0.2125751
185	0x3d424e00	0.047437668
186	0x3c96eba5	0.018422911
187	0xbe0a1c5c	-0.1348738
188	0xbd7a4ec4	-0.061110273
189	0xbd059483	-0.032612335
190	0x3e30a355	0.17249806
191	0x3db1bb67	0.08678322
192	0x3cb9ae78	0.022666201
193	0x3c87a7c4	0.01655949
194	0xbd15a077	-0.036529984
195	0xbd950dd4	-0.07278028
196	0x3d7d66ea	0.061865725
197	0x3de348b8	0.110978544
198	0xbe8ea10a	-0.27857238
199	0xbdeccf4e	-0.11562978
200	0x3c09932a	0.008396903
201	0x3cdaa52d	0.02669009
202	0x3e016a18	0.12638128
203	0xbe4b7e07	-0.19872294
204	0xbe6f5d95	-0.23375542
205	0xbd13321a	-0.035936452
206	0xbdbf0bf1	-0.093284495
207	0xbe147533	-0.14497833
208	0x3d46a0ba	0.048493125
209	0xbe7a7822	-0.2445989
210	0xbe14c1ac	-0.14527005
211	0x3e787634	0.24263841
212	0x3dfe49e4	0.12416437
213	0xbe40cd2d	-0.18828268
214	0xbe04cb82	-0.12968257
215	0x3e1177d9	0.14205875
216	0xbddbed41	-0.10738612
217	0xbe0cfd83	-0.13768582
218	0xbd52b925	-0.0514461
219	0x3dbbaa87	0.09163385
220	0x3dd05205	0.10171894
221	0x3e1d1a50	0.15342069
222	0x3db491de	0.088168845
223	0xbd1e920e	-0.038713507
224	0xbe706824	-0.23477226
225	0xbd2d61a6	-0.042329453
226	0x3cbb2978	0.022846922
227	0xbe411256	-0.18854651
228	0xbce9b96b	-0.028530797
229	0x3e6bc28e	0.23023435
230	0xbe8e0e9e	-0.27745527
231	0x3ca681b8	0.020325527
232	0x3d572574	0.052525952
233	0x3d49b659	0.049246166
234	0x3e0e1f46	0.13879117
235	0xbe051762	-0.12997201
236	0xbe0f6de3	-0.14006762
237	0xbd890248	-0.06689888
238	0x3d8d4814	0.068985134
239	0xbe38d8d7	-0.18051468
240	0x3ddf009b	0.10888787
241	0x3dfef7df	0.124496214
242	0xbddb3a33	-0.1070446
243	0x3dfde277	0.1239671
244	0xbe0e2c63	-0.1388412
245	0xbdd6f878	-0.104966104
246	0x3d2b6aa4	0.041849747
247	0x3bc08ed8	0.0058764033
248	0x3e4ffdce	0.20311663
249	0xbd8d0039	-0.06884808
250	0xbd8a2908	-0.06746107
251	0xbdfb9812	-0.122848645
252	0x3e600138	0.21875465
253	0x3e2aa7ab	0.16665523
254	0x3dd11914	0.102098614
255	0x3dfd1e51	0.12359298

Conv_BN_ReLU1.0.bias f4 [16]
0	0x3e5c3733	0.21505432
1	0xbe38f7b7	-0.18063246
2	0xbde43c14	-0.111442715
3	0x3c83d163	0.016091054
4	0x3e0e1813	0.13876371
5	0xbe367d1f	-0.17821167
6	0x3d767748	0.06017235
7	0xbe817f35	-0.25292364
8	0xbd53b293	-0.051683974
9	0x3da9f26e	0.08298193
10	0x3e28386c	0.16427773
11	0x3e2f88e9	0.17142071
12	0xbd5a2a2f	-0.053262886
13	0xbdc47253	-0.09592118
14	0x3d47a6e4	0.048743144
15	0xbc9dfe0e	-0.019286182

Conv_BN_ReLU1.1.weight f4 [16]
0	0x3f85003b	1.0390695
1	0x3f8eb70a	1.1149609
2	0x3f722425	0.945864
3	0x3f6d3625	0.92660743
4	0x3f962880	1.173111
5	0x3f8f764e	1.1207979
6	0x3f81bf54	1.0136514
7	0x3f73ff5d	0.9531153
8	0x3f6549c6	0.89565694
9	0x3f6b7514	0.9197552
10	0x3f6ded25	0.9293998
11	0x3f7a56d0	0.97788715
12	0x3f694758	0.91124487
13	0x3f70925d	0.9397333
14	0x3f8c94f7	1.098296
15	0x3f782acc	0.969403

Conv_BN_ReLU1.1.bias f4 [16]
0	0x3e992894	0.2991377
1	0x3e3024fc	0.17201608
2	0xbc8e36f8	-0.017360196
3	0x3e2d9eda	0.16955128
4	0x3e230e8e	0.15923521
5	0x3b606206	0.0034238114
6	0xbd9d0fe5	-0.07669047
7	0xbddaa15f	-0.1067531
8	0xbd30cae6	-0.04316225
9	0xbdf19f8a	-0.11798008
10	0x3e262e3f	0.16228579
11	0xbe08b231	-0.13349225
12	0xbdfd8ef3	-0.12380781
13	0xbe042887	-0.12906085
14	0xbc80d7c5	-0.015727887
15	0xbcc4b44f	-0.02401176

Conv_BN_ReLU1.1.running_mean f4 [16]
0	0x3e53bd68	0.20677722
1	0xbe4016bd	-0.18758674
2	0xbec7546d	-0.389316
3	0xbd72d371	-0.059283677
4	0x3e1a6644	0.15078074
5	0xbe541db2	-0.20714453
6	0xbd3a28fc	-0.045449242
7	0xbf10b72b	-0.5652949
8	0xbe80432d	-0.2505125
9	0xbd18318e	-0.037156634
10	0x3e32bd35	0.17454989
11	0x3eb178f6	0.34662598
12	0xbe1c6e9e	-0.15276572
13	0xbe87fa7d	-0.26558295
14	0x3ce11645	0.02747644
15	0xbdde1baa	-0.1084512

Conv_BN_ReLU1.1.running_var f4 [16]
0	0x3c099e24	0.00839952
1	0x3bb47741	0.0055073802
2	0x3ce8b4bc	0.028406493
3	0x3b3f17ab	0.0029158394
4	0x3bf124dc	0.0073591303
5	0x3bf8fa67	0.0075982097
6	0x3c230f29	0.009952345
7	0x3d0ce8d7	0.03440174
8	0x3cbbeebf	0.022940991
9	0x3c671d77	0.014106146
10	0x3afb68cd	0.0019181013
11	0x3c871334	0.016488649
12	0x3c1bb828	0.0095043555
13	0x3c8bbf25	0.017058918
14	0x3b72a540	0.0037024766
15	0x3b9d3e34	0.004798675

Conv_BN_ReLU1.3.weight f4 [16, 16, 3, 3]
0	0xbd71a223	-0.058992516
1	0x3d14c05f	0.036316272
2	0x3d7a879b	0.06116448
3	0xbde9cc41	-0.114159115
4	0x3dc9a694	0.098462254
5	0xbd4f0040	-0.050537348
6	0x3cf61ef4	0.030044056
7	0xbda8d425	-0.08243588
8	0x3d70a980	0.058755398
9	0xbdad83dd	-0.084724165
10	0x3e1312a7	0.14362584
11	0x3dde79e7	0.10863095
12	0xbdd83b39	-0.10558171
13	0x3caa94ca	0.020822901
14	0xbd2fd4cf	-0.04292756
15	0xbdf420bf	-0.11920308
16	0x3d3626c1	0.044470552
17	0xbda528e5	-0.08064441
18	0xbc2602fc	-0.0101325475
19	0x3dca33c0	0.09873152
20	0x3dc595b0	0.09647691
21	0xbc6f9854	-0.01462372
22	0x3de6e9e1	0.112750776
23	0x3e706b23	0.2347837
24	0xbddacafa	-0.10683246
25	0x3d8b3764	0.06797674
26	0x3e1947fa	0.14968863
27	0x3d94d1d1	0.07266582
28	0xbd1e3397	-0.03862342
29	0x3ce518a4	0.027965851
30	0x3d8e8275	0.069584765
31	0x3e1103a3	0.14161544
32	0xbdffc4a7	-0.1248868
33	0xbcb30429	-0.02185257
34	0x3e35679d	0.17715307
35	0xbcf4d745	-0.029887805
36	0xbc8053d7	-0.015664978
37	0x3e3c1381	0.18366815
38	0x3d282d04	0.041058555
39	0xbd9b04f5	-0.07569305
40	0xbc20e900	-0.0098211765
41	0xbd0be10e	-0.034150176
42	0x3b911275	0.004427249
43	0x3cef5bad	0.02921852
44	0x3cb5a531	0.022173496
45	0x3d630703	0.05542661
46	0x3d92837a	0.071539834
47	0x3d258377	0.040408578
48	0xbb319f29	-0.0027102923
49	0xbd82e4a5	-0.06391267
50	0xbcea7455	-0.028619925
51	0x3de229b6	0.11043112
52	0xbe3dfbdb	-0.18553106
53	0x3d3978fa	0.045281388
54	0x3da48cfd	0.08034704
55	0x3dfb0462	0.12256695
56	0x3cde51b8	0.027138576
57	0xbdae5a35	-0.085132994
58	0x3dc02050	0.09381163
59	0x3dc32205	0.09527973
60	0x3c9d38f5	0.019192198
61	0x3db699c5	0.08916048
62	0x3d85baad	0.06529746
63	0xbe0f945f	-0.14021443
64	0xbc9b7675	-0.018977383
65	0x3b1c2ecd	0.0023831606
66	0xbc68b9c6	-0.014204448
67	0xbd4e1485	-0.050312538
68	0x3c79a2eb	0.015236597
69	0x3c10a84e	0.008829189
70	0xbadff2a9	-0.0017085868
71	0x3d1930d0	0.037400067
72	0x3d4b901e	0.049697988
73	0x3d0f109b	0.034927946
74	0xbd453a49	-0.04815129
75	0x3d91b78c	0.07115087
76	0x3ded4205	0.11584858
77	0x3ccb9ed6	0.024856012
78	0xbd038e6d	-0.03211825
79	0x3d81a1c3	0.06329682
80	0xbd52cc8d	-0.051464606
81	0x3a244114	0.0006265801
82	0x3dd23037	0.102631025
83	0x3c21f2df	0.009884565
84	0xbd23f7fd	-0.040031422
85	0x3deb9d7d	0.11504648
86	0xb93a965c	-0.00017794356
87	0xbce71723	-0.028209275
88	0x3d13b113	0.036057543
89	0x3d311042	0.043228395
90	0x3d9ab477	0.07553952
91	0xbdb62f9e	-0.08895801
92	0x3e2134f0	0.1574285
93	0xbcfcd63f	-0.03086388
94	0x3dae8a90	0.085225224
95	0xbdb60811	-0.08888257
96	0xbbdd126c	-0.006746581
97	0x3d1d4a2d	0.038400818
98	0xbdbbbecd	-0.09167252
99	0x3d9b2d4a	0.075769976
100	0xbdf52ecc	-0.119718164
101	0x3de209e3	0.11037042
102	0x3cfceded	0.03087517
103	0xbd8402ee	-0.06445871
104	0xbc0896f6	-0.008336773
105	0xbde69ecc	-0.11260757
106	0xbb17e900	-0.002317965
107	0xbe5ddd91	-0.21666552
108	0x3bb61e93	0.005557844
109	0x3dad57cd	0.08464012
110	0xbcf57c86	-0.029966604
111	0x3bca244d	0.006168878
112	0x3d930c8f	0.0718013
113	0xbd2d924c	-0.042375848
114	0xbd57c488	-0.05267766
115	0x3be8ac6f	0.007100634
116	0xbcf1ad68	-0.029501632
117	0xbcb50eaa	-0.022101719
118	0x3e26131b	0.16218226
119	0x3dbee1c9	0.09320409
120	0x3d020d5e	0.03175103
121	0xbdd03b44	-0.10167554
122	0xbcb45eba	-0.022017825
123	0xbd72e06a	-0.05929605
124	0xbe2be2e9	-0.16785778
125	0xbdcf593b	-0.10124441
126	0xbd833a8c	-0.06407651
127	0x3d8e48ac	0.06947455
128	0x3dd99f3d	0.106260754
129	0xbe096792	-0.13418415
130	0xbcb16396	-0.021653932
131	0xb9e26d58	-0.00043187547
132	0x3db5a4d4	0.08869329
133	0xbd5f3b06	-0.05449965
134	0xbd1cb379	-0.038257096
135	0x3c338a3e	0.0109582525
136	0xbd5d0bdb	-0.053966384
137	0x3db4d524	0.08829716
138	0xbcfa09b6	-0.030522209
139	0x3d22ce1e	0.03974735
140	0xbd1a78c9	-0.037712846
141	0xbd6e80d2	-0.05822832
142	0x3d1c78b5	0.038201053
143	0x3d734ea4	0.05940117
144	0xbd5e986a	-0.054344572
145	0xbd85cda3	-0.06533363
146	0xbd4f43ee	-0.050601892
147	0x3b452df1	0.0030087198
148	0xbdd08ffd	-0.101837136
149	0x3d93b2fc	0.07211873
150	0xbc10f0cb	-0.008846472
151	0xbe3248b0	-0.1741054
152	0x3daf39b9	0.085559316
153	0xbdafa001	-0.0857544
154	0x3d2016ab	0.039084118
155	0xbcacc21d	-0.021088654
156	0xbe541cbc	-0.20714086
157	0xbd8f07b6	-0.069838926
158	0xbd4e0105	-0.05029394
159	0x3d698ebe	0.057020895
160	0xbd0e51e3	-0.034746062
161	0x3e184ad7	0.14872299
162	0x3dbb7579	0.091532655
163	0x3ce4489e	0.027866658
164	0xbcbbb668	-0.022914127
165	0x3d3e9c62	0.046535857
166	0x3b9927c8	0.0046739317
167	0x3d00dd87	0.031461265
168	0x3d12724f	0.035753544
169	0xbd80de8b	-0.06292447
170	0xbdb657de	-0.08903478
171	0x3d975983	0.0739012
172	0xbd2c96fe	-0.042136185
173	0x3d3fffe9	0.046874914
174	0x3d1cfe95	0.038328726
175	0xbdcb4971	-0.09926117
176	0xbcd8181e	-0.026378687
177	0x3cd75970	0.026287764
178	0xbe09a374	-0.13441259
179	0xbc97f716	-0.018550437
180	0xbd25597f	-0.040368553
181	0xbd54062f	-0.05176371
182	0xbd95316f	-0.07284819
183	0x3d6ebed7	0.058287468
184	0xbd463283	-0.048388015
185	0x3d8ddf18	0.069273174
186	0x3afc28df	0.0019238255
187	0xbdcc2383	-0.09967711
188	0x3bbe669c	0.005810572
189	0xbd3954d4	-0.045246914
190	0x3daad168	0.08340722
191	0xbde7ac4e	-0.113121614
192	0x3bdf9603	0.0068233027
193	0x3dc35715	0.09538094
194	0xbd2ac5fc	-0.04169272
195	0x3d3d8120	0.04626572
196	0x3d95b7df	0.07310461
197	0xbddb876a	-0.107191876
198	0xbc4481db	-0.011993851
199	0x3c353d6d	0.011062008
200	0xbcd86d49	-0.026419299
201	0x38d89332	0.000103271
202	0xbe49c232	-0.19702986
203	0xbdcc56b8	-0.09977478
204	0x3c6550e8	0.01399634
205	0x3d246669	0.04013673
206	0x3d8d382a	0.06895478
207	0x3dd09f8b	0.101866804
208	0xbd964d80	-0.07339001
209	0x3d1faf58	0.03898558
210	0x3d5e055c	0.05420433
211	0xbda53ee8	-0.08068639
212	0xbcba6d11	-0.022757085
213	0x3da09fc0	0.0784297
214	0xbd8a7800	-0.067611694
215	0x3c877e5d	0.016539747
216	0x3d663a30	0.056207836
217	0x3b1b67ea	0.002371306
218	0xbd522932	-0.05130882
219	0xbd99591d	-0.074877
220	0x3a77d2ed	0.00094537326
221	0x3d475b5b	0.048671108
222	0x3d8bd8d5	0.06828467
223	0x3d7f721a	0.062364675
224	0x3bcdfd43	0.0062862947
225	0xbd8b1413	-0.06790938
226	0x3d030e17	0.03199586
227	0x3be596b8	0.0070064925
228	0xbc132466	-0.008980846
229	0xbd80db7a	-0.06291862
230	0x3d022fef	0.031783994
231	0x3dad187b	0.08451935
232	0x3cae9765	0.021312425
233	0x3d5202d7	0.05127224
234	0xbc15f0aa	-0.009151617
235	0x3b8ac07d	0.004234372
236	0xbd815ef6	-0.063169405
237	0x3d4aa3d0	0.04947263
238	0xbd91702f	-0.071014754
239	0x3da5844c	0.08081874
240	0xbdf83ab4	-0.12120572
241	0xbdafc499	-0.0858242
242	0x3d1cf00c	0.038314864
243	0x3d96d3d6	0.07364623
244	0xbcb115da	-0.021616865
245	0xbddf3924	-0.108995706
246	0x3de5df0b	0.11224183
247	0x3b967a21	0.0045921956
248	0x3ab4c415	0.0013791347
249	0x3c3a6f3c	0.011379059
250	0x3dbb3c1b	0.091423236
251	0xbd15c861	-0.03656805
252	0x3d8dd3ff	0.06925201
253	0x3d977046	0.07394461
254	0x3cbecd94	0.023291387
255	0x3da4be63	0.08044126

Conv_BN_ReLU1.3.bias f4 [16]
0	0x3db2ffee	0.08740221
1	0xbac733a8	-0.001519789
2	0x3e020e75	0.12700827
3	0xbdbedc74	-0.09319392
4	0xbcb6add3	-0.022299683
5	0xbb25515b	-0.0025225494
6	0x3c5c3821	0.013441117
7	0x3b5d82bf	0.0033799855
8	0xbcbbe7c8	-0.02293767
9	0x3cf2c6e9	0.029635863
10	0x3d18360e	0.037160926
11	0xbaab1152	-0.0013051427
12	0x3e0abbb4	0.13548166
13	0x3cee0179	0.029053437
14	0xbc5baaae	-0.013407392
15	0xbd94c037	-0.072632246

Conv_BN_ReLU1.4.weight f4 [16]
0	0x3f6dddc3	0.92916507
1	0x3f837e54	1.0272927
2	0x3f5974c1	0.8494378
3	0x3f8772bf	1.0581893
4	0x3f816183	1.0107883
5	0x3f7ffae3	0.999922
6	0x3f82c09a	1.0215027
7	0x3f6dd107	0.92897075
8	0x3f7ababd	0.9794119
9	0x3f6e3c5c	0.9306085
10	0x3f871b64	1.0555234
11	0x3f89ed0e	1.0775468
12	0x3f857c7d	1.0428616
13	0x3f78a8e3	0.971327
14	0x3f647ba0	0.89251137
15	0x3f87c13c	1.0605845

Conv_BN_ReLU1.4.bias f4 [16]
0	0xbd0ad656	-0.033895813
1	0xbd1483ce	-0.03625851
2	0xbe77bce4	-0.2419315
3	0x3d86b851	0.06578124
4	0x3cc35d8c	0.023848318
5	0xbc90012c	-0.017578684
6	0xbde46e19	-0.11153812
7	0xbd3b5dae	-0.045743637
8	0xbdde7b11	-0.10863317
9	0x3d644239	0.055727217
10	0x3d39faee	0.04540532
11	0xbde7f07a	-0.11325164
12	0xbd251233	-0.04030056
13	0xbde3258c	-0.11091146
14	0x3cd78b18	0.026311442
15	0x3d65e078	0.056122273

Conv_BN_ReLU1.4.running_mean f4 [16]
0	0x3f1b083d	0.60559446
1	0xbf0d6e05	-0.55246
2	0xbe7f32d0	-0.24921727
3	0xbeb3d2a5	-0.35121647
4	0xbf4bef58	-0.79662085
5	0xbf1a4b4b	-0.6027114
6	0xbe22460e	-0.15847036
7	0x3e17e8d4	0.1483491
8	0xbe98fd88	-0.2988093
9	0xbe6ee6c1	-0.23330213
10	0xbeefccc4	-0.4683591
11	0xbe945038	-0.28967452
12	0x3e8d24d2	0.27567154
13	0x3eae7a27	0.3407757
14	0x3c88ee30	0.01671514
15	0xbf6d97cf	-0.92809767

Conv_BN_ReLU1.4.running_var f4 [16]
0	0x3f175197	0.5910887
1	0x3eca9585	0.395672
2	0x3ea6212b	0.3244718
3	0x3f138f88	0.57640886
4	0x3f1030b2	0.56324303
5	0x3f055a01	0.5209046
6	0x3f2544a1	0.64557844
7	0x3f073635	0.5281709
8	0x3ea35cae	0.31906646
9	0x3e9f5029	0.31115845
10	0x3f27283e	0.6529578
11	0x3f457e03	0.77145404
12	0x3ea9822c	0.33107126
13	0x3f096b16	0.53679025
14	0x3eb7ed9e	0.35923475
15	0x3f506b9a	0.81414187

Conv_BN_ReLU2.0.weight f4 [32, 16, 3, 3]
0	0xbda6d7e7	-0.08146649
1	0x3de0fda6	0.109858796
2	0x3d681f29	0.05667034
3	0xbded0e5d	-0.11575005
4	0xbcf0a162	-0.029373828
5	0xbd8b059c	-0.06788179
6	0x3e2d22b9	0.16907777
7	0x3cf3ff5a	0.029784847
8	0xbc7a7763	-0.015287253
9	0xbc847f8b	-0.016174098
10	0x3d5b4d5b	0.05354057
11	0x3d86cd3a	0.065821126
12	0xbd85d2fc	-0.06534383
13	0xbe200ca1	-0.15629818
14	0x3e4446b7	0.191676
15	0xbdeb57b2	-0.11491336
16	0xbdbb0131	-0.091310866
17	0xbcd759cb	-0.026287934
18	0x3df724b8	0.120675504
19	0xbc43d747	-0.011953182
20	0x3d58127b	0.052752
21	0xbc0aa468	-0.008462049
22	0x3d588a90	0.05286652
23	0xbdd5eb5e	-0.10445283
24	0xbd94330c	-0.07236299
25	0x3cb93761	0.022609415
26	0xbca7d6e0	-0.020488203
27	0x3c015e90	0.007896081
28	0xbc12975c	-0.00894722
29	0xbe1437e2	-0.14474443
30	0x3d1e9197	0.038713064
31	0xbcb93d31	-0.022612186
32	0xbd139e2f	-0.036039528
33	0x3e161b2d	0.14658804
34	0x3d037ad9	0.03209958
35	0x3cc1bac7	0.023648633
36	0xbd4bf7b5	-0.04979678
37	0x3dfe31bb	0.12411829
38	0x3de70f77	0.112822466
39	0xbcde69ff	-0.027150152
40	0x3ce06280	0.027390718
41	0x3dd1ccad	0.10244117
42	0xbe0ae880	-0.13565254
43	0xbd8e7158	-0.06955212
44	0x3b8f38d9	0.0043707904
45	0xbda8b10e	-0.082368955
46	0xbdc6305c	-0.096771926
47	0xbd8763cc	-0.066108316
48	0x3dbcaec1	0.09213019
49	0x3db0d0f7	0.08633607
50	0x3cd72c54	0.026266254
51	0x3d27bf0a	0.040953673
52	0x3d670ce8	0.056408793
53	0x3ce0e5b2	0.027453277
54	0xbdebdd3a	-0.11516805
55	0xbc0fff82	-0.008788945
56	0xbc5ccd04	-0.013476614
57	0x3cf3b097	0.02974729
58	0xbe1d00ae	-0.1533229
59	0x3caa3238	0.0207759
60	0xbd54fa49	-0.051996503
61	0x3d9077f3	0.070541285
62	0xbe23b21c	-0.15985912
63	0x3c6aa6a2	0.014321955
64	0x3d1e905b	0.038711887
65	0x3d7dce55	0.06196435
66	0x3d47b67a	0.048758008
67	0xbcfb289e	-0.030659016
68	0x3e178811	0.14797999
69	0xbd593a86	-0.053034328
70	0x3dd81c09	0.10552222
71	0xbdc604cc	-0.09668884
72	0x3cf6b398	0.030114934
73	0x3d1a78fe	0.037713043
74	0xbd169588	-0.036763698
75	0xbd89e0dc	-0.06732342
76	0xbc4e7912	-0.012602108
77	0xbd03856b	-0.03210966
78	0x3de7fe3f	0.113277905
79	0x3dd678c1	0.10472251
80	0x3d8b9b96	0.06816785
81	0x3dbb4f0a	0.09145935
82	0xbddd4d6b	-0.10805782
83	0x3e12590e	0.14291784
84	0x3dd94a0e	0.10609828
85	0x3d9b9950	0.075976014
86	0xbe11930e	-0.14216253
87	0xbd8468bc	-0.06465289
88	0x3d9f555c	0.07779953
89	0xbe101fd5	-0.14074643
90	0x3bf1c879	0.0073786345
91	0xbd8bc561	-0.068247564
92	0x3c4eb10b	0.0126154525
93	0x3dc719e3	0.097217344
94	0x3d4698b5	0.048485477
95	0x3d0f0e5e	0.03492581
96	0x3e1e4613	0.15456419
97	0x3d4eb453	0.05046494
98	0xbd89de24	-0.06731823
99	0xbd414cce	-0.047192387
100	0xbcc94266	-0.024567794
101	0x3b6fb1da	0.0036574514
102	0xbd164292	-0.03668458
103	0x3db130a1	0.08651853
104	0x3c6fb762	0.014631124
105	0xbe097b83	-0.13426022
106	0x3cfca8f4	0.030842282
107	0xbce84ce4	-0.028356977
108	0x3d574983	0.05256034
109	0xbd6681e5	-0.05627622
110	0x3d331cbb	0.04372857
111	0x3dbc7226	0.092014596
112	0xbe4a7d21	-0.19774295
113	0xbd68edef	-0.056867536
114	0x3d0f4a58	0.03498301
115	0xbd9579ae	-0.07298599
116	0x3b83b1b1	0.004018985
117	0xbd9eadab	-0.07747968
118	0xbc887280	-0.01665616
119	0x3d96e1b7	0.073672704
120	0xbe31fe1e	-0.17382094
121	0xbbc02e78	-0.0058649145
122	0xbcec6b04	-0.028859623
123	0x3da57065	0.08078078
124	0x3e0002b7	0.12501036
125	0xbdafba0e	-0.08580409
126	0x3cf12e11	0.029440911
127	0xbdb61dbd	-0.08892391
128	0xbd2a3c9e	-0.041561715
129	0xbd39e7c5	-0.04538705
130	0x3c8ff2c8	0.017571822
131	0x3d09267b	0.033483963
132	0x3adbfc0d	0.0016783491
133	0x3d1000a7	0.035156872
134	0x3d99708f	0.07492172
135	0x3d6dd9d1	0.058069054
136	0x3cdf115d	0.02722996
137	0xbc05acb3	-0.0081588505
138	0xbca7f4eb	-0.020502528
139	0x3e13cc2b	0.14433353
140	0x3dcf5ca5	0.101250924
141	0xbd96dc41	-0.07366229
142	0xbdb4eea9	-0.08834583
143	0x3d75c127	0.059998658
144	0xbd851c4f	-0.0649954
145	0xbd268782	-0.040656574
146	0x3d852058	0.0650031
147	0xbcde0099	-0.027099894
148	0x3db1673c	0.086622685
149	0xbc0f6d67	-0.008754111
150	0xbe0c4638	-0.13698661
151	0xbca2c036	-0.019867044
152	0xbd4dd738	-0.050254077
153	0x3d1ca617	0.038244333
154	0xbc5d4d68	-0.013507225
155	0x3d645263	0.055742633
156	0xbcab5d49	-0.020918505
157	0x3c062539	0.0081875855
158	0x3d505b0f	0.05086809
159	0xbd6e3ff4	-0.05816646
160	0x3ba5adb1	0.005056106
161	0x3d20f7ad	0.039298702
162	0xbb89f093	-0.004209587
163	0x3dd46ab8	0.103719175
164	0xbd4992ea	-0.049212374
165	0x3e00d9a6	0.12583026
166	0x3c946495	0.018114367
167	0x3d11f7dc	0.035636768
168	0xbc928738	-0.017886743
169	0xbbdea93f	-0.006795078
170	0x3c350bb6	0.011050155
171	0x3d35042d	0.044193435
172	0x3d7d5cf8	0.06185624
173	0xbd28ae0d	-0.041181613
174	0x3cfc1e04	0.030776031
175	0xbc5cdad8	-0.013479911
176	0x3b496f64	0.003073656
177	0xbd5cef11	-0.05393893
178	0xbd14a246	-0.03628757
179	0xbd805e7d	-0.06268022
180	0x3cd0bad7	0.025479717
181	0xbe270a4e	-0.16312525
182	0xbdc13f82	-0.09435941
183	0x3d89e267	0.06732636
184	0xbd6c9ed0	-0.057768643
185	0x3da2f0dd	0.07956097
186	0xbdadff91	-0.08496011
187	0xbdb220dc	-0.08697674
188	0xbd8c9952	-0.06865181
189	0x3de573e9	0.11203749
190	0x3d7d4a9a	0.061838724
191	0x3d952e5b	0.07284232
192	0x3d89b3b8	0.06723732
193	0xbcfda137	-0.030960662
194	0x3a7e549b	0.0009701938
195	0xbcde0259	-0.027100729
196	0x3dcc4c55	0.09975497
197	0xbdab8a6f	-0.083760135
198	0x3de79a40	0.11308718
199	0x3dd07345	0.10178236
200	0x3e2b0383	0.16700558
201	0xbd26a95d	-0.04068886
202	0x3d816cb0	0.063195586
203	0xbdf4ad48	-0.11947113
204	0xbd5693d8	-0.05238709
205	0x3d900ef7	0.07034104
206	0x3c4e300f	0.0125847
207	0xbd55c394	-0.05218847
208	0x3cb998b5	0.022655824
209	0xbd9bda46	-0.07609992
210	0xbdb2009f	-0.08691525
211	0xbc7c3212	-0.015392797
212	0x3d660a17	0.056161966
213	0x3d94970f	0.07255375
214	0xbe03e98e	-0.12882063
215	0x3d881f85	0.06646637
216	0xbdbeb624	-0.09312084
217	0x3ca37bd9	0.019956516
218	0xbc1c76fa	-0.009549851
219	0x399303c3	0.00028040828
220	0x3d7ae9b3	0.06125803
221	0x3d066df2	0.032819696
222	0x3b211854	0.002458115
223	0x3d31af5e	0.043380134
224	0xbd47e0fd	-0.04879855
225	0x3de2bbbb	0.11070963
226	0xbe24680a	-0.16055313
227	0xbccf4b3e	-0.025304433
228	0x3db29480	0.087197304
229	0xbdfeaadd	-0.12434933
230	0xbd196c73	-0.03745694
231	0x3d63a77b	0.055579644
232	0xbdcf6aac	-0.10127768
233	0xbe09acbe	-0.13444802
234	0x3ceb3a1b	0.02871423
235	0xbe030a03	-0.12796788
236	0xbc6dd056	-0.014515003
237	0xbdc9d4b9	-0.09855027
238	0xbdbc88cd	-0.0920578
239	0xbdc4fa06	-0.09618001
240	0xbd9ba68e	-0.07600127
241	0xbd486d70	-0.048932493
242	0xbd265c08	-0.04061511
243	0xbe2ff6a4	-0.1718393
244	0xbdb35d66	-0.08758049
245	0xbd868a7a	-0.06569381
246	0xbd5a410c	-0.05328469
247	0xbd6bb35d	-0.0575441
248	0x3e01d1be	0.12677667
249	0xbe0df6f3	-0.13863735
250	0xbc928926	-0.017887663
251	0xbdd7c5ad	-0.105357505
252	0x3db2dc37	0.08733409
253	0xbc23e2e8	-0.010002829
254	0xbdbb52a7	-0.09146624
255	0xbd2036e1	-0.039114837

Conv_BN_ReLU2.0.bias f4 [32]
0	0x3d3982fc	0.045290932
1	0xbd9b38b9	-0.07579178
2	0x3d7520d3	0.059845757
3	0x3dd93a4f	0.106068246
4	0x3cd8a54e	0.02644601
5	0x3d2919bd	0.04128431
6	0x3d224184	0.03961326
7	0x3d37c438	0.044864863
8	0x3cdf0d15	0.027227918
9	0xbd28a42f	-0.041172203
10	0xbd3cf94f	-0.046136197
11	0xbd933e74	-0.07189646
12	0x3cf481c2	0.02984703
13	0xbd161f39	-0.03665087
14	0x3c39b144	0.011333767
15	0xbc43a65b	-0.011941518
16	0xbddd688a	-0.10810955
17	0x3db9e039	0.0907597
18	0x3cc1fc2c	0.023679815
19	0xbd8e3c29	-0.069450684
20	0x3c27f53d	0.01025134
21	0xbd94ad70	-0.07259643
22	0x3d6911de	0.056901805
23	0xbd22adbf	-0.03971648
24	0xbd6f5328	-0.058428913
25	0xb92141f1	-0.00015378722
26	0xbd23c323	-0.03998102
27	0x3c473185	0.0121578025
28	0xbd583329	-0.052783165
29	0xbd38450f	-0.044987734
30	0x3cb34fd6	0.021888655
31	0xbd2224bf	-0.039585825

Conv_BN_ReLU2.1.weight f4 [32]
0	0x3f81011a	1.0078461
1	0x3f80d604	1.0065312
2	0x3f803c50	1.0018406
3	0x3f734b15	0.9503644
4	0x3f8d9bbb	1.106315
5	0x3f71221c	0.9419267
6	0x3f76f21e	0.9646319
7	0x3f85185a	1.0398057
8	0x3f755d48	0.9584546
9	0x3f8949bc	1.0725627
10	0x3f881425	1.0631148
11	0x3f8854c4	1.0650868
12	0x3f8c74ec	1.0973182
13	0x3f86e928	1.0539904
14	0x3f70d6f1	0.94077975
15	0x3f82c21e	1.021549
16	0x3f8d9196	1.1060054
17	0x3f80e33f	1.006935
18	0x3f8d2cff	1.1029357
19	0x3f81f298	1.0152159
20	0x3f7d9576	0.99056184
21	0x3f807847	1.0036706
22	0x3f864619	1.0490142
23	0x3f6cfd5a	0.92574084
24	0x3f5f200b	0.8715827
25	0x3f7097db	0.93981713
26	0x3f866cc5	1.0501944
27	0x3f76d40b	0.964173
28	0x3f7958d8	0.9740119
29	0x3f8309db	1.0237383
30	0x3f7e0580	0.9922714
31	0x3f883ca2	1.0643504

Conv_BN_ReLU2.1.bias f4 [32]
0	0xbda05044	-0.078278095
1	0xbcf6a765	-0.030109117
2	0xbe138a40	-0.14408207
3	0xbe140d0a	-0.14458099
4	0xbdacf1b9	-0.084445424
5	0xbe43d513	-0.1912425
6	0xbdc16594	-0.094432026
7	0xbd9973f0	-0.074928164
8	0xbe72d671	-0.23714615
9	0xbcfbb48c	-0.03072574
10	0xbd8cf8bc	-0.0688338
11	0xbe257ada	-0.16160145
12	0xbd8da0c8	-0.06915432
13	0xbd868bac	-0.06569609
14	0xbdc4c992	-0.09608759
15	0xbdeebb65	-0.116568364
16	0x3d6efaed	0.05834477
17	0xbe2393c5	-0.15974338
18	0xbe18b08b	-0.14911096
19	0xbe31dcf5	-0.17369445
20	0xbdb58a84	-0.088643104
21	0xbdfa4be5	-0.12221507
22	0x3c2a2d19	0.010386729
23	0xbe177442	-0.14790443
24	0xbdfeda1d	-0.124439456
25	0xbe7fcfee	-0.24981663
26	0xbd3da332	-0.046298213
27	0x3bb75998	0.005595397
28	0xbd7a4b9f	-0.061107274
29	0xbde645c6	-0.11243777
30	0xbe4bfd23	-0.19920783
31	0xbe018c8f	-0.12651275

Conv_BN_ReLU2.1.running_mean f4 [32]
0	0x3e7375ba	0.23775378
1	0xbfb807ea	-1.4377415
2	0x3ea79344	0.32729542
3	0x3f287974	0.6581032
4	0xbe999270	-0.29994535
5	0xbf202021	-0.62549025
6	0xbeab3c4a	-0.33444434
7	0xbf4b671c	-0.7945421
8	0xbf2f7372	-0.6853553
9	0xbf0a7122	-0.54078877
10	0xbf329612	-0.6976024
11	0xbf23a606	-0.63925207
12	0xbf881911	-1.063265
13	0xbea63e6f	-0.32469508
14	0xbf251582	-0.64485943
15	0xbea47da3	-0.32127103
16	0xbefc8f4a	-0.4932807
17	0xbeb2df65	-0.34936062
18	0xbe33e278	-0.1756686
19	0xbf5b75d1	-0.8572665
20	0xbf936b3c	-1.15171
21	0xbe90c383	-0.28274164
22	0xbf4db91b	-0.80360574
23	0xbde5a50e	-0.11213122
24	0x3f803f12	1.0019248
25	0xbf2fc479	-0.6865917
26	0xbf576c30	-0.84149456
27	0xbe80fc8d	-0.2519268
28	0xbf0f2349	-0.55913216
29	0xbd9ee89d	-0.07759211
30	0xbf8ad7d5	-1.0847117
31	0xbecb264f	-0.39677665

Conv_BN_ReLU2.1.running_var f4 [32]
0	0x3ea8b8ae	0.329534
1	0x3f51ae4a	0.8190657
2	0x3eea0984	0.45710385
3	0x3ee68d52	0.45029694
4	0x3f021788	0.50817156
5	0x3f0cd48d	0.55011827
6	0x3f3b9c16	0.73285043
7	0x3f18c883	0.59680957
8	0x3ef0b2f9	0.47011545
9	0x3ed04b77	0.40682575
10	0x3f40afe9	0.7526842
11	0x3f1b6868	0.60706186
12	0x3f2e56d8	0.68101263
13	0x3f222cab	0.6334941
14	0x3f2dc7aa	0.6788279
15	0x3f01633f	0.5054206
16	0x3ef87369	0.4852555
17	0x3ef190ab	0.47180685
18	0x3eeab222	0.4583903
19	0x3f1c27d3	0.60998267
20	0x3f35ae83	0.7096941
21	0x3ec3a00b	0.3820804
22	0x3f156125	0.58351356
23	0x3ec32526	0.3811428
24	0x3f34f9b4	0.70693517
25	0x3f2b593f	0.66933054
26	0x3f008b2b	0.50212353
27	0x3ee334c0	0.44376183
28	0x3eeb57d5	0.45965448
29	0x3eba9343	0.36440477
30	0x3f228296	0.6348051
31	0x3f127ab2	0.5721847

Conv_BN_ReLU2.3.weight f4 [32, 32, 3, 3]
0	0xbd9a3790	-0.07530129
1	0x3dd7f41e	0.105446085
2	0x3b626412	0.003454451
3	0x3d51287a	0.051063992
4	0x3d97b19b	0.074069224
5	0xbd989018	-0.07449359
6	0x3d2d7c34	0.042354777
7	0x3d0a1afb	0.033717137
8	0x3c9f1568	0.019419387
9	0x3d017d2b	0.03161351
10	0x3c08737f	0.008328318
11	0x3d2c8135	0.04211541
12	0x3e0d5f28	0.1380583
13	0x3c8b6a1d	0.017018372
14	0xbb01bda8	-0.0019796882
15	0x3c5797ab	0.013158719
16	0x3e0328d4	0.12808543
17	0xbd2594f0	-0.04042524
18	0x3d5e1161	0.054215793
19	0xbd8d23f0	-0.0689162
20	0xbcc95072	-0.024574492
21	0x3bb5385b	0.0055303997
22	0x3cae71a2	0.021294419
23	0xbe12222e	-0.14270851
24	0x3d6638f1	0.056206647
25	0x3d43a82d	0.047767807
26	0xbe193de5	-0.14965017
27	0xbdd9392c	-0.10606608
28	0x3d4304ea	0.04761211
29	0x3cc444fe	0.02395868
30	0x3d0c99a7	0.03432622
31	0xbb8b403a	-0.0042495998
32	0xbbd1d3cb	-0.0064034215
33	0xbd5a77e3	-0.05333699
34	0xbdc8f475	-0.098122515
35	0xbc552636	-0.0130095985
36	0xbd786378	-0.060641736
37	0x3c10806e	0.0088196825
38	0x3aabf360	0.0013118796
39	0x3d14d3cf	0.03633481
40	0x3d3f7c9b	0.046749692
41	0xbcc313b0	-0.023813099
42	0x3cedb749	0.029018061
43	0xbcdafe66	-0.026732635
44	0x3da49d5b	0.08037826
45	0xbc81914c	-0.015816353
46	0xbb9a55b3	-0.004709923
47	0x3ca57a7f	0.020200012
48	0xbd2a5597	-0.04158553
49	0x3d856d5e	0.06515001
50	0xbd7e48e2	-0.062081225
51	0xbe091bb7	-0.13389479
52	0x3c8032e9	0.015649276
53	0x3dd6a1e5	0.10480098
54	0x3dc0b3da	0.09409304
55	0x3d17abb3	0.03702898
56	0x3da80bf0	0.08205402
57	0xbdb1bf3c	-0.08679053
58	0xbc4fdf48	-0.012687512
59	0xbc9d0817	-0.019168897
60	0x3d58e03a	0.052948214
61	0xbd841539	-0.064493604
62	0x3c533b8b	0.012892614
63	0xbccc54e8	-0.02494283
64	0x3cd9a1ab	0.026566347
65	0x3da1a57c	0.07892892
66	0xbe464b53	-0.19364671
67	0x3d952d24	0.072840005
68	0xbc558b60	-0.013033718
69	0xbdab892f	-0.08375775
70	0x3cd85c0c	0.026411079
71	0xbdada57a	-0.08478828
72	0x3d014190	0.031556666
73	0x3d2aa5d4	0.041662052
74	0xbd7115e3	-0.058858763
75	0xbd87f992	-0.06639399
76	0xbd098e34	-0.03358288
77	0xbc50e3da	-0.012749637
78	0xbbb47730	-0.0055073723
79	0xbda5b7e9	-0.08091719
80	0xbc34b0f9	-0.011028522
81	0xbd473f89	-0.048644576
82	0xbe055dfa	-0.1302413
83	0xbc961b22	-0.018323485
84	0x3da3870b	0.07984742
85	0xbb89930a	-0.0041984366
86	0xbe081821	-0.13290454
87	0x3df723c8	0.120673716
88	0x3d59e2a6	0.053194664
89	0xbd89b95b	-0.06724807
90	0xbdd2e81d	-0.10298178
91	0x3c8489ce	0.016178992
92	0x3d4865cd	0.04892521
93	0x3c9e50cd	0.019325638
94	0xbacda2dc	-0.0015688795
95	0x3d53099d	0.05152284
96	0xbd3ff8a8	-0.046867996
97	0xbc18ebfa	-0.009333605
98	0x3d5a975e	0.05336701
99	0x3da25895	0.07927052
100	0x3e1b36c8	0.15157616
101	0xbdcc5964	-0.099779874
102	0x3dc9eb9e	0.098593935
103	0xbdd630d2	-0.104585305
104	0xbd334d14	-0.04377468
105	0x3cbf01a1	0.023316206
106	0xbd8bce5f	-0.068264715
107	0x3e08f08e	0.13373014
108	0x3e0009e4	0.12503773
109	0xbd099edf	-0.033598777
110	0xbdad3496	-0.084572956
111	0x3c228ade	0.009920804
112	0xbd328057	-0.043579426
113	0xbd4ed296	-0.0504938
114	0x3d24a408	0.040195495
115	0x3d871f88	0.06597811
116	0x3c76fa17	0.0150742745
117	0xbd27d7ad	-0.04097717
118	0x3d21544a	0.039387025
119	0x3db6d1c9	0.08926732
120	0xbd23e653	-0.040014576
121	0xbd82bcb9	-0.06383652
122	0x3df68dd3	0.120387696
123	0x3ba4609e	0.0050164005
124	0xbb38fad8	-0.0028225686
125	0xbd28a0eb	-0.04116909
126	0x3c7e4013	0.015518206
127	0xbce99779	-0.02851461
128	0xbdf02401	-0.11725617
129	0x3c5b4592	0.013383286
130	0x3d89c032	0.067261115
131	0xbca4a7e3	-0.020099586
132	0x3d415450	0.047199547
133	0x3cfe7f67	0.03106661
134	0xbcbb3ed9	-0.022857117
135	0x3e1da60a	0.1539537
136	0xbd0b1086	-0.033951305
137	0xbe27a9c8	-0.1637336
138	0x3de6011c	0.1123068
139	0xbdc626cb	-0.09675368
140	0xbd0b8650	-0.034063637
141	0x3d7df776	0.062003575
142	0xbdbe7855	-0.09300295
143	0x3d93e1a7	0.07220774
144	0x3cf51abd	0.029919976
145	0xbc2f3462	-0.010693641
146	0x3d5c6b40	0.05381322
147	0x3dee714c	0.116427034
148	0x3c7b5202	0.015339376
149	0xbdb00677	-0.08594983
150	0xbbca2f30	-0.006170176
151	0x3dbdfb12	0.092764035
152	0xbddea191	-0.1087066
153	0x3e0b0efc	0.13579935
154	0x3bf71319	0.0075401184
155	0xbd38c9b2	-0.045114227
156	0xbd731b78	-0.059352368
157	0xbd512cb5	-0.051068027
158	0xbd460016	-0.048339926
159	0xbe0b1957	-0.13583885
160	0xbdbdc2aa	-0.09265645
161	0x3d02b50e	0.03191095
162	0xbce0944a	-0.02741446
163	0xbb0bd5d5	-0.002133717
164	0xbd3497c5	-0.04409005
165	0x3d04a796	0.032386385
166	0xbcb0d25a	-0.021584678
167	0x3c406c08	0.011744507
168	0x3d343df3	0.044004392
169	0xbaabe516	-0.0013114538
170	0xbe0e196f	-0.1387689
171	0x3d478d0c	0.048718497
172	0x3c893bd8	0.016752169
173	0xbda51ba5	-0.080619134
174	0x3d8e2393	0.06940379
175	0x3c160d0c	0.009158384
176	0xbe037f8e	-0.12841627
177	0x3e14bd11	0.14525248
178	0x3a351a4d	0.0006908521
179	0x3dc6f100	0.09713936
180	0x3d8c6922	0.0685599
181	0x3d762161	0.060090426
182	0xbd04b1ca	-0.032396115
183	0xbce348bc	-0.027744643
184	0xbd67ea78	-0.05662009
185	0x3d0cde14	0.034391478
186	0xbbfde0b3	-0.0077477335
187	0x3d1cb482	0.038258083
188	0x3b2fa6af	0.0026802232
189	0xbce59db2	-0.028029297
190	0x3cfda3d8	0.030961916
191	0xbd5b7e07	-0.053586986
192	0x3b4f99c1	0.0031677338
193	0xbd522614	-0.051305845
194	0x3e0abe5a	0.13549176
195	0x3d8a6d02	0.06759073
196	0x3d921f98	0.07134932
197	0xbccca750	-0.024982125
198	0xbde53894	-0.11192432
199	0xbd85404d	-0.06506405
200	0x3cac578b	0.021037837
201	0x3d8e37a5	0.06944207
202	0x3dbe837f	0.09302425
203	0x3d9eb449	0.077492304
204	0x3d420586	0.04736855
205	0xbde5b332	-0.112158194
206	0xbd6cbbcf	-0.057796296
207	0xbc8be60c	-0.017077468
208	0xbe27a91d	-0.16373105
209	0xbdf885d5	-0.121349014
210	0xbe2832d5	-0.16425641
211	0xbdb6821f	-0.089115374
212	0x3df0e34f	0.11762106
213	0x3d1324a6	0.035923623
214	0x3df958bb	0.12175127
215	0x3e0c6e5f	0.13713978
216	0xbe1040bc	-0.14087194
217	0xbccc6020	-0.02494818
218	0x3d6f6c35	0.058452804
219	0x3a95c9b8	0.0011427915
220	0xbd752940	-0.059853792
221	0xbb7d7683	-0.0038675375
222	0xbe5dd432	-0.21662977
223	0x3d605bed	0.054775167
224	0x3d460ec3	0.04835392
225	0x3d01a30c	0.031649634
226	0xbdc91b94	-0.09819713
227	0x3d5c9e62	0.053861983
228	0xbd82d593	-0.06388392
229	0x3c679b3d	0.014136133
230	0x3d28d005	0.041214008
231	0xbd8f8058	-0.070069015
232	0x3d0a91f6	0.033830605
233	0x3dfed201	0.12442399
234	0xbcbabb23	-0.022794312
235	0x3c94cefb	0.018165102
236	0xbd38d184	-0.045121685
237	0x3dde5f26	0.10857992
238	0x3cc9f5db	0.024653366
239	0xbd8421f1	-0.06451786
240	0x3d493ffb	0.049133282
241	0xbdc34c79	-0.095360704
242	0xbc4e5ae9	-0.012594917
243	0x3d4ca081	0.049957756
244	0x3d3d5f7c	0.04623364
245	0xbd0e52a3	-0.034746777
246	0xbc26d9a3	-0.010183725
247	0xbd19cfa0	-0.037551522
248	0xbcbe90d3	-0.023262417
249	0x3c8dba3d	0.01730072
250	0xbbe1218b	-0.0068704537
251	0xbda71515	-0.08158318
252	0x3d127aec	0.03576176
253	0xbd885243	-0.06656315
254	0x3d781d90	0.060575068
255	0x3cd696bf	0.026194928

Conv_BN_ReLU2.3.bias f4 [32]
0	0x3d1f40ab	0.03888003
1	0xbd17b934	-0.037041858
2	0xbcc0db41	-0.023542048
3	0x3b96e995	0.004605482
4	0xbd0b05de	-0.033941142
5	0xbbc89bc0	-0.0061220825
6	0xbb10b3f7	-0.0022079924
7	0xbce0d741	-0.027446391
8	0x3d5b5233	0.05354519
9	0xbc5268d2	-0.012842374
10	0x3d5aca0b	0.05341534
11	0xbd1a10f1	-0.037613813
12	0xbd2892d7	-0.041155662
13	0xbd3385de	-0.043828838
14	0x3cb2ad4e	0.021811154
15	0x3c932125	0.01796014
16	0xbd3d3103	-0.04618932
17	0x3c90ec49	0.017690795
18	0xbbcad4ac	-0.0061899032
19	0x3b66f678	0.0035242122
20	0x3d681a50	0.05666572
21	0xbb76aaff	-0.0037638543
22	0x3b1ace70	0.0023621581
23	0x3c7dae74	0.015483487
24	0x3d7ad9d5	0.061242897
25	0xbd22f5e0	-0.039785266
26	0xbcf325db	-0.029681137
27	0xbda21b2d	-0.079153396
28	0xbd346027	-0.04403701
29	0x3d6bdb49	0.057582173
30	0x3d7e6568	0.062108427
31	0xbbb5a694	-0.0055435393

Conv_BN_ReLU2.4.weight f4 [32]
0	0x3f88538d	1.0650498
1	0x3f6d08fa	0.9259182
2	0x3f6f3411	0.9343882
3	0x3f72105b	0.94556206
4	0x3f81387b	1.0095361
5	0x3f84d388	1.0377054
6	0x3f8207f4	1.0158677
7	0x3f80e32e	1.006933
8	0x3f83560e	1.0260637
9	0x3f82e864	1.022717
10	0x3f7905a9	0.9727426
11	0x3f81ed9d	1.0150639
12	0x3f64b688	0.8934102
13	0x3f62711a	0.8845383
14	0x3f79d90a	0.975968
15	0x3f759665	0.9593261
16	0x3f714a9d	0.94254476
17	0x3f7869e7	0.97036594
18	0x3f73a7dd	0.95178014
19	0x3f6d910d	0.92799455
20	0x3f7734f7	0.9656519
21	0x3f803d15	1.0018641
22	0x3f68cbd9	0.90936047
23	0x3f866bf0	1.050169
24	0x3f82a0c0	1.0205307
25	0x3f727a75	0.94718105
26	0x3f682151	0.90675837
27	0x3f6e2f80	0.9304123
28	0x3f6e6426	0.93121564
29	0x3f7a348c	0.9773643
30	0x3f7cbe46	0.98727834
31	0x3f7b653b	0.9820134

Conv_BN_ReLU2.4.bias f4 [32]
0	0xbe8709f3	-0.26374778
1	0xbe3650d8	-0.17804277
2	0xbddd73e6	-0.108131215
3	0xbe86208b	-0.26196703
4	0xbe2c40ef	-0.16821645
5	0xbe0b7551	-0.13618971
6	0xbe359cc3	-0.17735581
7	0xbe9bb1bf	-0.30409047
8	0xbe9c0c32	-0.30478054
9	0xbe176afd	-0.14786907
10	0xbe94a86c	-0.29034746
11	0xbe3a4bf0	-0.1819303
12	0xbea632ba	-0.32460576
13	0xbe6329c2	-0.22183898
14	0xbc9a7d40	-0.018858552
15	0xbeaf7259	-0.34266928
16	0xbe5d771a	-0.21627465
17	0xbe8fa981	-0.2805901
18	0xbe82cfc2	-0.25549132
19	0xbe9a5bae	-0.3014807
20	0xbe308669	-0.17238773
21	0xbe79857b	-0.24367325
22	0xbe39fb73	-0.18162327
23	0xbddfc42a	-0.10926087
24	0xbe4b6906	-0.19864282
25	0xbe9e3c14	-0.3090521
26	0xbe85572e	-0.26043075
27	0xbe61a166	-0.22034225
28	0xbe52ffdd	-0.20605417
29	0xbeb33295	-0.3499953
30	0xbe6e1146	-0.23248777
31	0xbdb0ae18	-0.08626956

Conv_BN_ReLU2.4.running_mean f4 [32]
0	0xbd7f464a	-0.062322892
1	0xbe67a076	-0.22619805
2	0x3d74cb78	0.059764355
3	0xbe4ebf01	-0.2019005
4	0xbf6d6c16	-0.9274305
5	0xbfa0adf2	-1.2553084
6	0xbf0f8572	-0.56062996
7	0xbf0b7571	-0.54476076
8	0xbf917ad1	-1.1365606
9	0xbcdfdf8e	-0.027328279
10	0xbf9ac01e	-1.208988
11	0xbdc0c56e	-0.09412657
12	0x3ebb63c3	0.3659955
13	0xbd38b907	-0.04509833
14	0xbed16cd1	-0.40903333
15	0xbb8afddd	-0.0042416886
16	0xbe4a5a7c	-0.1976108
17	0xbedc26a4	-0.4299823
18	0xbf4593bf	-0.7717857
19	0xbf4527f2	-0.77014077
20	0xbf205b7a	-0.6263958
21	0xbe27c289	-0.16382803
22	0xbeab764a	-0.33488685
23	0xbed43aa6	-0.41450995
24	0xbed0c873	-0.4077793
25	0xbf2e49df	-0.6808147
26	0xbf34cfc8	-0.7062955
27	0xbf12cd12	-0.5734416
28	0xbf38a632	-0.72128594
29	0xbe8fe9cb	-0.28108057
30	0xbf6a6a4c	-0.91568446
31	0xbb8a0e5c	-0.0042131376

Conv_BN_ReLU2.4.running_var f4 [32]
0	0x3ee223b8	0.44167876
1	0x3ec9b52d	0.3939604
2	0x3f128150	0.57228565
3	0x3eed422f	0.46339557
4	0x3f221d59	0.6332603
5	0x3f139e04	0.5766299
6	0x3f092032	0.5356475
7	0x3f0015a5	0.50033027
8	0x3f0aca57	0.54214996
9	0x3f46a839	0.7760044
10	0x3f3197d9	0.69372326
11	0x3efb1c0b	0.49044833
12	0x3ef0eaa0	0.47054005
13	0x3efcc5ed	0.49369755
14	0x3f24db8b	0.64397496
15	0x3ee3bea6	0.4448139
16	0x3eb9b9e4	0.36274636
17	0x3f00d81e	0.5032977
18	0x3f1d9b3b	0.6156499
19	0x3f0a8820	0.5411396
20	0x3f0d3e74	0.5517342
21	0x3edcebc4	0.43148625
22	0x3f0ed392	0.5579158
23	0x3f39927c	0.7248914
24	0x3f179ba1	0.59221846
25	0x3f02d4eb	0.5110614
26	0x3f1e52de	0.61845195
27	0x3f18603e	0.59521854
28	0x3f24f83d	0.6444128
29	0x3f0bbed1	0.5458804
30	0x3f428bd3	0.75994605
31	0x3efa2466	0.48855895

Conv_BN_ReLU3.0.weight f4 [32, 32, 3, 3]
0	0x3de7386a	0.11290057
1	0x3cabf6d4	0.02099172
2	0xbe328018	-0.17431676
3	0x3db564f5	0.08857147
4	0xbd9754c0	-0.07389212
5	0xbdad658b	-0.084666334
6	0xbdd66562	-0.10468556
7	0xbd6dc834	-0.058052257
8	0xbd833b7e	-0.064078316
9	0xbda8b259	-0.08237142
10	0x3d2f21e9	0.04275695
11	0x3d98f035	0.07467691
12	0xbcfeab52	-0.031087551
13	0xbd334a93	-0.04377229
14	0x3c3bbc56	0.011458477
15	0xbca45c45	-0.020063529
16	0xbe103b1b	-0.14085047
17	0xbcbab69b	-0.022792151
18	0x3d06eb2e	0.03293913
19	0xbd0ea622	-0.034826405
20	0xbcc0ba9a	-0.023526479
21	0x3ccfc212	0.025361095
22	0x3db0d913	0.086351536
23	0x3d60fd26	0.05492892
24	0xbbde2993	-0.0067798584
25	0x3def31a6	0.116793916
26	0xbc988c7e	-0.01862168
27	0xbce1de5a	-0.027571846
28	0xbd6dc07e	-0.058044903
29	0xbe46ead7	-0.19425522
30	0x3ba0b993	0.0049049347
31	0xbc62fb82	-0.013853909
32	0x3c0bcc03	0.008532527
33	0x3c58a3d9	0.013222658
34	0x3d94d31f	0.07266831
35	0x3c60cb62	0.013720365
36	0x3ddabd79	0.1068067
37	0x3cab967f	0.020945786
38	0xbd793b20	-0.0608474
39	0xbc6b8b66	-0.014376497
40	0xbd3b7407	-0.04576495
41	0xbdb266cc	-0.08711013
42	0x3cc69e3a	0.02424537
43	0xbdb0389a	-0.08604546
44	0xbdb74f68	-0.089506924
45	0xbd7cb198	-0.061692804
46	0xbcd68587	-0.026186718
47	0x3caf96cc	0.02143421
48	0x3d724e2e	0.05915659
49	0xbd057b02	-0.032588013
50	0xbc99094e	-0.018681195
51	0x3dd11bcd	0.10210381
52	0x3c2aa9e5	0.010416483
53	0x3dd6cea2	0.10488631
54	0x3d5f73c5	0.054553766
55	0x3d095503	0.03352834
56	0xbdb5092f	-0.08839642
57	0x3da31b0e	0.07964145
58	0x3cc54e5d	0.024085218
59	0xbd061089	-0.032730613
60	0x3dc43906	0.09581189
61	0x3e099283	0.13434796
62	0x3aa30fd6	0.0012440633
63	0x3e44b8fb	0.1921119
64	0x3b46bb75	0.0030324135
65	0x3e48555c	0.19563812
66	0xbd4e2f07	-0.050337818
67	0x3c8d2aba	0.017232288
68	0xbdc33754	-0.095320374
69	0xbdca7659	-0.09885854
70	0xbe2656de	-0.16244075
71	0xbe3ad680	-0.18245888
72	0xbe2616b6	-0.16219601
73	0xbbcb2c92	-0.0062003816
74	0x3c9f90a6	0.019478153
75	0xbd829ec9	-0.06377942
76	0x3d13fba6	0.036128663
77	0xbd160789	-0.03662828
78	0x3d164423	0.036686074
79	0x3dd535f6	0.10410683
80	0x3cd3d92b	0.02586039
81	0xbd00b9b5	-0.031427104
82	0x3dc2de9c	0.095151156
83	0x3ddd60b8	0.10809463
84	0x3cbec50f	0.023287324
85	0x3d00817e	0.031373493
86	0x3d8b9cc7	0.06817012
87	0x3d37646f	0.044773515
88	0x3cbc300c	0.02297213
89	0xbbb9fca3	-0.0056758686
90	0xbd4c1fb1	-0.04983491
91	0xbd48b8c6	-0.04900434
92	0xbe03a375	-0.12855323
93	0x3d9a6f55	0.07540766
94	0x3d5fe4b0	0.054661453
95	0x3d60b8e2	0.054863818
96	0x3c90bec7	0.017669095
97	0xbd723146	-0.059129022
98	0x3ded31b4	0.11581746
99	0xbce6213c	-0.02809202
100	0xbc9d9682	-0.019236807
101	0xbd9c329e	-0.07626842
102	0x3d053a48	0.032526284
103	0x3c90ebf8	0.017690644
104	0x3c107985	0.008818035
105	0x3dadf910	0.084947705
106	0xbcd0eb47	-0.025502814
107	0x3dc4b009	0.096038885
108	0x3d5addd8	0.053434223
109	0xbd9d23b0	-0.076728225
110	0xbc46c741	-0.012132467
111	0x3c2583ae	0.010102196
112	0xbd9fe4dc	-0.07807323
113	0xbda5729b	-0.080785
114	0xbdc921c0	-0.098208904
115	0xbc417c92	-0.011809485
116	0xba3f1b8c	-0.00072901766
117	0xbd8c9621	-0.06864572
118	0xbd467ba7	-0.048457768
119	0x3c00f8d8	0.007871829
120	0x3dc5dc43	0.09661152
121	0x3de2330d	0.110448934
122	0x3d628ba2	0.055308945
123	0xbce5093a	-0.027958501
124	0x3ddf0cc6	0.10891108
125	0x3d1762ef	0.036959585
126	0xbd847c34	-0.06469002
127	0x3d5bd815	0.05367287
128	0x3c7f6ed2	0.015590386
129	0xbc9efe84	-0.019408472
130	0x3dabb136	0.0838341
131	0xbd81cd20	-0.063379526
132	0xbd9063a5	-0.07050256
133	0x3c9c78bb	0.019100538
134	0xbd57b151	-0.052659336
135	0x3c96d70b	0.018413087
136	0xbd4fe073	-0.05075116
137	0x3b07878f	0.0020680164
138	0xbcd13d48	-0.025541916
139	0x3d2d1188	0.042253047
140	0xbe22d572	-0.15901735
141	0xbe10d62b	-0.14144199
142	0xbe06ae99	-0.13152541
143	0xbdb1f865	-0.086899556
144	0x3c31012e	0.010803504
145	0x3cb5d678	0.022196993
146	0x3cd69736	0.02619515
147	0x3dc9ea89	0.09859187
148	0xbccdf95e	-0.025143322
149	0x3d852b15	0.06502358
150	0xbd480ce1	-0.048840407
151	0x3c2742c7	0.010208792
152	0xbdae5291	-0.08511842
153	0xbce45d57	-0.02787654
154	0xbd98ed20	-0.07467103
155	0x3c42e1be	0.011894641
156	0x3c60f468	0.013730146
157	0x3d1cf4bc	0.038319334
158	0xbd892461	-0.06696392
159	0xbd8e5274	-0.069493204
160	0xbdd16525	-0.1022437
161	0xbd952798	-0.072829425
162	0xbce66c0d	-0.028127695
163	0xbd933158	-0.07187146
164	0x3ca142b4	0.019685127
165	0xbc47c719	-0.012193465
166	0xbd752ded	-0.05985825
167	0x3d03e531	0.032200996
168	0xbca3daa6	-0.02000172
169	0xbd8737d9	-0.06602449
170	0x3d7d6810	0.06186682
171	0xbb3b23ce	-0.0028555277
172	0xbd17b0fb	-0.037034016
173	0x3de903c0	0.113776684
174	0x3c86bc0f	0.016447095
175	0xbc3abe46	-0.011397904
176	0xbd262f4e	-0.040572457
177	0xbd4112d9	-0.047137115
178	0x3c6f0316	0.014588138
179	0xbde50ed8	-0.11184472
180	0x3d3cb507	0.04607108
181	0x3dd556d9	0.104169555
182	0xbdaf3ac0	-0.085561275
183	0xbbf55182	-0.007486523
184	0x3cf51cd0	0.029920965
185	0xbde692e4	-0.11258486
186	0xb787bc16	-1.6180838e-05
187	0xbca02cdb	-0.019552639
188	0xbd81c0d1	-0.06335605
189	0x3cb8a758	0.022540733
190	0x3d8de1af	0.06927811
191	0xbd8520e2	-0.065004125
192	0x3ca13411	0.019678148
193	0xbd30d878	-0.04317519
194	0x3cf2852a	0.029604513
195	0x3d1249fa	0.03571508
196	0x3d849d23	0.06475284
197	0xbdc15827	-0.09440642
198	0x3c32959f	0.01089993
199	0xbd520568	-0.051274687
200	0xbc8db525	-0.01729829
201	0xbdec9aa6	-0.11552934
202	0xbc2b26ac	-0.010446232
203	0xbd9c65b6	-0.07636587
204	0xbddce532	-0.10785903
205	0xbd437831	-0.047722045
206	0xbda84272	-0.082157984
207	0xbde053b6	-0.109534666
208	0x3d95f991	0.07322992
209	0x3de1a7fa	0.11018367
210	0xbd564889	-0.05231527
211	0x3dff2f0d	0.12460146
212	0x3cff5b48	0.031171456
213	0xbdc07d77	-0.093989305
214	0x3db9b515	0.09067742
215	0xbdadfd3b	-0.084955655
216	0x3e0e4226	0.13892421
217	0xbcde8bd8	-0.027166292
218	0x3e0b1956	0.13583884
219	0xbc4527ea	-0.012033442
220	0xbe67408f	-0.22583221
221	0x3e051350	0.12995648
222	0xbd956e25	-0.07296399
223	0xbe47dfdb	-0.19518988
224	0xbe12e820	-0.14346361
225	0xbd172c61	-0.036907557
226	0xbdbda292	-0.092595235
227	0xbc7b5e0c	-0.015342247
228	0xbd941be2	-0.07231881
229	0xbdc93750	-0.09825003
230	0xbe072a38	-0.13199699
231	0xbe32eb5c	-0.17472595
232	0xbe11327e	-0.14179417
233	0xbcddb6ad	-0.027064646
234	0x3e2f55cf	0.17122577
235	0xba190c74	-0.00058383425
236	0xbd898a94	-0.06715885
237	0x3cbe35c5	0.023218999
238	0xbdaef1d6	-0.0854222
239	0xbdba808b	-0.09106549
240	0xbe6ece43	-0.2332087
241	0xbe2450b9	-0.16046418
242	0x3bb84cd7	0.0056243944
243	0x3bf1fab3	0.007384622
244	0x3d965eb3	0.07342281
245	0xbd84e6fd	-0.0648937
246	0x3cb4f8cb	0.02209129
247	0x3b0bce52	0.0021332693
248	0xbe045b8b	-0.12925546
249	0x3d787515	0.060658533
250	0xbcbfff80	-0.023437262
251	0x3c62e58e	0.013848675
252	0xbd115fe0	-0.035491824
253	0xbc9a4b7e	-0.018834826
254	0x3c2ae43f	0.010430395
255	0x3d69266e	0.056921415

Conv_BN_ReLU3.0.bias f4 [32]
0	0x3d428e58	0.04749903
1	0x3daae5d5	0.08344618
2	0xbcedd3b3	-0.02903161
3	0x3ce35248	0.027749196
4	0x3bf292ef	0.0074027698
5	0x3cf4e8ac	0.029896103
6	0xbd2d12f8	-0.042254418
7	0x3cabced1	0.020972641
8	0xbd690063	-0.056885134
9	0x3cdecb7c	0.027196638
10	0x3d221dcb	0.039579194
11	0x3d1741c0	0.03692794
12	0x3aa0287a	0.0012219094
13	0x3d67e313	0.05661304
14	0x3d414362	0.047183402
15	0xbcf402a3	-0.029786414
16	0xbcffc449	-0.031221526
17	0x3caaa07f	0.020828484
18	0x3d1717e4	0.03688802
19	0xbd2b8dbc	-0.041883215
20	0x3d801e2d	0.062557556
21	0x3a71311b	0.00092007377
22	0x3cea846e	0.0286276
23	0x3d6aa659	0.057287548
24	0xbcc537c5	-0.024074445
25	0xbc72f18f	-0.0148281
26	0x3d555d78	0.052091092
27	0xbd5a677d	-0.05332135
28	0x3d5d9ade	0.05410277
29	0x3d760458	0.060062736
30	0x3c7a6bcd	0.015284491
31	0xbd81b1f4	-0.0633277

Conv_BN_ReLU3.1.weight f4 [32]
0	0x3f83201e	1.0244176
1	0x3f711f03	0.94187945
2	0x3f78bdf9	0.97164875
3	0x3f7e567e	0.99350727
4	0x3f7a3869	0.97742325
5	0x3f85c040	1.0449295
6	0x3f8609fe	1.0471799
7	0x3f767b9a	0.9628235
8	0x3f809823	1.0046428
9	0x3f648439	0.89264256
10	0x3f6e5e9c	0.9311311
11	0x3f7e7c01	0.99407965
12	0x3f8398f2	1.028105
13	0x3f8a3941	1.0798723
14	0x3f7371ab	0.9509532
15	0x3f803059	1.0014755
16	0x3f8dc430	1.1075497
17	0x3f735003	0.95043963
18	0x3f7b9cda	0.9828621
19	0x3f77529d	0.9661043
20	0x3f726812	0.9469005
21	0x3f83d291	1.0298635
22	0x3f8081a3	1.0039562
23	0x3f83d647	1.0299767
24	0x3f72d20e	0.9485177
25	0x3f8088a6	1.0041702
26	0x3f87d588	1.061204
27	0x3f82e8c1	1.0227281
28	0x3f752602	0.9576112
29	0x3f715fba	0.9428669
30	0x3f7df414	0.9920056
31	0x3f7c8d91	0.98653513

Conv_BN_ReLU3.1.bias f4 [32]
0	0xbdd2da95	-0.102955975
1	0xbea3b99b	-0.31977543
2	0xbe906258	-0.2820003
3	0xbe2971d9	-0.16547336
4	0xbe36036c	-0.17774743
5	0xbe5b9e38	-0.21447074
6	0xbe62aca0	-0.22136164
7	0xbe909b49	-0.28243473
8	0xbe71344d	-0.23555107
9	0xbe1035ca	-0.14083019
10	0xbe4f0245	-0.2021571
11	0xbe826b05	-0.25472274
12	0xbe100a68	-0.1406647
13	0xbe384283	-0.17994122
14	0xbea799f5	-0.32734647
15	0xbde46b0d	-0.11153231
16	0xbcad8bde	-0.021184858
17	0xbe8f67a6	-0.28008765
18	0xbe61ceac	-0.22051495
19	0xbe2d17fd	-0.16903682
20	0xbe6c8f96	-0.23101649
21	0xbe64791e	-0.22311828
22	0xbe82c061	-0.25537398
23	0xbe2b897b	-0.16751663
24	0xbdf4bded	-0.11950288
25	0xbe88b657	-0.26701614
26	0xbe308209	-0.17237104
27	0xbe59e26e	-0.21277782
28	0xbdde703b	-0.1086125
29	0xbe151e9e	-0.14562461
30	0xbe4564b8	-0.19276702
31	0xbe12a51e	-0.143208

Conv_BN_ReLU3.1.running_mean f4 [32]
0	0xbfa06e61	-1.2533685
1	0x400c45f0	2.1917686
2	0x3d86aa29	0.06575424
3	0xbe031fe3	-0.12805133
4	0xbfac935d	-1.3482472
5	0x3e6fca71	0.23417069
6	0xbea349f2	-0.31892353
7	0x3f91a900	1.13797
8	0xbfbc110f	-1.4692706
9	0x3f62e8a0	0.8863621
10	0xbf8137e7	-1.0095185
11	0x3f0a41ae	0.5400647
12	0xbead3745	-0.3383123
13	0x3e4e70ea	0.20160261
14	0x3f2a59c5	0.6654323
15	0x3e3bab30	0.18327022
16	0xbf8bb916	-1.0915859
17	0x3c52c161	0.012863488
18	0xbe387472	-0.1801317
19	0x3ee4f1fe	0.44715875
20	0x3f4b2b1c	0.79362655
21	0x3ed3d275	0.41371503
22	0x3f340f85	0.7033618
23	0xbf2b43d7	-0.6690039
24	0xbe1b9e8d	-0.15197201
25	0x3e5dc24e	0.21656153
26	0xbe49c995	-0.19705804
27	0x3e729254	0.23688632
28	0x3dd91d07	0.1060124
29	0xbf6fd603	-0.9368593
30	0xbd9259bc	-0.07146022
31	0xbf332995	-0.69985324

Conv_BN_ReLU3.1.running_var f4 [32]
0	0x3f9f466b	1.2443365
1	0x3f6dace5	0.9284194
2	0x3f1917ec	0.59802127
3	0x3f636deb	0.88839597
4	0x3f54d240	0.83133316
5	0x3f332840	0.6998329
6	0x3f253f5f	0.6454982
7	0x3f14346c	0.5789249
8	0x3f726739	0.94688755
9	0x3f50b7c7	0.8153042
10	0x3f2ff644	0.68735147
11	0x3f45e34f	0.7729997
12	0x3f2c70ae	0.67359436
13	0x3f2ab1a6	0.6667732
14	0x3f1e56b9	0.6185108
15	0x3f254be2	0.64568913
16	0x3f396f0e	0.7243508
17	0x3f47452a	0.7783991
18	0x3f1cd4d0	0.61262226
19	0x3f43a1f5	0.76419
20	0x3f246aa7	0.6422524
21	0x3f370281	0.71488196
22	0x3f38b6b6	0.72153795
23	0x3f804555	1.0021158
24	0x3f317b3f	0.69328684
25	0x3f45a77c	0.77208686
26	0x3f32059b	0.69539803
27	0x3f4ebb58	0.80754614
28	0x3f485434	0.78253484
29	0x3f3f4ecc	0.7472961
30	0x3f2f4ab1	0.68473345
31	0x3f192b43	0.5983164
