CA04/checkpoints/checkpoint.pth (torch, 707509 bytes, 143 tensors)

Conv_BN_ReLU1.0.weight f4 [16, 3, 3, 3]
-0.01712566 0.19112873 0.07506837 -0.023120034 -0.1627802 0.19616196 0.13122943 0.011773694
0.041782305 -0.06940937 0.0806642 0.06927374 -0.18949485 -0.15514351 0.026703946 -0.0605221
0.16471866 -0.13777661 0.0018469368 0.07407991 0.060949247 0.112117074 -0.24024439 -0.114297315
-0.18057725 -0.004196076 0.0954714 -0.14131609 -0.17051831 -0.15512638 0.12545814 0.020812275
0.07120865 -0.14055371 -0.17021804 0.1368584 0.1752696 -0.1082235 0.16128038 0.03831953
0.1287714 0.0513467 0.003060984 0.12188172 -0.12420424 0.14947349 -0.13481367 -0.0059176423
0.09419053 -0.058219127 0.088023335 -0.056623943 0.018218804 -0.12795606 -0.14663976 -0.079594344
-0.00091372326 -0.14154662 -0.073855676 -0.05303998 0.085147694 0.22541197 -0.0324633 0.051687893
0.017605513 -0.008524497 -0.18369032 0.038531885 -0.15929087 -0.006507866 0.13248743 0.022785772
0.04221691 -0.044483397 -0.07781093 -0.12237795 0.12067876 -0.0365262 0.07718695 -0.118043445
-0.15035903 0.10959743 0.13637236 -0.1444641 0.23840965 -0.14057852 -0.039783053 -0.11217747
0.10809172 0.02071373 -0.16176498 -0.10957759 0.12195138 -0.23440811 -0.045298 0.014462381
0.0680736 0.15816194 0.028073804 0.13179414 -0.015641632 -0.065964006 -0.10385813 0.17866975
-0.015507986 -0.17102303 -0.13776487 -0.02015767 -0.12234216 -0.036322758 -0.13055156 -0.050115366
0.12846705 -0.16151278 0.24554388 0.17062977 0.005097826 -0.01949645 -0.08678412 0.07164109
-0.11106834 -0.16322152 -0.01723912 0.06437871 0.06476395 -0.078693725 -0.19790727 0.07160152
0.20348018 0.051453263 -0.094391674 0.13197799 0.12337695 0.054727603 -0.11401207 -0.08397933
-0.13688822 0.03003824 0.086806126 -0.17120945 -0.11764787 0.017387532 -0.21446142 0.17149898
0.050979212 -0.15527992 0.12918952 -0.06123832 0.06958124 -0.06808593 -0.14686376 -0.03691508
0.18972772 0.03492817 0.062172674 -0.023947738 -0.014355222 0.13641316 0.0801219 0.14744228
-0.12643689 0.13953693 -0.05269876 -0.12314844 -0.15125096 0.0033581355 0.00855957 0.21603313
-0.06846077 -0.01792967 0.19946116 -0.0415128 0.044700447 -0.18908577 0.15579861 0.077022865
-0.076497614 0.030546663 0.13925359 -0.14904323 -0.029723119 -0.16417615 -0.015270934 -0.087070264
0.21223536 0.021230582 0.02363728 -0.1273857 -0.079626985 -0.026813036 0.16449276 0.09604298
0.018703016 -0.00076156383 -0.05435585 -0.09044177 0.056237817 0.09375562 -0.22363023 -0.1196621
0.02974345 0.037500534 0.10653683 -0.20234632 -0.21867487 -0.03322573 -0.0916769 -0.11789361
0.030601287 -0.24012855 -0.14286731 0.20533174 0.10483956 -0.16044872 -0.13701062 0.12851351
-0.10822301 -0.13702874 -0.04881905 0.09320557 0.064897865 0.18174681 0.089469165 -0.036372133
-0.19388993 -0.027658025 0.023654895 -0.18661076 -0.014789554 0.18227722 -0.26084182 0.02843235
0.039141625 0.06980616 0.121667 -0.13657646 -0.1805051 -0.080798864 0.028843125 -0.15722182
0.07701063 0.10442171 -0.08732792 0.101099014 -0.1368103 -0.13383062 0.033005744 -0.01133533
0.18273525 -0.050690915 -0.06268526 -0.1267013 0.1753163 0.16320497 0.093337245 0.09825194
00000000: 1d4b 8cbc 40b7 433e 72bd 993d 3a66 bdbc
00000010: daaf 26be aede 483e 0261 063e 74e6 403c
00000020: ec23 2b3d 8026 8ebd 4633 a53d 64df 8d3d
00000030: f00a 42be f1dd 1ebe 3cc2 da3c 06e6 77bd
00000040: 02ac 283e 5015 0dbe ea14 f23a 35b7 973d
00000050: eba5 793d a39d e53d a002 76be b614 eabd
00000060: 3ee9 38be 3d7f 89bb 8286 c33d 2ab5 10be
00000070: 5a9c 2ebe 73d9 1ebe 1978 003e 817e aa3c
00000080: d7d5 913d 50ed 0fbe a34d 2ebe 9c24 0c3e
00000090: e079 333e 48a4 ddbd af26 253e f1f4 1c3d
000000a0: a6dc 033e eb50 523d ca9a 483b 209d f93d
000000b0: cb5e febd 940f 193e 980c 0abe c8e8 c1bb
000000c0: f7e6 c03d 2e77 6ebd 9445 b43d 82ee 67bd
000000d0: 9a3f 953c ea06 03be bc28 16be 5c02 a3bd
000000e0: ee86 6fba 99f1 10be a541 97bd 7340 59bd
000000f0: ea61 ae3d 65d2 663e 3df8 04bd afb6 533d
00000100: 7039 903c 55aa 0bbc 5119 3cbe 9cd3 1d3d
00000110: 251d 23be f03f d5bb c9aa 073e 3aa9 ba3c
00000120: a3eb 2c3d 3934 36bd 565b 9fbd 4aa1 fabd
00000130: 6d26 f73d 7f9c 15bd 3114 9e3d c3c0 f1bd
00000140: b8f7 19be 9e74 e03d 32a5 0b3e 66ee 13be
00000150: a921 743e d1f3 0fbe 8ef3 22bd 4dbd e5bd
00000160: 315f dd3d d7af a93c b8a5 25be 376a e0bd
00000170: a5c1 f93d ae08 70be 658a 39bd 9ff3 6c3c
00000180: 2c6a 8b3d 34f5 213e 09fb e53c 0bf5 063e
00000190: e122 80bc 2318 87bd 92b3 d4bd 34f5 363e
000001a0: 3515 7ebc a920 2fbe 3c12 0dbe b321 a5bc
000001b0: 878e fabd 2cc7 14bd 4faf 05be c545 4dbd
000001c0: de8c 033e 9b63 25be db6f 7b3e 92b9 2e3e
000001d0: aa0b a73b 05b7 9fbc dfbb b1bd 90b8 923d
000001e0: cc77 e3bd 8b23 27be 0e39 8dbc fcd8 833d
000001f0: f6a2 843d 2d2a a1bd 34a8 4abe d1a3 923d
00000200: 1c5d 503e a8c0 523d 6c50 c1bd 3d25 073e
00000210: 0ead fc3d 0d2a 603d 297f e9bd 5bfd abbd
00000220: 6d2c 0cbe c112 f63c 69c7 b13d 8851 2fbe
00000230: 5ef1 f0bd 4c70 8e3c c69b 5bbe 6e9d 2f3e
00000240: 94cf 503d b301 1fbe 424a 043e 08d5 7abd
00000250: 9c80 8e3d a370 8bbd 7463 16be 4434 17bd
00000260: fc47 423e d710 0f3d c6a8 7e3d 0c2e c4bc
00000270: 2a32 6bbc e4af 0b3e f316 a43d 1cfb 163e
00000280: ac78 01be c5e2 0e3e a8da 57bd 4035 fcbd
00000290: 88e1 1abe 2a14 5c3b 703d 0c3c ca37 5d3e
000002a0: 2935 8cbd 3ee1 92bc 8c3f 4c3e 5309 2abd
000002b0: d117 373d b39f 41be ac89 1f3e 2abe 9d3d
000002c0: c8aa 9cbd ff3c fa3c 7e98 0e3e ca9e 18be
000002d0: e67d f3bc cb1d 28be f132 7abc e551 b2bd
000002e0: 3a54 593e c2eb ad3c f8a2 c13c 6671 02be
000002f0: 7913 a3bd 03a7 dbbc ca70 283e 2fb2 c43d
00000300: 1137 993c afa3 47ba 3da4 5ebd 8939 b9bd
00000310: a059 663d f202 c03d 53ff 64be 6711 f5bd
00000320: 89a8 f33c 299a 193d fb2f da3d e033 4fbe
00000330: 4eec 5fbe b417 08bd 19c1 bbbd 3472 f1bd
00000340: 8daf fa3c 42e4 75be cf4b 12be 7c42 523e
00000350: 20b6 d63d ab4c 24be 834c 0cbe 0c99 033e
00000360: 07a4 ddbd 4351 0cbe 7cf6 47bd 90e2 be3d
00000370: 2ce9 843d d61b 3a3e 9c3b b73d f2fa 14bd
00000380: 158b 46be 1593 e2bc e9c7 c13c e416 3fbe
00000390: e34f 72bc e1a6 3a3e 0f8d 85be f6ea e83c
000003a0: f852 203d 88f6 8e3d 8c2c f93d b3da 0bbe
000003b0: 54d6 38be e079 a5bd 6b48 ec3c c2fe 20be
000003c0: c0b7 9d3d 0ddb d53d fbd8 b2bd 000d cf3d
000003d0: 0018 0cbe e50a 09be 0831 073d d2b7 39bc
000003e0: f31e 3b3e 47a1 4fbd 2161 80bd fcbd 01be
000003f0: 1e86 333e 341f 273e 9927 bf3d 5038 c93d

Conv_BN_ReLU1.0.bias f4 [16]
0.14036779 -0.17457068 -0.109476194 0.004492864 0.12857136 -0.11292514 0.08430353 -0.20046483
-0.015470137 0.077447385 0.1913604 0.13703807 0.022579962 -0.0793268 0.10328537 0.03419131
00000000: 93bc 0f3e a8c2 32be 0e35 e0bd e038 933b
00000010: 36a8 033e 4c45 e7bd 54a7 ac3d a746 4dbe
00000020: 7576 7dbc bc9c 9e3d fbf3 433e b553 0c3e
00000030: 9df9 b83c 1776 a2bd 4887 d33d 300c 0c3d

Conv_BN_ReLU1.1.weight f4 [16]
1.0244215 1.0882285 0.9648688 0.9686665 1.1228231 1.0817575 0.99283993 0.96522385
0.94616145 0.9555942 0.9782565 0.9794391 0.9319407 0.96534944 1.0795621 0.97087854
00000000: 3e20 833f 124b 8b3f a401 773f 87fa 773f
00000010: abb8 8f3f 0877 8a3f c22a 7e3f e918 773f
00000020: a337 723f d2a1 743f 056f 7a3f 85bc 7a3f
00000030: aa93 6e3f 2421 773f 172f 8a3f 7f8b 783f

Conv_BN_ReLU1.1.bias f4 [16]
0.24708636 0.13175799 -0.0061256676 0.060598865 0.13979846 -0.047883254 -0.04532464 -0.04803129
-0.024430884 -0.07708322 0.11320872 -0.10695408 -0.0913603 -0.12908925 -0.039829277 -0.024334773
00000000: 3504 7d3e 91eb 063e d3b9 c8bb 8436 783d
00000010: 5427 0f3e 3b21 44bd 54a6 39bd 75bc 44bd
00000020: 4723 c8bc cfdd 9dbd f9d9 e73d be0a dbbd
00000030: 1c1b bbbd f92f 04be 0624 23bd b859 c7bc

Conv_BN_ReLU1.1.running_mean f4 [16]
0.12127928 -0.17668477 -0.37376404 -0.07613271 0.12907265 -0.13724118 -0.01137809 -0.53748107
-0.23480116 -0.07250831 0.20571917 0.33522373 -0.11545286 -0.27926958 0.08156074 -0.054332875
00000000: 4561 f83d daec 34be 005e bfbe 77eb 9bbd
00000010: 9f2b 043e f488 0cbe 2b6b 3abc 5c98 09bf
00000020: b76f 70be 3d7f 94bd 0ca8 523e 72a2 ab3e
00000030: 8d72 ecbd 6cfc 8ebe 5109 a73d 268c 5ebd

Conv_BN_ReLU1.1.running_var f4 [16]
0.0065968656 0.0044722315 0.024575716 0.0030328901 0.0067048147 0.006410117 0.007690448 0.03663706
0.023808135 0.015209326 0.0015558408 0.018271612 0.012385249 0.019130545 0.0034038965 0.004037749
00000000: 852a d83b cc8b 923b 0353 c93c 74c3 463b
00000010: 10b4 db3b f50b d23b 2700 fc3b be10 163d
00000020: 4709 c33c 8930 793c 5bed cb3a 59ae 953c
00000030: 80eb 4a3c a9b7 9c3c e813 5f3b 184f 843b

Conv_BN_ReLU1.3.weight f4 [16, 16, 3, 3]
-0.0005166237 0.012432904 0.032138206 -0.093252204 0.08491696 -0.038444392 0.011266314 -0.056762975
0.040657435 -0.061529066 0.08584698 0.07608312 -0.09996331 0.023968408 -0.08372373 -0.11382409
0.066490844 -0.05701996 0.021212231 0.07733029 0.043302216 -0.048373595 0.0749907 0.13265674
-0.08630849 0.05795198 0.10914928 0.047282826 -0.047931522 0.018469717 0.055946585 0.11510019
-0.091233686 -0.0028996337 0.1578574 -0.005900228 -0.036115095 0.11593648 0.053237796 -0.05166278
-0.044329375 -0.013616287 0.034828655 0.04101786 0.021599134 0.027938662 0.07457297 0.0274092
-0.027678274 -0.04956908 -0.035932027 0.08936776 -0.13390669 0.047041308 0.059169017 0.12570767
0.035941605 -0.05186521 0.08140052 0.1007182 0.02003722 0.0819361 0.0480276 -0.10566304
0.030529737 -0.0032966072 -0.025046704 -0.026475456 -0.0129633965 -0.029944623 -0.024234198 0.023632215
0.045879558 -0.004488469 -0.054414246 0.08168415 0.11012171 -0.0011958044 -0.008087719 0.042208757
-0.044064056 -0.023170466 0.06454053 0.017115783 -0.06746618 0.08757039 0.020540895 0.021797908
0.08017438 0.03396571 0.08489921 -0.091628164 0.13942382 -0.024696747 0.027659712 -0.11612852
-0.0077984054 0.019337315 -0.041404407 0.050959032 -0.060951594 0.048319273 0.03320667 -0.016629424
-0.024419544 -0.0930518 0.019167101 -0.13251638 -0.005290626 0.08618194 -0.023760473 0.034049936
0.06183928 -0.027493978 -0.058104564 -0.018182779 -0.0069215638 -0.045074593 0.14152527 0.090228125
0.039645076 -0.06337119 0.009382193 -0.033415303 -0.09759693 -0.10197838 -0.045257345 0.06412022
0.08257642 -0.11005533 0.02978582 -0.01964133 0.09107858 -0.0711157 -0.067048825 0.031668954
-0.03744818 0.078961216 -0.033412978 0.003301925 -0.014285739 -0.07246976 0.07392199 0.05263962
-0.040766343 -0.058234025 -0.00941292 0.0017670866 -0.082277656 0.06148612 0.009798735 -0.13905779
0.033894934 -0.07255107 0.038805783 -0.0049275695 -0.16375849 -0.05136178 -0.060318768 0.045778405
-0.040644832 0.1412881 0.07715106 0.0067975945 -0.030628981 0.039644446 -0.008033611 0.03985427
0.03567067 -0.07015541 -0.0713832 0.03556501 -0.04661913 0.046339117 0.041766644 -0.09346382
-0.04264169 0.021451788 -0.1082698 -0.023167731 -0.042142276 -0.030541178 -0.035331376 0.05775073
-0.036424737 0.046650667 0.00945496 -0.098952755 0.02668765 -0.06310661 0.05894328 -0.097184554
0.011585104 0.07956579 -0.058178164 0.036459934 0.067916416 -0.084396735 -0.008926482 0.048793778
-0.039812878 0.03690124 -0.12648751 -0.06906314 0.034138665 0.04707478 0.056098405 0.081116505
-0.07614521 0.022825975 0.0428574 -0.07363101 -0.0030176088 0.06697189 -0.06582171 0.010880655
0.046687838 -0.020755034 -0.044050172 -0.056912713 -0.0036114957 0.04565824 0.054310836 0.048205752
-0.00740273 -0.07904348 0.031748455 0.035810217 0.0042282958 -0.05926292 0.025196956 0.08449518
0.04581938 0.03778149 -0.009790989 0.0011026985 -0.05757305 0.030620864 -0.06805243 0.05350792
-0.11872464 -0.08392675 0.012434906 0.051635772 -0.033158235 -0.09053941 0.07418863 -0.0077136136
0.0035388283 -0.012050078 0.07104006 -0.020666044 0.05758866 0.070192374 0.043354332 0.07444572
00000000: 086e 07ba 61b3 4b3c 5aa3 033d 03fb bebd
00000010: f1e8 ad3d de77 1dbd 5996 383c 4b80 68bd
00000020: 6988 263d e705 7cbd 8bd0 af3d 78d1 9b3d
00000030: 90b9 ccbd 6559 c43c 5977 abbd 9b1c e9bd
00000040: 5a2c 883d c38d 69bd 46c5 ad3c 585f 9e3d
00000050: aa5d 313d 6423 46bd b994 993d 2bd7 073e
00000060: 81c2 b0bd 0e5f 6d3d a889 df3d a3ab 413d
00000070: d853 44bd ce4d 973c 3f28 653d a6b9 eb3d
00000080: bad8 babd c807 3ebb 5fa5 213e b356 c1bb
00000090: 6ced 13bd 1b70 ed3d e00f 5a3d 5a9c 53bd
000000a0: b892 35bd d916 5fbc 7ea8 0e3d 5802 283d
000000b0: abf0 b03c 9fdf e43c b7b9 983d 4289 e03c
000000c0: 8cbd e2bc f308 4bbd 762d 13bd 7206 b73d
000000d0: d61e 09be 63ae 403d 365b 723d 83b9 003e
000000e0: 8137 133d 9d70 54bd 51b5 a63d 5845 ce3d
000000f0: 1925 a43c 1dce a73d 97b8 443d dd65 d8bd
00000100: 8019 fa3c e40b 58bb bf2e cdbc 0ee3 d8bc
00000110: 6d64 54bc 6d4e f5bc cc86 c6bc 5998 c13c
00000120: 34ec 3b3d 0214 93bb 79e1 5ebd 054a a73d
00000130: 7e87 e13d 8abc 9cba 5a82 04bc 17e3 2c3d
00000140: 837c 34bd fdcf bdbc d32d 843d 6636 8c3c
00000150: b52b 8abd 1b58 b33d 6145 a83c 8791 b23c
00000160: 7732 a43d a11f 0b3d a3df ad3d 8ca7 bbbd
00000170: 1ec5 0e3e d550 cabc 9f96 e23c cad4 edbd
00000180: c489 ffbb 4a69 9e3c ab97 29bd 6bba 503d
00000190: 61a8 79bd 6eea 453d b803 083d 6e3a 88bc
000001a0: 7f0b c8bc f191 bebd 5304 9d3c 60b2 07be
000001b0: fd5c adbb 2880 b03d 53a5 c2bc f277 0b3d
000001c0: 2f4b 7d3d 0d3b e1bc 0dff 6dbd 0df4 94bc
000001d0: 49ce e2bb 23a0 38bd 00ec 103e 86c9 b83d
000001e0: e062 223d c1c8 81bd c5b7 193c 7cde 08bd
000001f0: e6e0 c7bd 0ada d0bd c45f 39bd 7651 833d
00000200: d31d a93d b064 e1bd 6401 f43c dbe6 a0bc
00000210: 6887 ba3d 1ca5 91bd e550 89bd 4eb7 013d
00000220: 4363 19bd 6bb6 a13d 0cdc 08bd 1c65 583b
00000230: bb0e 6abc 076b 94bd 6a64 973d a49c 573d
00000240: 9cfa 26bd cd86 6ebd a638 1abc 969d e73a
00000250: 3081 a8bd dfd8 7b3d e08a 203c 2a65 0ebe
00000260: 6ad5 0a3d a895 94bd d0f2 1e3d 7377 a1bb
00000270: 4eb0 27be bb60 52bd d010 77bd 2382 3b3d
00000280: 327b 26bd d4ad 103e 6001 9e3d 5bbe de3b
00000290: a1e9 fabc 3762 223d 689f 03bc 3b3e 233d
000002a0: 691b 123d a4ad 8fbd 5b31 92bd 9eac 113d
000002b0: b3f3 3ebd 16ce 3d3d 8013 2b3d f669 bfbd
000002c0: 0da9 2ebd a9bb af3c 8fbc ddbd 41ca bdbc
000002d0: 619d 2cbd 7e31 fabc a2b7 10bd 088c 6c3d
000002e0: 1b32 15bd c514 3f3d fae8 1a3c bea7 cabd
000002f0: 0fa0 da3c 0a3e 81bd 826e 713d b208 c7bd
00000300: 73cf 3d3c 64f3 a23d 3a4c 6ebd 0357 153d
00000310: c317 8b3d 32d8 acbd 6140 12bc fcdb 473d
00000320: d412 23bd c125 173d f185 01be fa70 8dbd
00000330: fcd4 0b3d 7cd1 403d 71c7 653d 6920 a63d
00000340: 05f2 9bbd 8afd ba3c 3e8b 2f3d dbcb 96bd
00000350: 13c3 45bb 8f28 893d 88cd 86bd c644 323c
00000360: bf3b 3f3d 7606 aabc f46d 34bd 4e1d 69bd
00000370: d8ae 6cbb 2204 3b3d 0a75 5e3d 6573 453d
00000380: 9a92 f2bb 8ce1 a1bd ab0a 023d bcad 123d
00000390: 848d 8a3b adbd 72bd d969 ce3c cf0b ad3d
000003a0: 1aad 3b3d c3c0 1a3d 626a 20bc 6c88 903a
000003b0: b8d1 6bbd 9bd8 fa3c 135f 8bbd 1f2b 5b3d
000003c0: e725 f3bd cae1 abbd c7bb 4b3c 0880 533d
000003d0: eed0 07bd ba6c b9bd 35f0 973d 7bc2 fcbb
000003e0: b0eb 673b b16d 45bc 737d 913d d64b a9bc
000003f0: 16e2 6b3d 05c1 8f3d 5094 313d ff76 983d

Conv_BN_ReLU1.3.bias f4 [16]
0.07042487 -0.06304991 0.107158504 -0.08412977 0.0002930796 -0.02824987 0.029609129 -0.0013063297
0.029207109 0.038487617 0.046125714 0.0005622773 0.075634465 -0.025404843 0.011648475 -0.05315571
00000000: ea3a 903d 5020 81bd eb75 db3d 3b4c acbd
00000010: 7aa8 9939 456c e7bc d88e f23c 2739 abba
00000020: bf43 ef3c 31a5 1d3d 51ee 3c3d ca65 133a
00000030: 3ee6 9a3d d11d d0bc 3fd9 3e3c cdb9 59bd

Conv_BN_ReLU1.4.weight f4 [16]
0.9448942 1.0199475 0.90983593 1.0387313 1.0237272 1.0026598 1.0013093 0.9480585
0.97965187 0.967089 1.0368226 1.02826 1.0321147 0.9923689 0.9348031 1.0361358
00000000: 96e4 713f a48d 823f 02eb 683f 26f5 843f
00000010: 7e09 833f 2857 803f e72a 803f f6b3 723f
00000020: 77ca 7a3f 2593 773f 9ab6 843f 069e 833f
00000030: 561c 843f e30b 7e3f 424f 6f3f 19a0 843f

Conv_BN_ReLU1.4.bias f4 [16]
-0.03728379 -0.029019281 -0.17465082 0.05096282 0.0078317365 -0.0026170418 -0.104014896 -0.0434758
-0.103635065 0.013422067 0.047102302 -0.063036144 -0.06488043 -0.09484126 0.0053502144 0.018153762
00000000: e3b6 18bd d8b9 edbc aad7 32be 64be 503d
00000010: af50 003c ad82 2bbb c305 d5bd ae13 32bd
00000020: 9f3e d4bd 3be8 5b3c 58ee 403d 1819 81bd
00000030: 08e0 84bd 223c c2bd da50 af3b 33b7 943c

Conv_BN_ReLU1.4.running_mean f4 [16]
0.515161 -0.53944534 -0.193192 -0.21429199 -0.60884 -0.4943551 -0.12221051 0.22165482
-0.17469166 -0.19298995 -0.27815 -0.17089334 0.26147723 0.42306945 0.015578626 -0.6653109
00000000: 97e1 033f 1719 0abf 20d4 45be 5c6f 5bbe
00000010: f0dc 1bbf 1d1c fdbe 8149 fabd 7bf9 623e
00000020: 5fe2 32be 289f 45be ad69 8ebe aafe 2ebe
00000030: 58e0 853e 8f9c d83e 7e3d 7f3c d151 2abf

Conv_BN_ReLU1.4.running_var f4 [16]
0.39944836 0.2853784 0.21585059 0.36062178 0.39084443 0.36798275 0.36926425 0.3288216
0.1844144 0.1900623 0.43416345 0.39848143 0.17840439 0.43644255 0.2234738 0.41993532
00000000: 7f84 cc3e 1e1d 923e f007 5d3e 6ba3 b83e
00000010: c31c c83e 3c68 bc3e 3410 bd3e 4e5b a83e
00000020: 21d7 3c3e b19f 423e ac4a de3e c205 cc3e
00000030: a4af 363e 6675 df3e 51d6 643e c301 d73e

Conv_BN_ReLU2.0.weight f4 [32, 16, 3, 3]
-0.08369885 0.084134206 0.036250897 -0.10873714 -0.0095740855 -0.037910473 0.105599456 0.02149919
-0.00074441335 0.0069629657 0.06677051 0.07582203 -0.018109733 -0.11282688 0.15965384 -0.07234927
-0.06536434 -0.026704676 0.08625061 -0.046578232 0.02729989 -0.019739954 0.05111008 -0.07600156
-0.065782934 0.033324465 -0.028270857 -0.03152841 -0.03304191 -0.10983073 0.021294942 -0.03549191
-0.01112544 0.12755843 0.042772774 0.0347756 -0.016917557 0.078208424 0.0686042 -0.01473553
0.028533395 0.073042266 -0.11136012 -0.018085293 -0.022393793 -0.07611677 -0.08128026 -0.020565344
0.067306034 0.054706473 0.044370435 0.021349028 0.042984188 0.034378164 -0.085207745 0.010519465
-0.028984701 0.025285555 -0.11474144 0.0012803217 -0.019378271 0.030528096 -0.11118991 0.03511565
0.029130805 0.02967553 0.04284889 -0.060038235 0.12393149 -0.049168166 0.07353507 -0.08641337
0.048725747 -0.020612568 -0.035709243 -0.05862639 -0.013046701 -0.04047142 0.077243276 0.08299191
0.07926028 0.09585349 -0.07673923 0.12224127 0.06934639 0.062494487 -0.10534524 -0.060485393
0.048149 -0.11663656 0.0012638208 -0.020502312 0.015043936 0.08919824 0.02187645 0.0037744872
0.1345638 0.06226731 -0.05698101 -0.050715458 -0.06459774 0.009373778 -0.040240306 0.07452796
0.02191137 -0.11838758 0.026344145 -0.004990734 0.029158873 -0.028967174 0.0037402993 0.070530295
-0.16063036 -0.06908302 0.050010066 -0.07939351 0.01152745 -0.055362307 0.014428444 0.086983524
-0.133627 -0.014024676 -0.025214275 0.06341769 0.11620445 -0.061465498 0.015291838 -0.03691827
-0.052164007 -0.028699674 0.019596932 0.044696655 0.014546189 0.03870661 0.064664274 0.0747318
0.013150323 -0.005124633 -0.02381767 0.08944741 0.0980017 -0.06569639 -0.06830278 0.11656183
-0.038594652 -0.030790946 0.049515806 -0.05470594 0.053994153 0.0074150288 -0.07979851 0.011507591
-0.019077284 0.003501117 -0.001089981 0.053893723 -0.039870664 0.03825708 0.063142516 -0.06157662
-0.011897403 0.024230631 0.0017806651 0.081181444 -0.037416536 0.10858825 -0.01351003 0.032147143
-0.00729605 0.029591134 0.00587532 -0.011134527 0.046500538 -0.0073494343 0.009992539 -0.020747788
0.016428847 -0.06352982 -0.06267804 -0.049516603 -0.06067792 -0.12766546 -0.085599504 0.02749015
-0.04065815 0.058175117 -0.112330906 -0.07134519 -0.06981862 0.06327007 0.0566426 0.083289325
0.0077343024 -0.027933655 0.014129606 -0.0013688463 0.096370086 -0.01354421 0.0880266 0.08355999
0.117651746 -0.0633322 0.07356914 -0.10267327 -0.052960943 0.050076857 -0.020636158 -0.02191947
-0.003946489 -0.063001595 -0.062268447 -0.0077957846 0.036916193 0.048717912 -0.09913034 0.0442448
-0.07519759 0.027171468 -0.007655977 -0.007905619 0.06304523 0.003515396 -0.009496934 -0.0038165809
-0.043834955 0.069918185 -0.12146503 -0.021444218 0.08363997 -0.122227445 -0.032810785 0.03253628
-0.12131969 -0.13712126 -0.021917578 -0.091391474 0.021503065 -0.06411371 -0.04655558 -0.072067864
-0.06459312 -0.044882886 -0.07697385 -0.14412428 -0.07702468 -0.043698568 -0.068823636 -0.017362775
0.070578486 -0.10634351 0.020430787 -0.06196193 0.06489621 0.02169012 -0.06852993 -0.056546766
00000000: 4d6a abbd 8e4e ac3d d27b 143d 94b1 debd
00000010: a0dc 1cbc 0348 1bbd 8744 d83d 121f b03c
00000020: bc24 43ba 9729 e43b fabe 883d 9548 9b3d
00000030: dd5a 94bc c711 e7bd 4c7c 233e db2b 94bd
00000040: bddd 85bd c4c3 dabc 29a4 b03d d1c8 3ebd
00000050: 05a4 df3c afb5 a1bc ce58 513d b5a6 9bbd
00000060: 34b9 86bd 3c7f 083d 4998 e7bc ef23 01bd
00000070: f456 07bd efee e0bd bb72 ae3c f75f 11bd
00000080: 7a47 36bc ad9e 023e 8132 2f3d dc70 0e3d
00000090: b096 8abc bd2b a03d 5c80 8c3d 4b6d 71bc
000000a0: debe e93c 2f97 953d c610 e4bd 9c27 94bc
000000b0: 3073 b7bc 1ce3 9bbd 4476 a6bd a778 a8bc
000000c0: bfd7 893d e513 603d c6bd 353d 28e4 ae3c
000000d0: 3010 303d 1ed0 0c3d 6681 aebd d659 2c3c
000000e0: 5371 edbc a723 cf3c 8ffd eabd 78d0 a73a
000000f0: 2ebf 9ebc 0f16 fa3c 89b7 e3bd 6ed5 0f3d
00000100: baa3 ee3c 191a f33c 5182 2f3d a7ea 75bd
00000110: cbcf fd3d 8f64 49bd 8e99 963d 7ef9 b0bd
00000120: a694 473d b0db a8bc db43 12bd 3a22 70bd
00000130: d5c1 55bc 5cc5 25bd b931 9e3d aaf7 a93d
00000140: 3753 a23d d64e c43d 7529 9dbd a259 fa3d
00000150: 7b05 8e3d 38fa 7f3d 3fbf d7bd 88bf 77bd
00000160: e337 453d 26df eebd caa6 a53a 77f4 a7bc
00000170: d77a 763c 91ad b63d 3e36 b33c 635d 773b
00000180: 18cb 093e 020c 7f3d eb64 69bd 03bb 4fbd
00000190: d24b 84bd 7994 193c 05d3 24bd 1da2 983d
000001a0: 797f b33c 3075 f2bd adcf d73c 5089 a3bb
000001b0: 97de ee3c 914c edbc cf1f 753b 3072 903d
000001c0: 497c 24be 667b 8dbd 5bd7 4c3d 1199 a2bd
000001d0: a1dd 3c3c 96c3 62bd 4865 6c3c 6b24 b23d
000001e0: 84d5 08be c1c7 65bc 2b8e cebc 22e1 813d
000001f0: 99fc ed3d 3fc3 7bbd 9e8a 7a3c 9d37 17bd
00000200: eda9 55bd 941b ebbc bf89 a03c d713 373d
00000210: 2453 6e3c d38a 1e3d b46e 843d fc0c 993d
00000220: 7474 573c 8aec a7bb 461d c3bc 3430 b73d
00000230: 1eb5 c83d d48b 86bd 54e2 8bbd f8b7 ee3d
00000240: 6d15 1ebd 4b3d fcbc 16d1 4a3d 5613 60bd
00000250: f928 5d3d c5f9 f23b 676d a3bd 568a 3c3c
00000260: f747 9cbc ff72 653b b1dd 8eba aabf 5c3d
00000270: 6c4f 23bd 75b3 1c3d dd50 813d c437 7cbd
00000280: 53ed 42bc 517f c63c 3565 e93a 7542 a63d
00000290: 1542 19bd 8463 de3d 2c59 5dbc b9ac 033d
000002a0: b413 efbb 1b69 f23c c285 c03b 976d 36bc
000002b0: 5977 3e3d 86d3 f0bb bfb7 233c 44f7 a9bc
000002c0: ca95 863c ec1b 82bd 585d 80bd ecd1 4abd
000002d0: 6989 78bd bcba 02be cb4e afbd 0633 e13c
000002e0: 2989 26bd 0849 6e3d bf0d e6bd 6d1d 92bd
000002f0: 11fd 8ebd bd93 813d 1202 683d 9893 aa3d
00000300: 0870 fd3b 1fd5 e4bc dd7f 673c dc6a b3ba
00000310: ae5d c53d 89e8 5dbc 4a47 b43d 8021 ab3d
00000320: 66f3 f03d 50b4 81bd 6bab 963d 5d46 d2bd
00000330: 93ed 58bd 641d 4d3d 290d a9bc 7690 b3bc
00000340: 8d51 81bb fb06 81bd 330d 7fbd c873 ffbb
00000350: 6f35 173d 6f8c 473d d904 cbbd 093a 353d
00000360: 3201 9abd b396 de3c fdde fabb 9286 01bc
00000370: dc1d 813d 8f62 663b 0799 1bbc 9a1f 7abb
00000380: 488c 33bd 4431 8f3d a8c2 f8bd c9ab afbc
00000390: 6f4b ab3d 6252 fabd 9a64 06bd c344 053d
000003a0: 7576 f8bd 8469 0cbe 7e8c b3bc 742b bbbd
000003b0: 3227 b03c 0c4e 83bd 10b1 3ebd 5198 93bd
000003c0: 6649 84bd 1ed7 37bd 77a4 9dbd 5195 13be
000003d0: 1ebf 9dbd 45fd 32bd 68f3 8cbd 613c 8ebc
000003e0: 748b 903d a0ca d9bd 775e a73c cbcb 7dbd
000003f0: 4ee8 843d 7baf b13c 6c59 8cbd 959d 67bd

Conv_BN_ReLU2.0.bias f4 [32]
0.043079447 -0.079586506 0.05086299 0.11533069 0.023915226 0.026485424 0.052806824 0.050805368
-0.011280623 -0.06477992 -0.03249718 -0.08154212 0.04955217 -0.06754462 0.0018033726 -0.007980363
-0.09747331 0.06753437 0.02351505 -0.07086344 0.025232226 -0.05074336 0.038829565 -0.042159297
-0.038816314 -0.004888939 -0.06187367 0.018849231 -0.07865119 -0.053618416 -0.0029291692 -0.02861933
00000000: 1374 303d 40fe a2bd b655 503d 7f32 ec3d
00000010: dde9 c33c f6f7 d83c f84b 583d 4a19 503d
00000020: 5dd2 38bc 56ab 84bd c31b 05bd 8eff a6bd
00000030: 37f7 4a3d d554 8abd 255f ec3a 12c0 02bc
00000040: 16a0 c7bd 764f 8a3d a2a2 c03c da20 91bd
00000050: d0b3 ce3c 45d8 4fbd c00b 1f3d 3aaf 2cbd
00000060: dbfd 1ebd 6533 a0bb 3f6f 7dbd b469 9a3c
00000070: e013 a1bd fc9e 5bbd 4ef7 3fbb 1673 eabc

Conv_BN_ReLU2.1.weight f4 [32]
1.0241245 0.99877584 0.99534863 0.9573943 1.0710213 0.9444039 0.99078906 1.0195862
0.97144073 1.0690516 1.0582119 1.0736914 1.0527653 1.0237125 0.96141374 1.0143864
1.0777041 0.9941294 1.1045063 1.037358 0.98830163 1.0056612 1.0224346 0.9451989
0.9157838 0.9681892 1.0442737 0.97391135 0.99012417 1.0057914 0.96701175 1.0567245
00000000: 8316 833f c6af 7f3f 2bcf 7e3f cb17 753f
00000010: 3a17 893f 74c4 713f 5aa4 7d3f cd81 823f
00000020: 57b0 783f afd6 883f 7d73 873f b86e 893f
00000030: 03c1 863f 0309 833f 361f 763f 6ad7 813f
00000040: 35f2 893f 447f 7e3f 7660 8d3f 26c8 843f
00000050: 5601 7d3f 82b9 803f 23df 823f 8ef8 713f
00000060: cf70 6a3f 3fdb 773f c3aa 853f 4152 793f
00000070: c778 7d3f c6bd 803f 158e 773f c042 873f

Conv_BN_ReLU2.1.bias f4 [32]
-0.056968685 -0.033196352 -0.13287376 -0.11084169 -0.05663696 -0.16769901 -0.061761096 -0.05982346
-0.19190542 -0.004005761 -0.058566894 -0.077928714 -0.0488512 -0.031674355 -0.05112344 -0.054424938
0.078254394 -0.1418706 -0.13037479 -0.099446654 -0.07847785 -0.116804354 -0.010741628 -0.12972493
-0.08758104 -0.15415993 -0.04566848 -0.017660443 -0.083140984 -0.11325821 -0.121115446 -0.115876816
00000000: ff57 69bd e6f8 07bd 0f10 08be f800 e3bd
00000010: 28fc 67bd 4ab9 2bbe 34f9 7cbd 7209 75bd
00000020: db82 44be c242 83bb d7e3 6fbd 1799 9fbd
00000030: 3218 48bd f8bc 01bd d066 51bd afec 5ebd
00000040: d743 a03d 8746 11be f880 05be b0aa cbbd
00000050: ffb8 a0bd 1f37 efbd a7fd 2fbc 9dd6 04be
00000060: b05d b3bd 1adc 1dbe df0e 3bbd a2ac 90bc
00000070: d245 aabd ecf3 e7bd 600b f8bd d350 edbd

Conv_BN_ReLU2.1.running_mean f4 [32]
0.2946898 -1.3310264 0.208159 0.60147125 -0.24597909 -0.65795004 -0.31695414 -0.7547701
-0.5162538 -0.40419316 -0.6985157 -0.49702722 -0.8948836 -0.2930712 -0.5887102 -0.4584289
-0.4465559 -0.28614742 -0.15828355 -0.7212276 -1.04556 -0.41363811 -0.8026098 -0.10199994
1.0089581 -0.6722458 -0.63892835 -0.16500771 -0.55340624 -0.017815035 -0.8834228 -0.28665188
00000000: 95e1 963e 135f aabf a227 553e 05fa 193f
00000010: f1e1 7bbe 6a6f 28bf d047 a2be 9d38 41bf
00000020: 3629 04bf 68f2 cebe edd1 32bf 5a7a febe
00000030: 1717 65bf 6e0d 96be b6b5 16bf 31b7 eabe
00000040: faa2 e4be ea81 92be 1515 22be 5fa2 38bf
00000050: e9d4 85bf 60c8 d3be d677 4dbf 58e5 d0bd
00000060: 8a25 813f 4d18 2cbf cf90 23bf c8f7 28be
00000070: 08ac 0dbf d6f0 91bc ff27 62bf 09c4 92be

Conv_BN_ReLU2.1.running_var f4 [32]
0.20978555 0.6615937 0.2734658 0.29114184 0.26173744 0.3632269 0.5896256 0.38650984
0.291506 0.27982044 0.48932743 0.3550037 0.42560926 0.34995353 0.46035093 0.32309848
0.26272163 0.27024132 0.3043207 0.36185238 0.4716468 0.2852933 0.37523928 0.24523304
0.4694424 0.5368147 0.28810105 0.25898457 0.30460003 0.20542204 0.43310532 0.33880758
00000000: 06d2 563e 345e 293f b603 8c3e 8b10 953e
00000010: 7302 863e e0f8 b93e b4f1 163f 9ee4 c53e
00000020: 4640 953e a044 8f3e 2089 fa3e 0cc3 b53e
00000030: 75e9 d93e 1c2d b33e 1eb3 eb3e 2a6d a53e
00000040: 7383 863e 125d 8a3e eccf 9b3e b744 b93e
00000050: b07b f13e f711 923e 5d1f c03e 5f1e 7b3e
00000060: c15a f03e b06c 093f fb81 933e a099 843e
00000070: 89f4 9b3e 285a 523e fbbf dd3e 3078 ad3e

Conv_BN_ReLU2.3.weight f4 [32, 32, 3, 3]
-0.0972778 0.09364127 0.03423364 0.038113773 0.06048951 -0.05018984 0.0067089214 0.0077020032
0.0050908835 0.018152045 -0.0039261063 0.047048863 0.07439638 0.03611205 -0.011019175 0.012317962
0.10410113 -0.039609447 0.033396117 -0.06473036 -0.0007418362 -3.8591053e-05 0.04220196 -0.1085059
0.014704498 0.06955997 -0.13746805 -0.07495549 0.04804292 0.05864283 0.02961834 -0.012320151
0.03641282 -0.022184428 -0.068489864 -0.030286867 -0.05831921 -0.009547677 0.011893697 0.028070135
-0.027436478 -0.021016937 0.03546989 -0.08554862 0.01756247 0.008515216 -0.030173864 0.04735991
-0.031663336 0.047353096 -0.044358708 -0.074712716 -0.016255075 0.071361735 0.056562655 -0.0055029895
0.022166444 -0.07051601 0.003831665 0.025540637 0.059136905 -0.055027597 0.0240944 -0.0029796225
0.027226148 0.07645847 -0.15101996 0.013402187 0.0050525214 -0.036838982 0.056810744 -0.06545473
0.0512457 0.034764297 -0.027436167 -0.040964436 -0.031415127 -0.013570066 -0.04802991 -0.07499171
-0.02293099 -0.052403517 -0.090757824 -0.00597581 0.08276268 -0.00035228417 -0.09591535 0.099380895
0.061674874 -0.06678586 -0.09649724 0.00022295123 0.029120259 0.0029609555 0.024974672 0.057254147
-0.03246556 0.015037541 0.06265698 0.072799176 0.13134854 -0.056369044 0.112038255 -0.10192063
-0.029314129 0.017822048 -0.0252511 0.07218387 0.11305762 -0.007053128 -0.05762617 0.012673978
-0.014313295 -0.024204018 -0.032731537 0.05576025 0.04263144 -0.017329786 0.001593658 0.07509177
-0.03817377 -0.046266947 0.07040033 0.041834183 -0.0007220645 -0.00595505 -0.0016365569 -0.023141194
-0.07858501 0.010706672 0.037865203 -0.014397702 0.06460911 0.016533062 -0.020877859 0.1073873
0.016881742 -0.12507516 0.059434526 -0.06503795 -0.041684702 0.08194031 -0.09586492 0.02556251
-0.035857756 -0.027115129 0.07232699 0.08436607 -0.015984306 -0.09615121 0.0039680996 0.07559267
-0.05695138 0.060704272 -0.011148394 -0.024020933 -0.03670728 -0.032748092 -0.07049096 -0.121552445
-0.008872495 0.025152432 -0.029805055 -0.02378083 -0.10258283 -0.013724024 -0.008671668 0.05408837
0.0011171012 0.014692611 -0.11010366 0.042853367 0.029600743 -0.049718805 0.05185189 -0.0098128235
-0.12653355 0.10180158 0.024871929 0.05782248 -0.0048510856 0.07156856 -0.05882622 0.026681429
-0.066404566 0.030407881 0.027976913 0.0143312 -0.042171016 -0.018855583 0.0018159325 -0.053163245
-0.0049131084 -0.06627605 0.095842734 0.05290642 0.09259856 0.008587508 -0.062418405 -0.0018267124
0.07450586 0.0060747066 0.03839114 0.032588184 0.019622635 -0.064655006 -0.044758495 0.01427321
-0.07333046 -0.05008752 -0.09374366 -0.048852116 0.10698338 0.033250995 0.07064711 0.12038143
-0.11034567 -0.037234444 0.08077409 0.0027365468 -0.051056553 0.0001361446 -0.118710525 0.03306298
0.011509103 0.027258625 -0.09632249 -0.009758391 -0.02048494 0.02085577 0.032950066 -0.05002279
0.03623562 0.06762668 0.0128731225 -0.0030313518 0.009608569 0.07337233 0.019959554 -0.06904991
0.043942958 -0.07459955 0.021917649 0.041256987 0.024933785 -0.011349789 0.0076286406 -0.024807876
-0.02654459 0.0065934 -0.006061667 -0.0774714 0.032120835 -0.036097575 0.07186655 -0.029106466
00000000: 9539 c7bd ffc6 bf3d 9338 0c3d 301d 1c3d
00000010: d9c3 773d dd93 4dbd 83d6 db3b 1661 fc3b
00000020: 6dd1 a63b 99b3 943c 91a6 80bb 4fb6 403d
00000030: 215d 983d 3bea 133d c589 34bc 47d1 493c
00000040: f932 d53d 843d 22bd 5eca 083d 5a91 84bd
00000050: c977 42ba d4dc 21b8 f6db 2c3d 5738 debd
00000060: 23eb 703c 7575 8e3d 6dc4 0cbe 4482 99bd
00000070: a7c8 443d 7733 703d 29a2 f23c 75da 49bc
00000080: 9c25 153d 1ebc b5bc 6a44 8cbd 2a1c f8bc
00000090: 20e0 6ebd dc6d 1cbc c8dd 423c 57f3 e53c
000000a0: 77c2 e0bc b62b acbc e048 113d 1d34 afbd
000000b0: 2bdf 8f3c 6883 0b3c 2e2f f7bc 77fc 413d
000000c0: 6ab1 01bd 52f5 413d 7ab1 35bd fb02 99bd
000000d0: 5d29 85bc 1a26 923d 3eae 673d 6c52 b4bb
000000e0: 6796 b53c b36a 90bd ac1c 7b3b 993a d13c
000000f0: 8a39 723d 9e64 61bd 9f61 c53c c545 43bb
00000100: 5f09 df3c 4296 9c3d faa4 1abe d994 5b3c
00000110: 9f8f a53b 79e4 16bd 62b2 683d 210d 86bd
00000120: 03e7 513d 0265 0e3d d0c1 e0bc 53ca 27bd
00000130: 26ad 00bd fb54 5ebc 03bb 44bd 4195 99bd
00000140: c6d9 bbbc 12a5 56bd 3ddf b9bd bad0 c3bb
00000150: 7b7f a93d c8b2 b8b9 446f c4bd 3688 cb3d
00000160: cb9e 7c3d 06c7 88bd 58a0 c5bd 04c8 6939
00000170: 9c8d ee3c 970c 423b af97 cc3c 5383 6a3d
00000180: 9bfa 04bd 0560 763c 4d52 803d bc17 953d
00000190: 3b80 063e 3ae3 66bd 5074 e53d c3bb d0bd
000001a0: 2f24 f0bc 8bff 913c 65db cebc 23d5 933d
000001b0: c18a e73d ed1d e7bb 6b09 6cbd 84a6 4f3c
000001c0: 4f82 6abc 8147 c6bc 8111 06bd dc64 643d
000001d0: 4e9e 2e3d 32f7 8dbc 4ae2 d03a b7c9 993d
000001e0: 195c 1cbd 6982 3dbd 0c2e 903d 525a 2b3d
000001f0: ee48 3dba 9422 c3bb bd81 d6ba 9a92 bdbc
00000200: 2df1 a0bd 0a6b 2f3c 8b18 1b3d 57e4 6bbc
00000210: c851 843d 5870 873c 0b08 abbc dfed db3d
00000220: 944b 8a3c b413 00be 9e71 733d 9e32 85bd
00000230: 94bd 2abd 52d0 a73d d454 c4bd 7868 d13c
00000240: 95df 12bd 8c20 debc 2c20 943d 1ec8 ac3d
00000250: 85f1 82bc edea c4bd d506 823b 54d0 9a3d
00000260: da45 69bd 0ba5 783d c1a7 36bc 8cc7 c4bc
00000270: 5f5a 16bd dd22 06bd 905d 90bd 7df0 f8bd
00000280: f15d 11bc 790c ce3c bb29 f4bc 04d0 c2bc
00000290: f216 d2bd bbda 60bc 9d13 0ebc c48b 5d3d
000002a0: b26b 923a 47b9 703c 077e e1bd 0387 2f3d
000002b0: 427d f23c f2a5 4bbd a662 543d f7c5 20bc
000002c0: 0392 01be 597d d03d 37c0 cb3c 44d7 6c3d
000002d0: dbf5 9ebb 8a92 923d c3f3 70bd 0393 da3c
000002e0: 1eff 87bd f319 f93c d72f e53c 69cd 6a3c
000002f0: 84bb 2cbd 0677 9abc 9504 ee3a b4c1 59bd
00000300: 24fe a0bb bdbb 87bd 3249 c43d 67b4 583d
00000310: 50a4 bd3d 9fb2 0c3c 71aa 7fbd 4c6e efba
00000320: 8796 983d 550e c73b 0740 1d3d 307b 053d
00000330: a6bf a03c d869 84bd af54 37bd 2fda 693c
00000340: 482e 96bd 9228 4dbd adfc bfbd 2819 48bd
00000350: 1a1a db3d 3232 083d 6faf 903d 8a8a f63d
00000360: e9fc e1bd 2583 18bd e36c a53d a357 333b
00000370: ad20 51bd 0ac2 0e39 811e f3bd 0c6d 073d
00000380: ad90 3c3c 7b4d df3c ba44 c5bd a9e1 1fbc
00000390: 08d0 a7bc b8d9 aa3c a6f6 063d b2e4 4cbd
000003a0: cd6b 143d db7f 8a3d cae9 523c a5a9 46bb
000003b0: 426d 1d3c 3b44 963d 3882 a33c 0a6a 8dbd
000003c0: 88fd 333d a6c7 98bd a48c b33c 16fd 283d
000003d0: f041 cc3c 77f4 39bc adf9 f93b e339 cbbc
000003e0: 0a74 d9bc 730d d83b f3a0 c6bb 53a9 9ebd
000003f0: 2391 033d 0ddb 13bd c52e 933d af70 eebc

Conv_BN_ReLU2.3.bias f4 [32]
0.041007757 -0.021828871 -0.03332157 -0.0064560887 -0.03462249 -0.016390556 0.027121954 -0.043417886
0.08596315 -0.013952223 0.035529453 -0.013356092 -0.03880065 -0.05198464 0.014334527 0.010503004
-0.044720672 0.047682907 -0.027234837 0.036645107 0.03355478 -0.018528104 0.0068305666 0.018639171
0.061172415 -0.016460767 -0.008992023 -0.068571836 -0.07796801 0.03811589 0.04101379 0.0044243853
00000000: c0f7 273d 76d2 b2bc 337c 08bd 998d d3bb
00000010: 50d0 0dbd 7d45 86bc dc2e de3c f4d6 31bd
00000020: 730d b03d dd97 64bc 5587 113d 83d3 5abc
00000030: 6eed 1ebd d9ed 54bd 5ddb 6a3c cb14 2c3c
00000040: 062d 37bd 274f 433d 981b dfbc 2e19 163d
00000050: bd70 093d 40c8 97bc f2d2 df3b 2db1 983c
00000060: ed8f 7a3d bbd8 86bc 4753 13bc 646f 8cbd
00000070: b1ad 9fbd 681f 1c3d 13fe 273d 6ffa 903b

Conv_BN_ReLU2.4.weight f4 [32]
1.0634102 0.94266593 0.9804807 0.9907446 1.0177065 1.0301974 1.0216132 0.98752993
1.0348927 1.0176202 0.963755 1.0158607 0.92691034 0.93575895 0.98849016 1.0247935
0.9607317 0.97632253 0.95272946 0.92448425 0.9689154 1.0157276 0.9379695 1.0726888
1.0124189 0.9643266 0.93950677 0.93857193 0.9379576 1.010009 0.97798276 1.009557
00000000: d31d 883f 8e52 713f c800 7b3f 70a1 7d3f
00000010: 3544 823f 82dd 833f 39c4 823f c3ce 7c3f
00000020: 5d77 843f 6141 823f a6b8 763f b907 823f
00000030: ff49 6d3f e68d 6f3f b10d 7d3f 6f2c 833f
00000040: 83f2 753f 46f0 793f 14e6 733f 00ab 6c3f
00000050: d70a 783f 5d03 823f c51e 703f de4d 893f
00000060: f196 813f 1cde 763f 8483 703f 4046 703f
00000070: fd1d 703f fa47 813f 145d 7a3f 2a39 813f

Conv_BN_ReLU2.4.bias f4 [32]
-0.14928393 -0.1659225 -0.10925599 -0.17044502 -0.124737956 -0.08328927 -0.12664402 -0.22740737
-0.21959609 -0.10162435 -0.18442118 -0.111581504 -0.21586587 -0.1993696 -0.030828634 -0.24209511
-0.15178806 -0.18884099 -0.20460185 -0.21509057 -0.1335334 -0.15524425 -0.10565031 -0.046014
-0.082498625 -0.1954573 -0.12829891 -0.1549122 -0.09668271 -0.2503166 -0.226058 -0.10427398
00000000: e3dd 18be 96e7 29be 9bc1 dfbd 2489 2ebe
00000010: 9d76 ffbd 9193 aabd f8ae 01be 7add 68be
00000020: ccdd 60be 6d20 d0bd e8d8 3cbe d884 e4bd
00000030: f10b 5dbe 8b27 4cbe 558c fcbc c8e7 77be
00000040: 546e 1bbe 885f 41be 2683 51be b440 5cbe
00000050: fbbc 08be 59f8 1ebe 315f d8bd 2d79 3cbd
00000060: 0af5 a8bd f525 48be ca60 03be 4ea1 1ebe
00000070: 9601 c6bd 7f29 80be c07b 67be 998d d5bd

Conv_BN_ReLU2.4.running_mean f4 [32]
0.0029120632 -0.26762348 0.047570273 -0.22207743 -0.8313473 -0.9289624 -0.5136613 -0.48171932
-0.9016978 -0.13179538 -1.1600906 -0.03798219 0.29309204 0.024748962 -0.22204185 0.08435047
0.008763694 -0.3586517 -0.55963457 -0.5875541 -0.62021416 -0.20184341 -0.14385137 -0.47531608
-0.08307862 -0.43380973 -0.9199442 -0.42377964 -0.2914999 -0.16103576 -0.6356675 -0.00448946
00000000: 50d8 3e3b f205 89be 0cd9 423d 4468 63be
00000010: 2dd3 54bf 7bd0 6dbf 4f7f 03bf eaa3 f6be
00000020: abd5 66bf 5ef5 06be d97d 94bf 3693 1bbd
00000030: 2910 963e 56be ca3c f05e 63be f0bf ac3d
00000040: 9995 0f3c 32a1 b7be 3644 0fbf f269 16bf
00000050: 5bc6 1ebf 0ab0 4ebe c64d 13be a15c f3be
00000060: 2025 aabd 4f1c debe 7781 6bbf a5f9 d8be
00000070: 7a3f 95be 8fe6 24be 1bbb 22bf 521c 93bb

Conv_BN_ReLU2.4.running_var f4 [32]
0.26614526 0.2552992 0.3567879 0.3128305 0.4684921 0.38212082 0.34480268 0.31642434
0.3321993 0.5185709 0.55904835 0.32818556 0.31267336 0.3338755 0.4038708 0.2945884
0.23618878 0.39037928 0.40749976 0.3366523 0.32026446 0.2643831 0.32929707 0.48117578
0.37186372 0.2993697 0.41023603 0.39374042 0.4056168 0.32014492 0.4823648 0.2859783
00000000: 3144 883e 94b6 823e e7ac b63e 522b a03e
00000010: 32de ef3e 57a5 c33e fa89 b03e 5f02 a23e
00000020: 0716 aa3e 10c1 043f cb1d 0f3f f007 a83e
00000030: b916 a03e bbf1 aa3e 27c8 ce3e 4ad4 963e
00000040: 79db 713e cbdf c73e cfa3 d03e b15d ac3e
00000050: b4f9 a33e 395d 873e a099 a83e ac5c f63e
00000060: ec64 be3e fc46 993e 750a d23e 5898 c93e
00000070: 01ad cf3e 09ea a33e 85f8 f63e bf6b 923e

Conv_BN_ReLU3.0.weight f4 [32, 32, 3, 3]
0.08438401 0.04139584 -0.14066638 0.058813203 -0.031874266 -0.070356645 -0.08024957 -0.09652013
-0.10587097 -0.07812854 0.002743955 0.033981804 -0.027050603 -0.0766491 0.024055189 -0.055944923
-0.063751236 0.019989992 0.026509019 -0.04037093 -0.022984505 0.0103197405 0.02666787 -0.0010487738
0.047245022 0.05926786 -0.052978367 -0.06574385 -0.017656505 -0.1576022 -0.031435076 -0.046903748
-0.016688136 0.0633073 0.055014286 -0.00029242848 0.045101866 -0.04149238 -0.06641217 -0.011983513
-0.06735228 -0.015105255 -0.019082963 -0.059174057 -0.074122354 -0.05659867 -0.016849658 0.01782467
0.06613053 0.0072890907 -0.015337234 0.05040094 0.014553208 0.07089837 0.029285705 0.02057338
-0.060867447 0.023747612 -0.0005007046 -0.0049741515 0.06237021 0.08677344 0.039630357 0.16737403
-0.0101102805 0.115636386 -0.06254427 0.014043944 -0.078303635 -0.0696141 -0.10333743 -0.21951313
-0.12881179 -0.033930007 -0.03499366 -0.0029014556 -0.028567987 -0.055061802 0.058207843 0.0601117
0.0007876849 -0.025714086 0.07003811 0.07301863 0.016006421 -0.0066322656 0.054343227 0.022801312
-0.03434527 0.030031685 -0.025405716 -0.034585398 -0.07583987 0.033769798 0.03324469 0.028517837
0.030653806 -0.07607239 0.077081054 -0.003756593 -0.002082597 -0.054603186 0.007985744 0.0073889447
-0.059115052 0.0055769105 -0.059703972 0.019001745 0.04164097 -0.101571396 0.013885898 -0.0027574964
-0.07141482 -0.07174965 -0.091613494 0.0034076902 0.020739859 -0.048776373 -0.02682336 0.022325998
0.054628123 0.09045635 0.07455691 -0.009254414 0.08972613 0.04149116 -0.06921828 0.014655894
0.03250324 -0.064157955 0.07695013 -0.062336776 -0.12391006 -0.022763368 -0.04132782 -0.023241831
-0.022520822 0.03104439 -0.05952203 0.0017691264 -0.10536847 -0.135946 -0.10439485 -0.021403406
-0.024939604 0.010431 -0.016428357 0.06097994 -0.013895118 0.04877368 -0.09158794 -0.025065223
-0.06311314 -0.0118726585 -0.07591609 0.026372219 0.026902353 0.000109450106 -0.03518585 -0.06883284
-0.03867463 -0.04430118 -0.062807694 -0.059394952 0.014169834 -0.028043464 -0.048408143 0.015758533
-0.050684806 -0.03047231 0.025898209 -0.017264292 -0.02140271 0.020238008 -0.014174721 -0.013885693
-0.00992745 -0.05774608 0.008000763 -0.0977945 0.061848342 0.04441547 -0.030610023 -0.033900656
-0.0060102334 -0.071503446 -0.0241754 0.018488947 -0.06286065 0.07897285 0.024628723 -0.017138587
-0.003811467 -0.02125262 -0.0099282125 0.019794596 -0.0021436897 -0.04300941 -0.028077321 -0.040706407
0.012229541 -0.098847836 0.0013436696 -0.038692795 -0.10781861 -0.02062128 -0.05079192 -0.05506646
0.034461554 0.15073371 -0.06002584 0.05685362 0.037110258 -0.1376038 0.011847858 0.0098498585
0.10819504 -0.06402742 0.088757806 -0.0088087125 -0.16637136 0.05464857 -0.04460998 -0.089967154
-0.16381764 -0.020911047 -0.0769174 0.012527659 -0.09175431 -0.074845545 -0.05865639 -0.15993464
-0.16421157 -0.07473476 0.07889047 0.008724814 -0.022874927 0.025586426 -0.0051512984 -0.043902133
-0.12409887 -0.08342538 0.023758704 0.030698169 0.044147898 0.007105389 -0.0436081 -0.00013338044
-0.055681773 0.054314468 0.0006126307 0.024210885 -0.0207004 -0.04714755 -0.007794828 0.030775925
00000000: 86d1 ac3d af8e 293d d90a 10be 1de6 703d
00000010: 978e 02bd 2517 90bd e359 a4bd 59ac c5bd
00000020: e1d2 d8bd db01 a0bd edd3 333b 8130 0b3d
00000030: 3a99 ddbc 34fa 9cbd 630f c53c 8126 65bd
00000040: 0290 82bd 0dc2 a33c 7129 d93c fd5b 25bd
00000050: 004a bcbc 2114 293c 9476 da3c 0277 89ba
00000060: ff83 413d dbc2 723d d8ff 58bd b6a4 86bd
00000070: 60a4 90bc 7962 21be 11c2 00bd 251e 40bd
00000080: 8fb5 88bc 42a7 813d a956 613d 1651 99b9
00000090: bcbc 383d eaf3 29bd 1b03 88bd 7f56 44bc
000000a0: feef 89bd 087c 77bc e053 9cbc 7f60 72bd
000000b0: 76cd 97bd 02d4 67bd 4b08 8abc 0b05 923c
000000c0: 716f 873d 53d9 ee3b 0649 7bbc 3771 4e3d
000000d0: 9470 6e3c 2a33 913d 93e8 ef3c 8189 a83c
000000e0: 2550 79bd 5a8a c23c b841 03ba 35fe a2bb
000000f0: e877 7f3d 46b6 b13d 7153 223d 1964 2b3e
00000100: 97a5 25bc c5d2 ec3d 3617 80bd 9218 663c
00000110: a85d a0bd d691 8ebd 93a2 d3bd 0dc8 60be
00000120: 3de7 03be 31fa 0abd 8355 0fbd 5926 3ebb
00000130: 6907 eabc 7c88 61bd 596b 6e3d b037 763d
00000140: a47c 4e3a 59a6 d2bc 2470 8f3d cb8a 953d
00000150: e61f 833c 7a53 d9bb 0197 5e3d d1c9 ba3c
00000160: a0ad 0cbd 0205 f63c a61f d0bc 6ba9 0dbd
00000170: ef51 9bbd 3352 0a3d 962b 083d 3d9e e93c
00000180: b11d fb3c d7cb 9bbd acdc 9d3d 2c31 76bb
00000190: 2e7c 08bb 97a7 5fbd a3d6 023c f61e f23b
000001a0: a022 72bd 84be b63b 278c 74bd 8ca9 9b3c
000001b0: b98f 2a3d aa04 d0bd ad81 633c 1db7 34bb
000001c0: ef41 92bd 7bf1 92bd db9f bbbd 8e53 5f3b
000001d0: a3e6 a93c bcc9 47bd aabc dbbc 03e5 b63c
000001e0: bdc1 5f3d 2e41 b93d 4bb1 983d d39f 17bc
000001f0: 55c2 b73d a2f2 293d 50c2 8dbd 461f 703c
00000200: 1e22 053d 3f65 83bd 0898 9d3d d954 7fbd
00000210: 8fc4 fdbd 3e7a babc 5c47 29bd a765 bebc
00000220: 967d b8bc ce50 fe3c 5fcd 73bd 08e2 e73a
00000230: 6dcb d7bd 6e35 0bbe f8cc d5bd 3256 afbc
00000240: 244e ccbc c9e6 2a3c c394 86bc 1ac6 793d
00000250: 59a8 63bc e9c6 473d 7592 bbbd 9555 cdbc
00000260: 7641 81bd 8a85 42bc e579 9bbd 8d0a d83c
00000270: 5362 dc3c 9488 e538 0a1f 10bd 3bf8 8cbd
00000280: 4a69 1ebd 2775 35bd 52a1 80bd 1f48 73bd
00000290: 9728 683c 68bb e5bc 9e47 46bd 0a18 813c
000002a0: df9a 4fbd 11a1 f9bc 7b28 d43c d86d 8dbc
000002b0: bc54 afbc 2eca a53c 173d 68bc d180 63bc
000002c0: bea6 22bc 2787 6cbd a215 033c 7c48 c8bd
000002d0: b054 7d3d ffec 353d dfc1 fabc 6adb 0abd
000002e0: 7ef1 c4bb 6670 92bd 7d0b c6bc 2276 973c
000002f0: 16bd 80bd 85bc a13d 2dc2 c93c 3966 8cbc
00000300: cec9 79bb f919 aebc f1a9 22bc 4728 a23c
00000310: 257d 0cbb a32a 30bd 6902 e6bc c3bb 26bd
00000320: 6a5e 483c bc70 cabd 121e b03a 567c 1ebd
00000330: 01d0 dcbd f5ed a8bc 300b 50bd 5e8d 61bd
00000340: 8f27 0d3d f059 1a3e a8dd 75bd 57df 683d
00000350: ed00 183d 03e8 0cbe 851d 423c 4d61 213c
00000360: 5c95 dd3d cf20 83bd a7c6 b53d 6b52 10bc
00000370: 415d 2abe 2ed7 5f3d f4b8 36bd b340 b8bd
00000380: d0bf 27be a54d abbc df86 9dbd cf40 4d3c
00000390: afe9 bbbd 9f48 99bd af41 70bd e8c5 23be
000003a0: 1427 28be 8a0e 99bd 5491 a13d 86f2 0e3c
000003b0: 3364 bbbc a09a d13c 39cc a8bb b9d2 33bd
000003c0: 8c27 febd edda aabd 9da1 c23c ba7a fb3c
000003d0: 6dd4 343d 53d4 e83b 689e 32bd 0adc 0bb9
000003e0: 9212 64bd d978 5e3d f398 203a e855 c63c
000003f0: e393 a9bc ca1d 41bd c26b ffbb cb1d fc3c

Conv_BN_ReLU3.0.bias f4 [32]
0.051446427 0.058409832 -0.041435473 0.034569833 0.0025433486 0.015844382 -0.04033463 0.021052765
-0.04974514 0.035329185 0.03978433 0.022561846 -0.0013778551 0.055031978 0.019418078 -0.032437377
-0.023093827 0.034138136 0.02663953 -0.036178082 0.050090577 -0.020428985 0.034057833 0.046674013
-0.025950339 -0.016071217 0.045834728 -0.0475785 0.053698648 0.05764793 0.014988364 -0.072038256
00000000: 7db9 523d 263f 6f3d 3eb8 29bd 1999 0d3d
00000010: 4fae 263b 14cc 813c ed35 25bd d976 ac3c
00000020: 8fc1 4bbd 56b5 103d e5f4 223d 9fd3 b83c
00000030: 2599 b4ba 3669 613d a912 9f3c 0edd 04bd
00000040: 442f bdbc 6ed4 0b3d 253b da3c 782f 14bd
00000050: c72b 4d3d b05a a7bc 3a80 0b3d 402d 3f3d
00000060: ce95 d4bc c9a7 83bc 32bd 3b3d ace1 42bd
00000070: 1df3 5b3d 3c20 6c3d c191 753c cb88 93bd

Conv_BN_ReLU3.1.weight f4 [32]
1.035681 0.9828131 0.99089247 0.98415565 0.99860525 1.0374546 1.0227852 0.98700595
1.0265323 0.9627482 0.945004 0.97382003 1.0401841 1.0713115 0.98398024 1.0162362
1.093432 0.96712154 0.98729324 0.9619511 0.95231724 1.0082126 0.98517686 1.0189698
0.96902776 0.9954763 1.0690403 1.0255325 0.9863012 0.9678552 0.99109334 0.98511136
00000000: 3291 843f a499 7b3f 21ab 7d3f a0f1 7b3f
00000010: 98a4 7f3f 50cb 843f a0ea 823f 6cac 7c3f
00000020: 6965 833f ab76 763f c8eb 713f 454c 793f
00000030: c124 853f bc20 893f 21e6 7b3f 0714 823f
00000040: 94f5 8b3f 4795 773f 40bf 7c3f 6d42 763f
00000050: 10cb 733f 1c0d 813f 8d34 7c3f 9a6d 823f
00000060: 3412 783f 89d7 7e3f 50d6 883f a644 833f
00000070: 3c7e 7c3f 5cc5 773f 4bb8 7d3f 4230 7c3f

Conv_BN_ReLU3.1.bias f4 [32]
-0.066131525 -0.20858932 -0.15977867 -0.08078856 -0.11943054 -0.12232784 -0.08425036 -0.194616
-0.13686444 -0.09310066 -0.13220546 -0.16651596 -0.060843498 -0.102222495 -0.23216778 -0.080974676
0.0059327045 -0.1801426 -0.18242428 -0.1120371 -0.107445486 -0.17082202 -0.15911017 -0.096474245
-0.08734839 -0.15679163 -0.10816314 -0.17810087 -0.07510755 -0.06327355 -0.18154691 -0.105646566
00000000: f76f 87bd 7098 55be 059d 23be 7974 a5bd
00000010: 0098 f4bd 0587 fabd 748b acbd 6b49 47be
00000020: 3126 0cbe 8fab bebd de60 07be 2983 2abe
00000030: 0837 79bd 075a d1bd 64bd 6dbe 0dd6 a5bd
00000040: 2267 c23b 4d77 38be 6ecd 3abe b573 e5bd
00000050: 610c dcbd f8eb 2ebe c7ed 22be 4a94 c5bd
00000060: b6e3 b2bd fc8d 20be a384 ddbd 1360 36be
00000070: fdd1 99bd 9095 81bd 6fe7 39be 3a5d d8bd

Conv_BN_ReLU3.1.running_mean f4 [32]
-2.4505024 1.8235172 -0.3440302 -0.7542209 -1.3612237 0.19672634 0.024890145 1.0656462
-1.4853945 1.2254498 -0.5231553 0.7294896 -0.47029477 0.2913724 0.4868461 0.017563928
-1.043599 0.117585175 0.18657494 0.3131243 0.36506617 0.3308471 0.0655947 -0.25662425
-0.09081039 -0.0042478773 -0.21558613 0.040164776 0.5065485 -1.4006066 0.2955265 -0.97016984
00000000: 08d5 1cc0 0369 e93f ba24 b0be 9f14 41bf
00000010: 943c aebf a172 493e 6be6 cb3c 1867 883f
00000020: 6821 bebf 8adb 9c3f 81ed 05bf d5bf 3a3f
00000030: 7aca f0be c32e 953e e443 f93e 3ae2 8f3c
00000040: a794 85bf 7fd0 f03d 800d 3f3e d451 a03e
00000050: f4e9 ba3e cb64 a93e 8456 863d 4164 83be
00000060: ccfa b9bd c731 8bbb 9cc2 5cbe d283 243d
00000070: 2aad 013f 1447 b3bf 404f 973e 0d5d 78bf

Conv_BN_ReLU3.1.running_var f4 [32]
1.2345037 0.7113617 0.43767288 0.7662195 0.6522271 0.47565478 0.43420178 0.44660658
0.7161954 0.6432829 0.6189401 0.50619125 0.43574378 0.49153015 0.48690292 0.4860286
0.6002841 0.66301775 0.4869873 0.69482183 0.49531177 0.58955216 0.5383283 0.6576659
0.54826117 0.5347402 0.5865186 0.642134 0.59292173 0.57638663 0.5539032 0.48124978
00000000: 3804 9e3f cd1b 363f a916 e03e f626 443f
00000010: 5bf8 263f 0689 f33e b24f de3e 9ea9 e43e
00000020: 9558 373f 30ae 243f dc72 1e3f c095 013f
00000030: cf19 df3e d7a9 fb3e 574b f93e bed8 f83e
00000040: 38ac 193f 88bb 293f 6656 f93e d8df 313f
00000050: 8199 fd3e e4ec 163f e2cf 093f cb5c 283f
00000060: d85a 0c3f bce4 083f 1526 163f e562 243f
00000070: b8c9 173f 138e 133f 9acc 0d3f 5f66 f63e
