CA04/checkpoints/checkpoint.pth (torch, 707509 bytes, 143 tensors)

Conv_BN_ReLU1.0.weight f4 [16, 3, 3, 3]
00000000: 70c7 16bc 4d47 4b3e 9d68 b13d 24fd fcbc
00000010: d03c 36be 4177 4d3e db7e 023e 5c8f 153c
00000020: 9221 fd3c 05e5 8cbd 57fb a73d bc6b ab3d
00000030: 6ded 4dbe d027 36be 4bf5 083d 9b95 51bd
00000040: b17a 2f3e 723b 07be ade5 4b3c 754f 9c3d
00000050: 75bf 973d 1d28 c13d 4367 8abe 2877 e1bd
00000060: 912d 3ebe 5587 01bc bd14 ce3d 23eb 12be
00000070: 2e6c 4cbe 3757 19be 4fe3 ed3d d323 1f3c
00000080: 80ff aa3d bb14 1dbe e1fb 3dbe 50c5 0d3e
00000090: 2375 463e 4391 ebbd 211c 213e f42b 4a3d
000000a0: 9da9 0d3e f22e 633d 2e45 ac3a 617d f33d
000000b0: 6222 07be dc03 393e 2fa1 06be e3ea 83bc
000000c0: 43f7 dc3d bc8b 2bbd ef35 a23d 7956 54bd
000000d0: d1b9 bf3c f179 0fbe 8867 45be 5ac0 b4bd
000000e0: 0c4d 743a 579e 24be 656d 6bbd 8d11 18bd
000000f0: 9bca ad3d 4734 7a3e 1d79 46bd c4b6 d33c
00000100: d9a6 283c c6f3 fabc 9547 44be 256b 563d
00000110: 5af6 1bbe 22ca 983b 4b10 1e3e 4b21 0c3c
00000120: eed8 643d 128b 20bd 12ea b5bd 1ce4 fcbd
00000130: 624e fb3d 015b 1ebd f4e6 9d3d 2ad2 edbd
00000140: e9d9 36be 228a 133e 6610 063e c7e9 1ebe
00000150: 5e11 8e3e dd4c 0dbe 8cac 4fbd d715 c5bd
00000160: a5b3 e03d dcad 213c 7748 2ebe a263 f9bd
00000170: c732 f83d 2f85 81be 7134 77bd 5cfc 8d3c
00000180: 97ba 553d fc25 273e e052 423d 05ac 063e
00000190: a3af 85bc f62c 3ebd 414b d2bd d962 2d3e
000001a0: b475 73bc 8825 33be 0e85 0abe f7f5 9abc
000001b0: 6281 dbbd 8be1 15bd 5120 0dbe c8ce 18bd
000001c0: 5fc9 0b3e 75c6 2bbe 5191 893e e30f 3c3e
000001d0: adad 0cbc 9174 55bc 07c9 bbbd 244a 8b3d
000001e0: 99f3 f4bd 875a 2fbe e419 82bc cffe 743d
000001f0: c3db 6c3d 23a5 acbd 8171 5fbe 924f 763d
00000200: b341 623e 2b6c 023d 22d7 c4bd e6af 213e
00000210: 966b f83d 2cc9 803d 6280 b9bd e62f a3bd
00000220: 5d4d 11be 61cc eb3c 549d bd3d 7e9d 43be
00000230: 6f70 f8bd 658f 5e3c c686 76be 4139 3d3e
00000240: 02b5 803d f70d 1cbe 507e 0c3e 0271 4fbd
00000250: 032f 673d 7399 72bd 341c 19be 4220 6fbd
00000260: bb7b 5a3e 0218 353d 96ef 903d 8b16 f6bc
00000270: eb6d 00bc 9341 0e3e da27 a63d 3a1a 023e
00000280: dc42 0bbe 5cd5 1b3e a7e3 59bd 34ac ffbd
00000290: d13c 23be b882 e73b 1fd3 0c3c 72c2 6b3e
000002a0: 9e0c 84bd d21f c2bc 7f76 573e fc33 07bd
000002b0: 17ff 413d bba5 66be 7fa5 343e 523f b53d
000002c0: a8a3 a7bd 475a 2e3d 9739 083e 2b90 28be
000002d0: e213 28bd 6a31 33be 9bf0 04bd a7d5 b4bd
000002e0: 17d9 593e 6094 243d 902f 9d3c 2037 0cbe
000002f0: ec11 81bd dc2b 24bd 4208 2c3e 6f72 b13d
00000300: 43fa 8a3c 1015 5e3c e7d5 27bd 79be 9bbd
00000310: 1499 843d e528 d83d 57bf 8bbe 91f6 e4bd
00000320: bd1f 723c f620 d83c ad39 043e f6b5 48be
00000330: 8a9a 68be a9a5 f0bc b828 c2bd a48b 10be
00000340: 9a92 483d a6f9 7abe 827e 14be 602b 753e
00000350: 5a2f f23d 169f 3bbe 3f16 04be 1de8 073e
00000360: 977c e1bd cebd 08be 8e33 44bd 54d2 be3d
00000370: 441b c83d d3a4 243e 89d0 b63d 3cd1 23bd
00000380: e996 6fbe 692a 20bd 070d e93c 856a 3abe
00000390: f03f b3bc bef9 653e 977d 8bbe 462d d23c
000003a0: d091 493d 97b9 433d 3946 043e 42c1 05be
000003b0: 8e18 16be 5193 8cbd e9f5 813d 9f76 33be
000003c0: d02e da3d ecd3 f73d 4404 d9bd b046 f53d
000003d0: ddd8 0ebe c715 debd e436 313d 8d95 0a3b
000003e0: 5927 503e 5a0e 8fbd 40d5 99bd fe01 f3bd
000003f0: 99d5 553e 71a9 283e 3ee6 ca3d 953a f83d
-0.009202823 0.19851418 0.086625315 -0.030882426 -0.17796636 0.20065023 0.12743704 0.009128418
0.030899797 -0.068796195 0.08202236 0.08370158 -0.20110102 -0.17788625 0.033437055 -0.051168066
0.17136647 -0.1320627 0.012444896 0.07632343 0.074095644 0.09431479 -0.27031907 -0.110090554
-0.1857207 -0.007905801 0.10062549 -0.1434751 -0.19963142 -0.14974676 0.11615621 0.009713131
0.08349514 -0.1533994 -0.18553115 0.138448 0.19380622 -0.11502316 0.15733387 0.049358323
0.13834234 0.055464692 0.0013143176 0.118891485 -0.1319671 0.18067878 -0.13147424 -0.016103214
0.10789349 -0.041881308 0.07920443 -0.05184028 0.023404034 -0.1401136 -0.19277775 -0.08825751
0.0009319342 -0.16076027 -0.057477374 -0.037126113 0.084859096 0.24434005 -0.048455346 0.025843985
0.010293686 -0.030633818 -0.19167931 0.052348275 -0.15230694 0.004662768 0.15435903 0.00855286
0.055870943 -0.039195128 -0.08882536 -0.12348196 0.1227081 -0.038661007 0.077100664 -0.11612351
-0.17856564 0.14408162 0.13092193 -0.15518866 0.27747625 -0.13798852 -0.050701663 -0.09623306
0.109717645 0.009868111 -0.1701983 -0.121772066 0.1211906 -0.25296924 -0.060352746 0.017332248
0.0521799 0.16323084 0.047442317 0.13151558 -0.016319102 -0.046429597 -0.1026826 0.16932239
-0.014859606 -0.17494786 -0.13527319 -0.018916113 -0.10718037 -0.036592048 -0.13781859 -0.037306577
0.13651036 -0.16774924 0.2686868 0.18365435 -0.008586329 -0.01302828 -0.09169202 0.068012506
-0.11960525 -0.17124377 -0.015881486 0.059813317 0.05782677 -0.08429935 -0.21820642 0.060134478
0.22095375 0.03184144 -0.09611346 0.15789756 0.121298954 0.062883705 -0.0905769 -0.0796812
-0.14189668 0.028783979 0.092585236 -0.19103047 -0.1213082 0.013583993 -0.2407485 0.18478872
0.062845245 -0.15239702 0.1372006 -0.050644882 0.05644132 -0.05922837 -0.14952165 -0.058380373
0.21336262 0.04421235 0.070769474 -0.030040046 -0.0078387065 0.13892202 0.0811307 0.12705317
-0.13599724 0.15218109 -0.05319562 -0.12484017 -0.15941168 0.0070651434 0.008595257 0.23023394
-0.06447719 -0.023696814 0.21041296 -0.03300856 0.047362413 -0.22524159 0.17641257 0.08849968
-0.08185512 0.042566564 0.13303219 -0.16461246 -0.041034587 -0.17499319 -0.03245602 -0.088298135
0.2127422 0.040180564 0.019187719 -0.13692904 -0.063022465 -0.04008089 0.16800025 0.086644046
0.016965037 0.013554826 -0.040975478 -0.07604689 0.0647451 0.10554675 -0.27294418 -0.11179841
0.014778075 0.026382904 0.12912627 -0.19600663 -0.22715202 -0.029375868 -0.09480423 -0.14115769
0.048967935 -0.24509296 -0.14501384 0.23942327 0.11825438 -0.18322405 -0.12899111 0.13272138
-0.11010092 -0.13353655 -0.04790073 0.09317461 0.097708255 0.160785 0.08926494 -0.039994463
-0.23397411 -0.039102945 0.028448595 -0.18204696 -0.021881074 0.2245855 -0.27244255 0.025656354
0.049211323 0.047784414 0.12917413 -0.13062003 -0.14657804 -0.06864036 0.06345732 -0.17525719
0.1065346 0.12100968 -0.10596517 0.11976373 -0.13949914 -0.108439974 0.04326524 0.0021146268
0.2032751 -0.06985159 -0.07511377 -0.11865614 0.20882262 0.16470887 0.099071965 0.12120549

Conv_BN_ReLU1.0.bias f4 [16]
00000000: 536e 373e dbc0 30be fe0c f8bd b784 35bc
00000010: 6117 1a3e 64a7 27be 0622 913d d6fb 81be
00000020: 8617 60bd 5dfa a43d e165 363e 0500 2c3e
00000030: ae95 b5bd b45c a3bd 5e18 623d 3b09 b23b
0.17913179 -0.17261069 -0.12111853 -0.011079005 0.15047981 -0.16372448 0.070865676 -0.25387448
-0.054709934 0.080555655 0.17812301 0.16796882 -0.0886644 -0.07976666 0.05519902 0.0054332293

Conv_BN_ReLU1.1.weight f4 [16]
00000000: 0995 843f 65ed 8d3f deab 723f ce19 6f3f
00000010: 6fe1 943f ca31 8e3f 0700 823f e24a 743f
00000020: c44e 673f 8d00 6d3f 6cc2 6e3f 785b 7a3f
00000030: 8915 6b3f 8551 733f 202f 8c3f fa49 783f
1.0357982 1.1088072 0.947935 0.9339875 1.1631297 1.1108944 1.0156258 0.9542676
0.9035456 0.92578965 0.93265414 0.9779582 0.91829735 0.95046264 1.0951881 0.9698788

Conv_BN_ReLU1.1.bias f4 [16]
00000000: 5e56 973e 889f 2e3e 9dc1 bebc 8458 263e
00000010: 7bd2 263e 354b 33bc 2c06 96bd 7619 c1bd
00000020: bbe5 12bd 0f74 eabd cfae 1a3e 4295 01be
00000030: f4db eebd 1508 07be c352 78bc 69f1 d6bc
0.2955808 0.17053044 -0.023285681 0.16244704 0.1629123 -0.010943224 -0.07325396 -0.094286844
-0.03586362 -0.11447918 0.15105747 -0.12654594 -0.116630465 -0.13186677 -0.015156451 -0.02623816

Conv_BN_ReLU1.1.running_mean f4 [16]
00000000: 8e8b 2b3e b022 33be 8614 d2be c2b2 a5bd
00000010: b5f4 253e 8874 40be 6066 f5bc 6ffe 13bf
00000020: 623e 80be da55 50bd b86d 3b3e b57c ad3e
00000030: 5e53 49be 34d8 6abe bc00 fb3c 2e8a adbd
0.16752455 -0.17493701 -0.41031283 -0.08090736 0.1620663 -0.18794453 -0.029956043 -0.5781011
-0.25047594 -0.050863124 0.18303573 0.33884206 -0.19660708 -0.22934037 0.030639999 -0.08473621

Conv_BN_ReLU1.1.running_var f4 [16]
00000000: 9844 083c 256a b43b ebba f33c 0587 2d3b
00000010: c7c4 f23b 2115 f83b 622e 173c e87e 153d
00000020: 96e5 ba3c fb76 743c 9122 f03a 4206 853c
00000030: c9b7 2b3c b6bb 753c 5d2e 783b 1c57 9b3b
0.008317135 0.0055058175 0.029752215 0.0026478183 0.0074087116 0.007570878 0.009227367 0.03649798
0.022814553 0.014920945 0.0018320848 0.016238336 0.0104808295 0.014998367 0.0037869432 0.004740609

Conv_BN_ReLU1.3.weight f4 [16, 16, 3, 3]
00000000: f892 4fbd f6eb 0d3d ec56 523d f7aa c8bd
00000010: fb6c d43d c55e 6bbd 42f0 c33c 69d1 84bd
00000020: ee6f 6b3d 3fae bebd 7acf f83d 766e e13d
00000030: 12d4 eabd 7bf5 be3c 381b 4fbd cd12 eebd
00000040: 91b8 613d f15d a0bd 604e f1bb 05d7 ba3d
00000050: e4b4 b13d aedf c5bc 4289 d73d 846b 5f3e
00000060: b469 cfbd 68e4 853d ed57 0f3e 6bef 853d
00000070: 249a 11bd 3d0a 0a3d e879 8d3d 6b2f 073e
00000080: b2cf f2bd f83e 90bc 3190 253e 7894 f4bc
00000090: da84 66bc b8df 303e 9d98 353d 4eb3 9fbd
000000a0: 24b6 41bc 0ed2 e6bc 78be 2e3c 049f 253d
000000b0: e92e eb3c 0298 533d f12f 873d 2398 fe3c
000000c0: d482 46bc 596c 67bd 32ab a9bc 0db4 d83d
000000d0: d1d2 3fbe ff9d 5e3d 6b70 973d 91f9 003e
000000e0: e8f5 063d 95cb a5bd 4c82 b83d 9d8c ce3d
000000f0: 7382 363c 135f be3d 9b25 773d 44f0 03be
00000100: b6ee e0ba 2a71 6f3b 3eff 81bc 05e2 41bd
00000110: 13ec 663b c78f 123c 29f5 b5bb d7ba 103d
00000120: 4a36 193d 9e50 f03c a4c1 f5bc acba 943d
00000130: a325 fe3d a772 ce3c 725f 1bbd 4bfb 793d
00000140: 5b90 4fbd f121 62bc 632e d83d e47d 4c3c
00000150: 949a 47bd f0f8 f23d 3145 683c db65 8ebc
00000160: 384a 4f3d 934f 323d 61b5 a23d 4dd2 b4bd
00000170: 8317 153e 981e 03bd a7d1 9d3d 61ce cebd
00000180: efce 03bb f738 d53c 9e28 a7bd f262 943d
00000190: c8e7 e6bd dc4b d83d 8ef5 0e3d cac2 66bd
000001a0: dfc5 9abb 8b79 d9bd 5ccc 3a3b 7ea7 52be
000001b0: fc33 7b3c 9c55 a73d e341 15bd f00c 983c
000001c0: 23ee 9c3d ef9b 2fbd 2e86 2fbd ed41 81ba
000001d0: 0a68 e0bc 8db5 b4bc 7cae 1a3e 7f94 a93d
000001e0: 7282 1b3d 1626 b2bd 8de7 77bc 5973 85bd
000001f0: 6452 18be 01ce d3bd 1556 75bd e44c 9a3d
00000200: 4480 c53d 714d 18be 2b7c e7ba ff75 d9ba
00000210: b3c6 c23d 352e 49bd 701c 08bd ea5c 853b
00000220: c511 48bd a20d 9f3d 0e59 4abd 21cf 003d
00000230: 711b 12bd 50a2 92bd 70e0 443d ccaf 703d
00000240: e454 58bd 2830 6bbd c930 22bd d071 f23a
00000250: 2f00 c9bd 7c0e 973d 7369 d4bb e049 32be
00000260: e853 9f3d d049 a6bd c0fa 123d be52 74bc
00000270: cbc9 47be 754e 6ebd 78d1 42bd 91b3 7a3d
00000280: 420e 0ebd 7ac4 193e 06f7 bd3d 80dc c73c
00000290: cea6 babc c97e 323d 226d 393b 4f97 023d
000002a0: 6e6b 0f3d 2581 7abd db0f b2bd f10d 893d
000002b0: 1fd2 20bd f4f7 403d 661e 233d 105c c7bd
000002c0: e310 fcbc 1aad 013d 77b1 01be e6ba c2bc
000002d0: 1f35 1cbd 43e7 57bd aa93 8cbd cdb8 6b3d
000002e0: 9d65 4fbd f4d3 753d 5e58 033c f3e8 b0bd
000002f0: f3fe 063c 79bb 57bd 93c0 a13d 82d5 e0bd
00000300: 4334 5b3b c192 bb3d 60e5 1fbd 4590 273d
00000310: a064 8b3d fa8f cfbd 6e06 7ebc 3a65 9a3c
00000320: e3f9 0abd 50f3 a43b 8f0d 3dbe 5ab2 cabd
00000330: f2be 213c 1541 0d3d 6c4e 7b3d efd0 c63d
00000340: fbeb 90bd 7da8 223d d0e2 523d 29a6 9cbd
00000350: 8309 7abc f973 9c3d 16b2 82bd e184 483c
00000360: 16ae 6d3d 6a31 5abb 3067 45bd 969e 97bd
00000370: 21ca 183a dccd 463d 2a0f 813d 9fe1 803d
00000380: 30c4 433b 47fd 94bd c6ad ef3c 7ca0 253c
00000390: 7bdf 12bc d35c 7ebd bb89 073d 8996 a73d
000003a0: 2dae e93c f500 483d 0648 44bc e6ef daba
000003b0: 8188 6ebd bd5e 313d 94a6 91bd d77b 963d
000003c0: 389c 01be 7e1d bcbd e22f e83c 860a 943d
000003d0: 294e 9bbc a5ba dbbd e850 d63d 8b0b 9839
000003e0: 3acc 4e3b 1522 8f3b 77ec b73d 12c0 15bd
000003f0: 9c62 903d c6cc a23d 3000 db3c 4f99 a43d
-0.05067727 0.034648858 0.051352426 -0.09798234 0.10372349 -0.057463426 0.023918275 -0.06485254
0.05747979 -0.093105786 0.12148948 0.11007397 -0.114662305 0.023310414 -0.050563067 -0.1162468
0.055107657 -0.07830418 -0.0073640794 0.09123043 0.0867708 -0.02415451 0.10524227 0.21818358
-0.10127583 0.06537706 0.13998385 0.06539806 -0.03554739 0.03370117 0.069080174 0.13201682
-0.11856021 -0.01760815 0.16168286 -0.029855952 -0.01406976 0.17272842 0.044334996 -0.077978715
-0.011823211 -0.028176334 0.0106655285 0.040434852 0.028708892 0.051658638 0.06600941 0.031078404
-0.012116153 -0.056499813 -0.020711515 0.10581217 -0.18732764 0.054349896 0.07394489 0.12595202
0.03294936 -0.08095471 0.09009227 0.100854136 0.0111395 0.09295478 0.060338598 -0.12884623
-0.0017160985 0.0036535957 -0.01586878 -0.04733469 0.0035235926 0.008945412 -0.005552907 0.035334434
0.03740529 0.029335316 -0.029999562 0.07262167 0.124095224 0.025201155 -0.03793282 0.061030667
-0.050674777 -0.013802038 0.105557226 0.012481187 -0.0487314 0.11863887 0.014176653 -0.017382553
0.05060789 0.04353292 0.079447515 -0.08829174 0.1455975 -0.0320116 0.07706004 -0.100979574
-0.0020112356 0.02602814 -0.08162044 0.07245435 -0.112746775 0.10561344 0.034902148 -0.05633811
-0.004723295 -0.106188856 0.0028503155 -0.20571706 0.015332218 0.081706256 -0.036439788 0.018560857
0.076626085 -0.04287332 -0.042852573 -0.0009861566 -0.02739336 -0.022059226 0.15105623 0.082802765
0.0379662 -0.086986706 -0.01513089 -0.065161414 -0.1487518 -0.103420265 -0.059896547 0.07534197
0.09643605 -0.14873292 -0.0017660906 -0.0016590952 0.09510555 -0.049116332 -0.033230245 0.004069914
-0.04884507 0.07766272 -0.049401335 0.031447534 -0.0356707 -0.07159865 0.048065603 0.058761403
-0.052815333 -0.057418972 -0.039597306 0.0018497054 -0.09814488 0.073758096 -0.006482297 -0.17410994
0.07779676 -0.08119547 0.035883665 -0.014912305 -0.19510572 -0.05818029 -0.047563046 0.061206404
-0.034681566 0.15016356 0.092756316 0.024397135 -0.022784617 0.043577943 0.0028293808 0.03188258
0.035014562 -0.061158318 -0.086944304 0.06692112 -0.039262887 0.047111467 0.039823912 -0.097343564
-0.030769771 0.031659223 -0.12665354 -0.02377076 -0.038136598 -0.052710783 -0.06864102 0.057549287
-0.050634015 0.060016587 0.008016674 -0.086381815 0.008239496 -0.052669022 0.07898059 -0.109782234
0.0033447898 0.091588505 -0.03903711 0.04090907 0.06806302 -0.10134883 -0.015504463 0.018847097
-0.033929717 0.005033888 -0.18462203 -0.09897299 0.009872185 0.034485895 0.061354086 0.0970782
-0.0707626 0.039711464 0.051485837 -0.0764888 -0.015261057 0.076393075 -0.063816234 0.012238712
0.05802735 -0.0033293613 -0.04819411 -0.07403295 0.00058284594 0.048536167 0.063017204 0.06293034
0.0029871576 -0.07274871 0.029257666 0.010109063 -0.008964415 -0.062100243 0.033090334 0.08183009
0.028525436 0.048829038 -0.011980062 -0.0016703575 -0.05823565 0.04330324 -0.071118504 0.07347839
-0.12657249 -0.09185313 0.028343145 0.0722857 -0.018958168 -0.10728959 0.104646504 0.000290003
0.0031554834 0.0043680766 0.08980649 -0.036560126 0.07050058 0.07949214 0.026733488 0.08037054

Conv_BN_ReLU1.3.bias f4 [16]
00000000: f256 a23d 1f94 bdbc 494a ef3d a1d5 bbbd
00000010: 7cf6 ecbc 95e8 ccbb fd16 393c df8b ffbb
00000020: 40de c0bc 3ddd 113d e11f cf3c 2707 69ba
00000030: e46b 043e 8ddd 113c 2c14 053b a63e 4dbd
0.0792674 -0.023141919 0.11684091 -0.09171606 -0.028926127 -0.006253312 0.011296985 -0.0077986564
-0.023543477 0.03561138 0.025283756 -0.00088893104 0.12931782 0.0089029195 0.0020306213 -0.050108574

Conv_BN_ReLU1.4.weight f4 [16]
00000000: 5306 6f3f 4244 833f 6e8c 5d3f a332 863f
00000010: 978e 813f 42f1 7f3f ba2e 823f 770f 6e3f
00000020: 51b6 7b3f 788a 6f3f ae6d 863f 180c 893f
00000030: b0fc 853f c14d 793f 3682 663f a002 883f
0.93369025 1.0255206 0.86542404 1.0484203 1.012164 0.99977505 1.017051 0.9299235
0.9832507 0.9357066 1.0502222 1.0706816 1.0467739 0.9738427 0.90042436 1.0625801

Conv_BN_ReLU1.4.bias f4 [16]
00000000: 2025 f1bc b804 a7bc f9f1 6bbe 7c9d 803d
00000010: 75e2 653c 036e 88bc 59d6 c9bd 6a65 32bd
00000020: 3776 e4bd 61a5 6c3d 6fa3 443d 0ffc e5bd
00000030: f17a 11bd 9c1a ebbd 4b80 c13c 611b 7a3d
-0.029436648 -0.020387992 -0.23041524 0.06280038 0.014031042 -0.01665402 -0.09855337 -0.043553747
-0.1115536 0.057774905 0.048007425 -0.11229717 -0.035517637 -0.11479685 0.023620745 0.061061267

Conv_BN_ReLU1.4.running_mean f4 [16]
00000000: a4b9 173f 5fd5 0fbf 6dd0 52be 48c5 a2be
00000010: 97ef 3ebf a7bd 16bf 6690 1cbe a90e 093e
00000020: 5959 a8be 8d9b 4fbe 4039 fbbe fc2c 89be
00000030: d087 8b3e 0457 b23e fecf f23c 5e28 54bf
0.5926764 -0.56184953 -0.2058732 -0.3179114 -0.74584335 -0.58883137 -0.15289459 0.13384499
-0.32880667 -0.20274182 -0.49067116 -0.26792133 0.27252054 0.34832013 0.029640194 -0.82874095

Conv_BN_ReLU1.4.running_var f4 [16]
00000000: 1622 0b3f 6856 c23e b160 863e d458 073f
00000010: 8bd3 043f 2f8f f53e ba86 153f 2e1b f03e
00000020: f240 983e 583b 933e 7ae2 153f 0d32 353f
00000030: 7d38 953e 76c2 023f 2e75 a33e f5bf 3e3f
0.54348886 0.37956548 0.26245645 0.52869916 0.5188529 0.47960803 0.584087 0.46895736
0.2973705 0.28756213 0.585487 0.70779496 0.2914466 0.51077974 0.31925339 0.74511653

Conv_BN_ReLU2.0.weight f4 [32, 16, 3, 3]
00000000: 6866 b8bd d9eb de3d 995d 343d 562c f3bd
00000010: 71a6 eabc a4e7 67bd f970 253e ab9a f23c
00000020: 92c3 3abc 4f88 0ebc 466f a63d f37c 813d
00000030: 6222 65bd ca1c 11be c166 323e 6652 debd
00000040: 1dd3 a7bd 7971 d3bc c228 e93d c128 80bc
00000050: 6bf3 663d 86fa 75bc 2ada 553d 7d9f c6bd
00000060: 062c 9ebd 9b45 153d de05 63bc 20c4 cf3b
00000070: a783 babc 5a7b 08be a372 ee3c b2fb 04bd
00000080: a607 06bd 9105 0d3e 099a 183d 8add ea3c
00000090: b124 30bd e045 fd3d 8ac2 d63d 5462 e5bc
000000a0: bab0 e03c fcb4 c13d 442f f1bd 7d04 75bd
000000b0: d0cb 84ba 0d10 aabd c548 b0bd 28da 8abd
000000c0: 6f38 963d 9766 b33d de39 f93c 35d3 223d
000000d0: 38e1 663d f1db e93c e15c dbbd 32d8 1dbc
000000e0: 5c26 8ebc c094 dd3c 74e7 18be da18 f53b
000000f0: 65ed 26bd c8d0 823d 6637 1fbe 6d2e 853c
00000100: b450 173d 2e63 413d 4817 3b3d 6c44 1bbd
00000110: 6d84 153e 7d38 63bd fc07 da3d 0d91 c2bd
00000120: a99d 193d 8f9c 9c3c 7414 15bd 7337 84bd
00000130: fd67 f9bb 78ab e9bc bdec ec3d bf56 c13d
00000140: e0a3 943d 76f4 cb3d aca2 c5bd e0b1 043e
00000150: d4aa cb3d 89fd 933d 2a8b 02be 1aae 67bd
00000160: a0b9 793d 8ef2 0ebe 14fa ae3b 6f3b 87bd
00000170: 35dd 3f3c 4c08 b93d 2c08 2d3d 2630 c63c
00000180: 7699 193e 75c2 4d3d 70e7 8cbd ba74 2dbd
00000190: 14aa f9bc db0c 763c e846 3fbd a469 c53d
000001a0: c830 183c efd2 06be 3708 1d3d 2380 aebc
000001b0: 23cb 473d 2465 7ebd 0227 373d 1d83 b03d
000001c0: 0e54 40be 1288 80bd 488c 483d 6686 bbbd
000001d0: f4fe 0d3c 3b58 8ebd 4584 95bc 5d4b 9f3d
000001e0: 2f0a 22be 10fd 8cbb 2f6d 18bd 25e1 a33d
000001f0: 80c0 e83d 7989 afbd 1ebf 923c 2a0a 9cbd
00000200: 7c0b 34bd cf6e 19bd 2d8b 8b3c 72e3 2e3d
00000210: 808b 053b 4555 273d 886d 8b3d 193a 753d
00000220: 71e7 b43c bfe1 b1bc 52f3 b1bc 0008 043e
00000230: b3c2 cf3d 6eb3 91bd e2c3 bcbd 6223 993d
00000240: f998 84bd 370b 44bd cc59 6c3d b83b 14bd
00000250: bd96 973d 5777 37bc 64d6 03be 86e7 89bc
00000260: 0684 31bd a651 243d a9ff 43bb fdc3 683d
00000270: 61c6 64bc ebda de3c ecde 4c3d a6a3 57bd
00000280: 4e23 2f3c 21c3 493d 24a9 8538 27e7 d73d
00000290: 04ff 3abd 6c55 073e 1b99 383c e776 083d
000002a0: 7cdb 8bbc 8326 8b3b 2554 dd3b c1ed d83c
000002b0: 482c 6e3d d63f babc f414 693c 9534 8dbc
000002c0: 231d 303c cdc8 54bd cd25 21bd b995 63bd
000002d0: 2df2 213c 46e6 25be db59 b0bd e06f 883d
000002e0: 7dc4 64bd eb8c a13d d47e 96bd 69ab abbd
000002f0: 87b8 85bd e565 c43d e436 6a3d bab1 903d
00000300: e353 753d 0074 f8bc f690 55bb 74de c8bc
00000310: 77d7 b93d 5d56 9abd 1ec1 dd3d 7dd8 c33d
00000320: 9a06 123e a9a1 42bd fa8b 863d 39cd fbbd
00000330: d9ac 6bbd 3a90 863d f57b 9a3b 7aef 2abd
00000340: d540 6f3c c227 99bd 5b80 c1bd b5e2 abbc
00000350: c6c4 1a3d c318 703d 97be f2bd 4823 a13d
00000360: 864c aabd c03f 9e3c ba3e 92bc b3cb 7abb
00000370: 68c5 6b3d 1316 db3c 17de e63b 808f 193d
00000380: a7d1 45bd 2ab5 e83d a603 15be 56f6 6cbc
00000390: 70f7 b23d f6a9 f8bd a059 c7bc bcef 513d
000003a0: 85b2 dbbd 5e04 0dbe 5ed3 bb3c 7c51 00be
000003b0: 5464 b0bb 0510 aebd 8ea8 b0bd eb11 c0bd
000003c0: a124 89bd 7aa1 4dbd 681f 2fbd 22a9 38be
000003d0: a992 b4bd 96b9 70bd e68e 8ebd 402a 3fbd
000003e0: 238b eb3d 0a0b 01be df48 13bc 35f8 c4bd
000003f0: 0809 af3d 038a c4bb 1cd0 bcbd 4164 09bd
-0.090039074 0.10884828 0.044034574 -0.11873691 -0.028643819 -0.056617394 0.16156377 0.029614767
-0.011399167 -0.008699491 0.081266925 0.0632266 -0.055940993 -0.14171138 0.1742201 -0.1085556
-0.081945635 -0.025810944 0.11384727 -0.015644433 0.056384485 -0.015013343 0.05221001 -0.09698389
-0.077232406 0.036443334 -0.013856379 0.0063405186 -0.022767855 -0.13328305 0.029107397 -0.032466598
-0.032722138 0.13771655 0.037256274 0.028670091 -0.04300374 0.12366843 0.10486324 -0.028000988
0.02742802 0.09458348 -0.11776593 -0.059818733 -0.0010131542 -0.08303843 -0.0860763 -0.06779891
0.073349826 0.08759802 0.030423101 0.039752204 0.05636713 0.028547259 -0.107110746 -0.0096340645
-0.017352276 0.027048469 -0.14932042 0.007479769 -0.04075374 0.06387478 -0.15548477 0.01625749
0.0369422 0.047213726 0.0456765 -0.03790705 0.14601298 -0.055473793 0.10646054 -0.095003225
0.037503872 0.019117622 -0.03639646 -0.064558886 -0.0076112733 -0.028524145 0.11568592 0.09440374
0.07257819 0.099587366 -0.09650168 0.12958479 0.09944692 0.07226092 -0.127484 -0.05656252
0.06096804 -0.13959715 0.00533987 -0.06603133 0.011710455 0.09034786 0.04224412 0.02419288
0.14999947 0.050234277 -0.06880081 -0.042347647 -0.030476607 0.015017713 -0.04669848 0.0963929
0.009288974 -0.13166402 0.038337912 -0.021301335 0.04877771 -0.062108174 0.044714935 0.08618758
-0.18782064 -0.06275953 0.048961908 -0.09156494 0.008666743 -0.069504224 -0.018251548 0.07778046
-0.15824197 -0.0043026283 -0.0372135 0.08001927 0.113648415 -0.08571143 0.017913397 -0.07619126
-0.043956265 -0.03745919 0.017034138 0.042697378 0.0020377338 0.040852804 0.06808001 0.05986986
0.022083016 -0.02171409 -0.02172247 0.12893677 0.10144558 -0.071143016 -0.09217049 0.07477452
-0.0647449 -0.047862258 0.057702824 -0.036189765 0.07401798 -0.011197886 -0.12874752 -0.016834032
-0.043338798 0.04011693 -0.0029907024 0.056827534 -0.013963313 0.027203998 0.050017282 -0.0526463
0.01068957 0.049258355 6.373439e-05 0.10542136 -0.045653358 0.1321618 0.011266972 0.03331652
-0.017072432 0.0042465343 0.0067544156 0.026480557 0.0581477 -0.022735517 0.014226187 -0.017236987
0.010749134 -0.05194931 -0.03934269 -0.05556271 0.009884399 -0.16201124 -0.086108886 0.066619635
-0.05585145 0.07888206 -0.07348409 -0.08382303 -0.065293364 0.09589747 0.057181254 0.07065149
0.059894454 -0.03032875 -0.0032587624 -0.024520136 0.090743 -0.07536004 0.1082785 0.09562776
0.14260331 -0.047517452 0.06569667 -0.122950025 -0.057537887 0.06570478 0.004714484 -0.04173229
0.0146028595 -0.07478286 -0.0944831 -0.020982126 0.037785314 0.058617365 -0.118527584 0.078680575
-0.08315377 0.019317508 -0.017852176 -0.0038268387 0.05756131 0.026743924 0.007045518 0.037490368
-0.048295643 0.11362679 -0.14552173 -0.014463028 0.08738601 -0.121417925 -0.024334729 0.05125402
-0.10727409 -0.13771197 0.022927936 -0.12531084 -0.005383054 -0.08499149 -0.08625899 -0.093784176
-0.066964395 -0.050202824 -0.04275456 -0.18033269 -0.08817036 -0.05877074 -0.069608495 -0.046671152
0.115011476 -0.12601867 -0.008989542 -0.09617654 0.085466444 -0.0059978976 -0.09219381 -0.033542875

Conv_BN_ReLU2.0.bias f4 [32]
00000000: 6bc7 453d eb9f 88bd 1f87 703d 2ddc f03d
00000010: b1b7 c33c acbc fa3c 39cf 123d dfe0 373d
00000020: 6d08 ab3c 6dcd 49bd f41f 14bd ff79 89bd
00000030: 90f0 153d a486 18bd cbbb 243c 5a88 8cbc
00000040: 6db3 dbbd e634 be3d f300 d63c 6bc5 99bd
00000050: 3397 913b 8885 84bd dcbd 7a3d 9f09 3cbd
00000060: 28eb 6bbd aa41 52bb b8bf 26bd fcd3 fc3b
00000070: 148a 60bd a7e8 4ebd 7840 b33c d5f7 1dbd
0.048285883 -0.06671127 0.05872261 0.11760745 0.023891302 0.030607544 0.035842154 0.04489219
0.020878041 -0.049268175 -0.036163285 -0.06712722 0.03660637 -0.03723778 0.010054539 -0.017154861
-0.10727582 0.09287433 0.0261235 -0.075083576 0.004443073 -0.064707816 0.06121622 -0.045907613
-0.05759731 -0.0032082596 -0.04071018 0.0077157 -0.05481918 -0.050514843 0.021881327 -0.03856643

Conv_BN_ReLU2.1.weight f4 [32]
00000000: 599d 813f b7df 7f3f e28f 803f d397 733f
00000010: cafd 8a3f 3bf7 6f3f 29dc 773f 3881 853f
00000020: d45a 753f 276f 893f 965a 873f 376b 883f
00000030: 8bee 8b3f 630d 863f 2ec5 703f db53 823f
00000040: 8b5a 8d3f c442 813f 881c 8e3f 0262 823f
00000050: fb16 7d3f 840d 823f d78a 843f fcf4 6d3f
00000060: 5f58 613f 1715 723f 4b02 873f 4657 793f
00000070: ed8f 793f 725d 833f 7534 7d3f 543c 883f
1.0126144 0.99950737 1.004391 0.9515354 1.08587 0.9373662 0.9682031 1.043006
0.9584172 1.0737046 1.057452 1.0657719 1.0932173 1.0472835 0.9405087 1.0181841
1.1043257 1.00985 1.1102457 1.018616 0.9886319 1.0160375 1.035487 0.9295194
0.8802547 0.9456343 1.0547575 0.97398794 0.9748524 1.0262892 0.9890817 1.0643411

Conv_BN_ReLU2.1.bias f4 [32]
00000000: 8c10 82bd 37bc d7bc b554 08be 0fbb 07be
00000010: 6153 b2bd 9ced 38be 35c6 c4bd 21ad 62bd
00000020: a10f 6dbe f147 b1bc 8c89 83bd d069 0dbe
00000030: e397 83bd 37e3 86bd 69d2 a3bd 6cb3 d8bd
00000040: dbc5 6e3d d84a 23be 5a4e 0bbe a89c 28be
00000050: 621f 9bbd 062c 05be 7b1b fdbb 1149 13be
00000060: 696a f8bd 92e8 72be 52a5 aebc 4217 0f3c
00000070: 0ba0 85bd a72a ffbd 5ccf 3bbe 0461 f9bd
-0.06350812 -0.026334865 -0.13313563 -0.13254951 -0.087073095 -0.18059391 -0.096081175 -0.05534089
-0.23150493 -0.02164075 -0.06422719 -0.13809896 -0.064254545 -0.065863065 -0.07999117 -0.10581097
0.05829416 -0.1594652 -0.13604107 -0.1646601 -0.07574345 -0.13005075 -0.007724223 -0.14383341
-0.12129671 -0.23721531 -0.021319065 0.008733572 -0.065246664 -0.12459307 -0.1834082 -0.121767074

Conv_BN_ReLU2.1.running_mean f4 [32]
00000000: 94f6 5a3e ed2f afbf 8580 993e acce 363f
00000010: 2053 ccbe 0948 43bf 6615 a0be b21c 52bf
00000020: 06ba 27bf c3a6 f3be 3f02 38bf ac19 1ebf
00000030: 25ac 79bf 9b1c 9ebe d0c2 21bf 0533 ccbe
00000040: 0785 0bbf 01ef a8be 684a fabd b313 51bf
00000050: f462 99bf abbc 83be 2b47 41bf 7611 b4bd
00000060: bc5d 803f 5d06 36bf 7a2e 4ebf 8ba7 96be
00000070: 07ba 22bf 7b09 d4bd 28b4 88bf 48e6 e7be
0.21383125 -1.3686501 0.29980865 0.71409106 -0.3990717 -0.7628179 -0.31266326 -0.82075036
-0.65518224 -0.47588167 -0.7187843 -0.6175792 -0.97528297 -0.308812 -0.63187885 -0.39882675
-0.5449986 -0.32994846 -0.12221223 -0.81670684 -1.1983323 -0.2572988 -0.7549922 -0.08792393
1.0028605 -0.7110346 -0.8053967 -0.294247 -0.63565105 -0.10353371 -1.0679979 -0.45292878

Conv_BN_ReLU2.1.running_var f4 [32]
00000000: c2b9 9a3e 3bfd 483f 01fd e13e 2d01 d13e
00000010: 0592 ed3e 193b 0b3f 36bf 373f 92e8 103f
00000020: adfc dc3e 24e1 bd3e 84f1 3c3f f103 0f3f
00000030: aafb 163f de88 0d3f bfde 1d3f d30d e53e
00000040: 7fc3 e73e 1599 d63e 248b d63e c999 123f
00000050: 7ef3 2a3f 9473 bb3e d3e8 063f 884c b63e
00000060: 4053 1f3f 0883 2f3f 344f f23e 3ebc d73e
00000070: d24b e43e fae8 a73e 414d 143f 28c6 0a3f
0.30219847 0.785114 0.4413834 0.4082121 0.46400467 0.5438705 0.7177614 0.56604874
0.43161526 0.3708583 0.73806024 0.5586539 0.5897776 0.5528697 0.6166801 0.4473711
0.4526634 0.41913667 0.4190303 0.5726591 0.6677779 0.36611617 0.5269901 0.35605264
0.62236404 0.6855931 0.47326052 0.42135805 0.44589096 0.32794935 0.5793038 0.5420861

Conv_BN_ReLU2.3.weight f4 [32, 32, 3, 3]
00000000: e927 93bd c268 ea3d ac12 8f3b 06bd 6c3d
00000010: c6b1 863d 0a9f 75bd 6c86 323d 34b4 da3c
00000020: cc17 433c 78bc ab3c d4ba ba3b f24d 2b3d
00000030: 772c e93d 7207 393c 67b5 d6ba 9be7 4b3c
00000040: d298 033e 8886 46bd 3879 5c3d 4119 a4bd
00000050: 07e6 5ebc a2fb 84ba 0fee 883c 5e18 13be
00000060: ccf1 3f3d 49ff 783d 374a 0dbe 4558 cabd
00000070: a084 4d3d 21ee 163d 48ea bf3c 2557 073b
00000080: f47d 42bb defd 3dbd e558 cfbd 8168 a8bc
00000090: 548e 76bd acb4 3a3b eec6 6cbb 60cb 153d
000000a0: cb32 063d 5f2d 00bd 017a 413c d0a3 05bd
000000b0: 1479 983d def2 c6bb d135 ffbb c0fb ad3c
000000c0: aae4 e5bc 1637 663d 4129 44bd 1e12 f8bd
000000d0: b7e2 213c d118 c63d 9e30 9f3d b2b3 113d
000000e0: 834a 873d f341 b8bd b21f a2bb ee29 afbc
000000f0: 3851 783d 09a9 72bd 7c50 b13b 48a6 d6bc
00000100: 9a7b be3c 62b4 9f3d 09da 40be c8e3 6e3d
00000110: 0afd 8dbb f474 89bd e6e1 083d 4d5e 9bbd
00000120: fc91 bd3c 5bed 3d3d bd66 49bd 01e4 75bd
00000130: 7ecf 0abd aadc 86bb 41bc f7bb 40bb 97bd
00000140: 681a 28bc 279d 45bd 9d4f 1ebe 1967 91bc
00000150: 25ff 943d 6864 81b9 e208 02be 1c0e f63d
00000160: e228 1e3d e73b 70bd a9ad d1bd 7e8a 5c3c
00000170: 4df6 523d 4cac 533c 7fbb e83a 7699 883d
00000180: 30ca 24bd c5a9 18bc 89d7 703d d0c9 9d3d
00000190: f5b1 1c3e f246 bfbd d0a2 b83d 3e94 c8bd
000001a0: 98fd 3abd e0a0 4a3c c635 7dbd 0f63 e83d
000001b0: 8f05 013e e9cc 2fbd 75f5 b6bd e684 033c
000001c0: 9a19 2fbd 9d6d 28bd c647 233d 4f26 853d
000001d0: f016 c33c c3be 06bd 57d4 f83c ddcd bb3d
000001e0: 15e8 51bd 15e9 5ebd 92d8 033e 7127 803c
000001f0: f54c a23b 0dea 10bd e0c5 693c 203e d0bc
00000200: 5ca4 f4bd b5f3 9d3c 87d7 8a3d ea64 3cbc
00000210: 0b10 3b3d d628 ca3c 2598 65bc ff5c 143e
00000220: aad6 f8bc 2771 20be a429 d73d 6b0f b6bd
00000230: 3bde 32bd 51e6 753d 269b a2bd 12b9 843d
00000240: e4c2 ef3c 8676 a5bc 83f8 7d3d 639e f03d
00000250: 8c2c 063c 8705 a3bd 3e7c c23a e57d bf3d
00000260: f4f4 d1bd 75c7 f43d 50b2 843c 8dca d8bc
00000270: 4164 90bd fbf4 73bd 263f 3abd 5f56 13be
00000280: 380a abbd a2fc 0f3d 1dbe c0bc d59d 11bc
00000290: c16d 45bd 5fd4 f63c 4fbb 87bc a825 ac3c
000002a0: a180 083d 1cac 4abb e804 ffbd f7f1 343d
000002b0: a740 3a3c b14e 84bd 1645 8b3d 0886 1b3b
000002c0: d422 05be d27f 0f3e ee3f 653b 8ff3 aa3d
000002d0: f76c 623d 6c2d 7e3d 8c5c 0ebd 8e89 c4bb
000002e0: 8f96 81bd 37ea 273d 5104 0a3c 7a19 163d
000002f0: 19a5 95b9 8bb8 12bd 51c7 ac3c b709 35bd
00000300: bc23 55bc af42 80bd 95bb f53d 4f36 853d
00000310: 5f70 9f3d 5d0f 4abc a3e7 d1bd c337 6ebd
00000320: a028 823c 3743 7f3d 943b a63d d04f 8c3d
00000330: 806e 393d 98d5 efbd 9e7c 4cbd 8568 07bc
00000340: ab25 12be cb67 e9bd 19f4 28be 3fb0 babd
00000350: fcbf e63d 8f66 013d 8823 eb3d 23e8 053e
00000360: deb3 0fbe 3c13 d9bc ee4a 803d 9fd2 aaba
00000370: d975 5bbd 8f02 54bc cda0 5fbe ae13 3e3d
00000380: 5753 443d def4 ea3c cdb4 c5bd 0272 573d
00000390: 99e2 48bd 9c00 d03c aab7 273d 6b96 88bd
000003a0: b4dd 083d f744 f03d d7f0 87bc 6cff da3c
000003b0: 6405 26bd bb56 ca3d dbe0 ec3c b3b1 83bd
000003c0: c714 4a3d 0bef b7bd 4ed7 adbc e808 4c3d
000003d0: 03c2 433d da67 f6bc d90e aa3a 3368 02bd
000003e0: 25bd 6ebc 4122 1b3c afb6 93bb 5675 99bd
000003f0: 0c96 e03c 7b2c 77bd d43b 8c3d 8b86 b93c
-0.07185347 0.11445762 0.0043662395 0.057797454 0.06576876 -0.059966125 0.043585226 0.026697256
0.011907529 0.020963892 0.005698541 0.04182238 0.11385434 0.011293279 -0.0016380966 0.012445356
0.12851265 -0.048468143 0.05382654 -0.08012629 -0.0136046475 -0.0010145793 0.016715078 -0.14364764
0.046861455 0.060790334 -0.13797842 -0.09880117 0.05017531 0.03684819 0.023427144 0.0020651307
-0.0029677125 -0.046384685 -0.10124377 -0.020557644 -0.06019433 0.0028489036 -0.0036129314 0.036570907
0.032763284 -0.03129327 0.011808873 -0.032626927 0.07444969 -0.0060714325 -0.007788398 0.021238208
-0.028063137 0.056204878 -0.047890905 -0.121128306 0.009880713 0.09672702 0.07772945 0.03557176
0.06606009 -0.08996954 -0.004947626 -0.021382298 0.06062433 -0.059243236 0.005411206 -0.026202336
0.023252297 0.07798077 -0.18833174 0.058322698 -0.004333143 -0.0671176 0.03341856 -0.07586346
0.0231409 0.046368938 -0.049170244 -0.060031895 -0.033889286 -0.0041156607 -0.0075602834 -0.07408762
-0.010260202 -0.048245575 -0.15460058 -0.017749356 0.072752275 -0.00024679606 -0.12698701 0.1201441
0.038613208 -0.058650877 -0.10238201 0.0134607535 0.051504422 0.012919497 0.0017756074 0.06669895
-0.040231884 -0.00931782 0.0587993 0.07704508 0.1530226 -0.093397036 0.09015429 -0.097939
-0.045652002 0.012367457 -0.06181886 0.11347019 0.12599777 -0.042920027 -0.08933536 0.008027291
-0.042749025 -0.04112016 0.03986337 0.065014474 0.023814648 -0.03289677 0.030374689 0.09170125
-0.05124672 -0.054421503 0.12875584 0.015643807 0.0049530216 -0.03537946 0.0142683685 -0.025420249
-0.119454116 0.019281248 0.0677939 -0.011498669 0.045669597 0.024677675 -0.014013325 0.144886
-0.030375797 -0.15668164 0.10505989 -0.088896595 -0.043668967 0.0600341 -0.079397485 0.06480612
0.029267736 -0.020198118 0.062004577 0.1174896 0.008189332 -0.07960039 0.0014838052 0.09350184
-0.10251799 0.11952106 0.016198307 -0.026463771 -0.07050372 -0.059559803 -0.04547038 -0.14388417
-0.083515584 0.03515304 -0.023528153 -0.008887728 -0.048200373 0.030130563 -0.016568808 0.02101405
0.033325795 -0.003092534 -0.12452108 0.04417607 0.011367953 -0.06460322 0.068002865 0.0023731012
-0.13001567 0.14013603 0.0034980732 0.08347236 0.0552797 0.062055036 -0.03475623 -0.005997843
-0.06327545 0.04099485 0.008423881 0.03664539 -0.00028542502 -0.035820525 0.021091135 -0.044198718
-0.013009008 -0.06262719 0.11998669 0.06504499 0.07785105 -0.012332764 -0.10249259 -0.058158647
0.015888512 0.06231996 0.081168324 0.068511605 0.045271397 -0.11710662 -0.04992353 -0.0082646655
-0.14272182 -0.1139675 -0.16499366 -0.091156475 0.11267087 0.031591948 0.114813864 0.13076834
-0.14033458 -0.02649843 0.06264292 -0.0013032741 -0.053579185 -0.012940063 -0.21838684 0.046405487
0.04793104 0.028681215 -0.09653626 0.05259896 -0.049044225 0.025390916 0.04094664 -0.06669315
0.033414558 0.11731904 -0.016594334 0.026733123 -0.040532485 0.09879824 0.028915813 -0.06430378
0.04933622 -0.08981141 -0.02122083 0.04981318 0.047792446 -0.030078817 0.0012974396 -0.031837653
-0.014571463 0.009468616 -0.0045078616 -0.07493083 0.027415298 -0.060345154 0.06847349 0.022647163

Conv_BN_ReLU2.3.bias f4 [32]
00000000: 8547 193d 4f34 1fbd 56f1 8ebc 0e50 58bb
00000010: ced1 e9bc 1096 5fbc cc79 413c c678 e7bc
00000020: 26af 863d b431 90bc b5bc 403d 2798 33bd
00000030: 7eff 20bd ae42 06bd bf2c a93c 42dc 513c
00000040: 51a3 55bd 9330 8a3c 1ceb 4cbc 7c48 a9ba
00000050: f527 653d 030d 88bc 9212 153a ea16 9a3c
00000060: c098 7d3d 4422 dbbc cdd8 ecbc cc8a 9fbd
00000070: 462f 22bd d4e5 273d 3299 833d 9758 193c
0.037421722 -0.038868245 -0.017449062 -0.00330067 -0.028542425 -0.0136466175 0.011808824 -0.028255831
0.06576376 -0.017601825 0.047054965 -0.043846276 -0.039306156 -0.032778434 0.02065122 0.012808861
-0.052157704 0.016868865 -0.012507226 -0.0012915279 0.05594631 -0.016607767 0.0005686666 0.018809754
0.061913252 -0.026749738 -0.028911972 -0.07790145 -0.039595865 0.040990666 0.06425704 0.0093595

Conv_BN_ReLU2.4.weight f4 [32]
00000000: 4ee0 873f f0b6 6c3f 183c 733f 4a7d 723f
00000010: 02b1 813f 3837 833f 7366 823f b0de 803f
00000020: 3b9d 833f 15f0 823f 56f3 7a3f a5c1 813f
00000030: f654 693f 7065 633f 0c9a 793f 7629 773f
00000040: 541f 723f a800 7a3f d1b9 743f e365 6c3f
00000050: ec6c 763f 121d 803f 67cf 6a3f c8a5 873f
00000060: 9fdf 803f 4774 723f 7ff4 693f 4d54 6d3f
00000070: ac87 6e3f 14a8 7c3f 3113 7f3f 3f56 7f3f
1.0615327 0.9246664 0.9501357 0.94722426 1.0132143 1.0251226 1.0187515 1.0067959
1.0282358 1.0229517 0.9802755 1.0137221 0.91145265 0.88826656 0.9750068 0.9654764
0.9457905 0.9765725 0.95596033 0.92342967 0.9625995 1.0008872 0.9172272 1.0597467
1.0068244 0.94708675 0.91388696 0.9270676 0.9317577 0.98693967 0.9963866 0.99740976

Conv_BN_ReLU2.4.bias f4 [32]
00000000: c8d5 80be 7959 2dbe b898 b6bd 0d68 81be
00000010: 882d 2dbe 8d75 00be a28a 2abe 2940 96be
00000020: 3f11 90be c95b 0fbe d6a8 8abe ca0e 25be
00000030: 20aa 99be 3527 61be 01ef 7bbc d096 a0be
00000040: b0f2 4ebe ece5 85be 5e8e 81be 90ea 95be
00000050: 79d3 2abe 6268 76be b714 3abe c5a3 d6bd
00000060: cbd9 3cbe 2776 9ebe 10ba 70be 9dfd 59be
00000070: 7818 46be dba4 b0be 6b72 62be 2c1c b2bd
-0.25163102 -0.16928662 -0.089158475 -0.25274697 -0.169119 -0.12544842 -0.16654447 -0.29345825
-0.28138158 -0.13999857 -0.27081937 -0.16118923 -0.30012608 -0.21987613 -0.015376807 -0.3136506
-0.20209765 -0.2615198 -0.2530393 -0.2928052 -0.16682233 -0.24063256 -0.18171965 -0.10480455
-0.18442456 -0.30949518 -0.23508477 -0.21288152 -0.19345272 -0.34500775 -0.2211396 -0.086967796

Conv_BN_ReLU2.4.running_mean f4 [32]
00000000: e5b8 a5bd 32a1 6bbe f074 18ba 6c4e 43be
00000010: 949f 6ebf c5e4 9cbf 0cc5 15bf ad47 08bf
00000020: e38a 96bf 5b17 76bd c14a 95bf aaca 91bd
00000030: 78da bf3e 11c2 2abc 88c1 cebe ba23 08bc
00000040: b592 46be 7196 d6be 66f0 2bbf 1c0f 1fbf
00000050: 1534 1fbf 04ef 50be 869e babe 2afe e6be
00000060: de71 aebe 8e38 19bf b318 3ebf b183 15bf
00000070: fe4a 2ebf 5148 40be 95ef 5dbf 951e 953c
-0.080919065 -0.2301071 -0.0005815765 -0.19072884 -0.93212247 -1.2257315 -0.58503795 -0.5323437
-1.1761135 -0.060080867 -1.1663438 -0.07118733 0.37471366 -0.010422246 -0.40382028 -0.008309299
-0.19391902 -0.41911653 -0.67163694 -0.6213243 -0.62188846 -0.20403677 -0.3644907 -0.45115787
-0.3407125 -0.5985192 -0.7425644 -0.5840407 -0.6808318 -0.18777587 -0.866937 0.01820306

Conv_BN_ReLU2.4.running_var f4 [32]
00000000: eac8 d03e 4a64 ba3e aaad 0c3f 1db4 d83e
00000010: 4cd1 183f 2bce 0a3f 8afa fe3e f39a ee3e
00000020: e986 013f 6e7a 3b3f 1df4 243f 4025 eb3e
00000030: 7e5e dc3e 583d ea3e 2d7f 1b3f abeb d93e
00000040: 2cb0 a33e 691f f03e 5d81 0e3f 93da f93e
00000050: 2446 023f 4bfb cb3e 3214 013f 760c 283f
00000060: d6db 0e3f 7667 e03e b706 1b3f dc30 103f
00000070: f4df 133f 0b9c fd3e 5c9f 393f 7546 e33e
0.40778285 0.3640464 0.5495249 0.42324916 0.5969436 0.5422084 0.4980052 0.46602592
0.5059648 0.7323369 0.6443499 0.45926857 0.43040842 0.45749927 0.6074093 0.42562613
0.31970346 0.46898964 0.5566614 0.4879957 0.50888276 0.3984016 0.5042144 0.65644014
0.55804193 0.43828934 0.6055712 0.56324553 0.577636 0.49533114 0.7250879 0.44389692

Conv_BN_ReLU3.0.weight f4 [32, 32, 3, 3]
00000000: 600c fe3d 6a4e a43c ce21 27be c6c4 bb3d
00000010: 3e19 8bbd ef41 acbd 87ad c2bd 8e7a 66bd
00000020: 105e 95bd 8a12 a4bd be4d d93c c743 9f3d
00000030: 22c0 82bc 1e25 70bd af46 a93c 4e22 f4bc
00000040: c412 03be 25e1 4bbb 9dde a73c 4f65 2fbd
00000050: cf41 bfbc 2421 6e3c d052 983d 6542 453d
00000060: 78da 8138 aa4a db3d 5824 b7bc eb61 b2bc
00000070: 4bbc 6ebd ee99 3dbe 44ae 053c 2315 cebc
00000080: 66f6 253b 709c cc3c d7d3 963d 79c8 913c
00000090: ff3f c43d 4cb5 353c 2b82 83bd 8620 23bc
000000a0: 870b 3fbd fae6 9abd 7385 d43c 37f5 93bd
000000b0: 3aa9 adbd cf0b 83bd 8269 a8bc 29c3 b83c
000000c0: d6ed 9d3d 7d61 dbbc 9eca 28bb f612 d13d
000000d0: 2d3a ee3b 2b60 d43d f5c5 773d c92e 293d
000000e0: ba60 c2bd 5dda 993d ad9a 0e3d 28af 25bd
000000f0: a972 bb3d 08a8 033e 78dc f3ba 0baa 3b3e
00000100: bc58 eebb 3df6 453e c90a 85bd 5fc6 843c
00000110: abd6 cfbd 9592 d6bd 6f79 20be 5799 4cbe
00000120: df9e 16be 6076 2bbc 61f8 693c 6798 39bd
00000130: 3a2d a93c 1ec7 11bd 70e3 123d 3043 c73d
00000140: 3eee 9a3c b203 10bd 4543 d33d 10e6 e33d
00000150: 4faf d83c e149 2d3d 76bf 973d dbd2 5d3d
00000160: bd94 f63c d4fb e83b e78e 2cbd 9a0f 41bd
00000170: 9b12 f1bd c0a9 7c3d a996 5d3d e6b4 413d
00000180: 040a b53c d778 81bd de6e d73d d67c 97bc
00000190: ca26 a5bc da7c 97bd 6c28 1b3d 65e8 9c3b
000001a0: 82f7 a8bb 7634 b23d 8fdd 20bd 0044 bf3d
000001b0: 9f6a 3a3d 164e 9ebd 3012 cfb9 65e2 a73b
000001c0: 9f45 a9bd da7e a7bd afec b1bd c5ba ffbc
000001d0: 376a bf3a 0a3c 46bd e2ac 25bd 3480 6b3c
000001e0: 8a59 e13d 368c f23d a74b 843d 12d5 cabb
000001f0: e159 d53d 1024 f13c a30a 8cbd 210a 8e3d
00000200: 3243 ed3c 74b2 d6bb 829c a53d 49ff 76bd
00000210: 064e 69bd 9815 a63c ba6b 63bd 5952 393b
00000220: aa58 c8bc 3e3e 8b3c 3a38 f4bb d7ee 4d3d
00000230: e244 0fbe 079a f6bd 6dd6 febd ae49 91bd
00000240: 7c44 853c 6100 a13c f018 b53c 5b0e b63d
00000250: 8331 cfbc 5a6a 853d 0c00 82bd 0f75 3abb
00000260: 4be3 a6bd 5a34 e9bc ddb5 a2bd 83e5 0a3c
00000270: cf4e 853c 715d 153d 0ce4 87bd d51e 8ebd
00000280: 7f06 cabd 55c7 88bd ab28 b4bc a16f 60bd
00000290: dab0 9f3c 5ae7 82bb 8aea 43bd 1b10 fe3c
000002a0: 87ab 0ebc ee6a 58bd c3de 7f3d 5d56 6bbb
000002b0: 3dc9 0ebd 26cb df3d e6eb a53b a239 0abc
000002c0: 8b73 22bd 9d0e 79bd 2a16 dd3c d817 e9bd
000002d0: a12b 793d d522 c73d d289 9ebd bea5 9abc
000002e0: b4b2 cd3c b89f cbbd fb50 b8bb e87b 88bb
000002f0: 2266 73bd 2770 d43c 0f65 6c3d 86cc 9abd
00000300: f9ad 823c dc11 44bd a025 a03c e147 113d
00000310: c36d 1f3d 74bc a1bd 5a71 343c 899d 43bd
00000320: 9af5 9abc 3752 e3bd 988e 72bb f493 85bd
00000330: c667 f1bd 6cd3 2ebd cdca a4bd c122 dabd
00000340: 8ba7 523d 3d31 023e 1143 41bd 3d21 c53d
00000350: 4dba 043d bfeb b3bd 401e 843d e237 82bd
00000360: b8e3 053e 3700 cabc 8ea2 023e 134a e2bb
00000370: a7f5 52be 0eed e83d e867 22bd 8d0d 3dbe
00000380: dd0f 0cbe 714a 83bc e01b 8abd a3d4 a8bc
00000390: c814 7cbd 90ab a8bd 8f8c d7bd 02ad 2cbe
000003a0: 0765 0dbe c109 11bd 7fca 2e3e 5ba4 533a
000003b0: 9a6b babd f9b1 f53c 6a78 9dbd 5f36 bdbd
000003c0: 206f 4fbe 918d 19be f7ca 57bb e87f 183c
000003d0: 658a 823d 5a62 49bd ab37 db3b f2b3 963c
000003e0: 1243 02be 6320 8a3d 7023 39bc 5192 e33a
000003f0: e3f7 ecbc 0316 b0bc 68fa d53b be28 6c3d
0.12404704 0.020056922 -0.16321489 0.09168391 -0.06791924 -0.08411013 -0.09505754 -0.05626922
-0.072933316 -0.080113485 0.026526328 0.077765994 -0.015960757 -0.058629148 0.020663587 -0.029801514
-0.12800127 -0.0031109538 0.020491892 -0.042821225 -0.02334681 0.0145342685 0.0743767 0.048159022
6.191892e-05 0.107076004 -0.022356197 -0.021775207 -0.05828504 -0.18515751 0.008159224 -0.025156563
0.0025323867 0.024976939 0.07364624 0.017795788 0.09582519 0.011090588 -0.06421312 -0.009956485
-0.046641853 -0.075635865 0.02594254 -0.072245054 -0.08479543 -0.06398737 -0.020558123 0.022553997
0.07711379 -0.026779884 -0.0025755535 0.10208695 0.0072701187 0.10369905 0.06049152 0.041304383
-0.094911054 0.075123526 0.03481548 -0.040450245 0.09152729 0.12857068 -0.0018605134 0.18326585
-0.0072737616 0.19332214 -0.06496198 0.016207872 -0.101483665 -0.10477177 -0.15671323 -0.1998037
-0.14709042 -0.0104652345 0.01428041 -0.045311358 0.020651449 -0.035590284 0.035861433 0.09729612
0.01891243 -0.035159774 0.10315565 0.11127865 0.026450781 0.042306785 0.07409565 0.054156166
0.03010022 0.0071100984 -0.04212847 -0.04713402 -0.11771127 0.061685324 0.05409876 0.04729166
0.022099502 -0.063218765 0.10519193 -0.018492144 -0.020160098 -0.073968604 0.037880346 0.004788446
-0.0051564584 0.087014124 -0.039273795 0.09339142 0.045511838 -0.077297375 -0.00039495667 0.005123424
-0.08265232 -0.08178492 -0.08687722 -0.031216988 0.0014603798 -0.0483971 -0.040448077 0.014373828
0.11003406 0.11843149 0.06459742 -0.0061899507 0.10417534 0.029436141 -0.06837966 0.06935526
0.028962705 -0.006552035 0.08086492 -0.060302053 -0.056959175 0.020273969 -0.055522658 0.0028277843
-0.02445634 0.016997453 -0.007452992 0.050276604 -0.1399112 -0.12041097 -0.12443242 -0.070941314
0.016268007 0.019653501 0.022106618 0.08889457 -0.025292164 0.065144256 -0.06347665 -0.002845112
-0.081488214 -0.028467346 -0.07944844 0.008477571 0.01627293 0.036466066 -0.06635293 -0.069394745
-0.0986452 -0.066786446 -0.021992048 -0.054793958 0.01949351 -0.0039948644 -0.047831096 0.031013539
-0.0087078875 -0.05283635 0.0624683 -0.003590963 -0.034859885 0.10927419 0.0050635217 -0.008436592
-0.03966097 -0.060804952 0.026988108 -0.11381501 0.060832623 0.097234406 -0.07741131 -0.01887786
0.025109626 -0.09942573 -0.005624888 -0.0041651614 -0.059423573 0.025932385 0.057713564 -0.07558541
0.015952097 -0.047868595 0.019549191 0.03546894 0.038923036 -0.07897273 0.011013353 -0.04775766
-0.01891594 -0.110996656 -0.0037011262 -0.065223604 -0.11787371 -0.042682096 -0.08046494 -0.1065116
0.051429313 0.12714095 -0.0471831 0.0962548 0.032404233 -0.087851994 0.06451082 -0.06358315
0.13075149 -0.024658306 0.12757322 -0.006905803 -0.20601521 0.113733396 -0.039649874 -0.184622
-0.13677926 -0.016026707 -0.06743598 -0.020609206 -0.061543256 -0.08235848 -0.10524856 -0.16862872
-0.1380807 -0.035409693 0.17069434 0.0008073502 -0.091025546 0.02999209 -0.07688983 -0.09238886
-0.20257235 -0.1499541 -0.0032927373 0.009307839 0.06374053 -0.04916606 0.0066899857 0.018396351
-0.12720898 0.067444585 -0.011299953 0.0017362331 -0.028926795 -0.021494871 0.006530095 0.057656042

Conv_BN_ReLU3.0.bias f4 [32]
00000000: 1141 413d 1036 b23d 6920 ebbc b170 f53c
00000010: 07e5 b63b 2268 e93c 2838 2cbd 4042 af3c
00000020: 7b0d 83bd e2bd 003d 0b6a 203d 470a 283d
00000030: 7a98 953b 0a7c 613d 923f 253d 2f4c f1bc
00000040: 6594 f2bc b5ef ce3c 8627 283d daeb 30bd
00000050: 2588 7d3d 28e6 d139 da2c f03c b203 643d
00000060: 6362 acbc a256 8dbc f9bb 563d 0bd9 52bd
00000070: f71d 653d 9dc1 773d b51b 6d3c 548c 84bd
0.047181193 0.08701718 -0.028701978 0.029960962 0.0055815014 0.028492037 -0.042045742 0.021393895
-0.063990556 0.031431086 0.03916363 0.041025426 0.0045652958 0.055049933 0.04034383 -0.029455272
-0.029611776 0.025260786 0.041053317 -0.043193676 0.061897416 0.00040035066 0.029318262 0.055667587
-0.021043008 -0.017253224 0.05242536 -0.05147652 0.05593678 0.06048738 0.014471938 -0.06472078

Conv_BN_ReLU3.1.weight f4 [32]
00000000: 2371 833f 8857 723f a72e 783f c693 7d3f
00000010: f92e 7b3f 1d1c 863f 7ec0 863f d28d 753f
00000020: 6d53 813f 9cea 673f 73fe 6e3f 1ce9 7c3f
00000030: 227e 833f 5f3c 893f 5d47 753f bb78 803f
00000040: 980c 8e3f deb5 733f f542 7a3f 77ea 773f
00000050: 4bc2 713f 2a86 833f 21dd 7f3f d5a6 823f
00000060: 48dc 723f 4822 813f 3e2d 893f f6f9 823f
00000070: 3a48 773f 5be7 713f 5dfd 7d3f 3d40 7f3f
1.0268902 0.9466481 0.96946186 0.9905361 0.9811855 1.047733 1.0527494 0.95919526
1.0103585 0.9059236 0.9335701 0.98793197 1.0272868 1.0721549 0.95812017 1.0036844
1.1097593 0.9519938 0.9775842 0.9684214 0.9443709 1.0275319 0.9994679 1.0207163
0.9486737 1.0088587 1.0716932 1.0232532 0.96594584 0.94493645 0.99214727 0.99707395

Conv_BN_ReLU3.1.bias f4 [32]
00000000: 14e0 c3bd 45b0 9bbe ce8a 84be c419 17be
00000010: 3422 37be a278 47be 8243 54be 1bad 8bbe
00000020: 989c 5bbe 8283 04be 214b 42be d4bd 81be
00000030: 3d49 06be c3af 29be 5417 a1be ac66 dbbd
00000040: 2f17 d8bc 7d1a 8abe d40c 58be 29d8 23be
00000050: 78af 4dbe 0683 62be 5b17 67be cfc3 1ebe
00000060: f1cc e1bd 01a5 7bbe d81d 32be bcc8 4bbe
00000070: edda d2bd cccc 07be 3658 44be fdd0 06be
-0.09564224 -0.3040792 -0.2588715 -0.14755923 -0.17884141 -0.19479612 -0.20728877 -0.27280506
-0.21446455 -0.12940791 -0.18973972 -0.2534014 -0.13113876 -0.16570954 -0.3146311 -0.107129425
-0.026378242 -0.26973334 -0.21098644 -0.16000427 -0.20086467 -0.22120294 -0.22567503 -0.15504383
-0.110254176 -0.24574663 -0.17394197 -0.19900793 -0.10295663 -0.13261718 -0.19174275 -0.1316566

Conv_BN_ReLU3.1.running_mean f4 [32]
00000000: 289f 8cbf 2ea5 0940 6855 493d 9d8c 20be
00000010: 3f19 acbf ee6b 903e 6225 c8be 7973 923f
00000020: 330c c8bf f76a 693f 59c9 73bf 65c1 283f
00000030: 5a35 f1be 0f95 243e e028 283f 5bd3 493e
00000040: 42b8 84bf 4d1d c03c e697 63bd 01bd 413e
00000050: 538f 2b3f 7ec2 b73e 7d08 4d3f cefa 41bf
00000060: 21b8 12be 83d6 8f3e 84a0 14be 0fcc 8a3e
00000070: 6a23 4b3e 83a9 71bf 6bae ddbc 13b4 48bf
-1.0986071 2.1507068 0.049153715 -0.1567864 -1.3445204 0.28207344 -0.3909102 1.144149
-1.5628723 0.9117884 -0.9522911 0.65920097 -0.47111017 0.16072486 0.6568737 0.19709532
-1.0368731 0.023451472 -0.055564784 0.18919756 0.6701557 0.35890573 0.8009108 -0.7577332
-0.14328052 0.28093347 -0.14514357 0.2710881 0.19837728 -0.9439928 -0.027060708 -0.7839977

Conv_BN_ReLU3.1.running_var f4 [32]
00000000: 3204 933f 7e8e 643f cca8 103f 2000 593f
00000010: 460b 4c3f 19b1 2b3f 60d2 173f ddd6 103f
00000020: ff3d 693f 90c3 433f 4351 233f 74c7 373f
00000030: 4f25 233f 4f02 1b3f bec9 0f3f e77b 233f
00000040: 2125 2f3f 0f95 333f 1d7b 183f 6c31 3e3f
00000050: 5ad9 1d3f e073 313f e6c2 293f df2c 6e3f
00000060: e950 243f d328 3a3f 1c6c 293f 4acc 463f
00000070: 2f80 353f fa88 333f fa05 273f 9791 0c3f
1.1485655 0.89279926 0.56507564 0.84765816 0.797047 0.67067105 0.5930538 0.56577855
0.91110224 0.7647028 0.6379587 0.71788716 0.63728803 0.605504 0.5616721 0.63860935
0.6841603 0.7014932 0.59562856 0.7429416 0.6165978 0.69317436 0.66313016 0.9303722
0.6418596 0.7271854 0.66180587 0.7765547 0.7089872 0.70130885 0.65243495 0.5490965
