CA04/checkpoints/checkpoint.pth (torch, 710925 bytes, 143 tensors)

Conv_BN_ReLU1.0.weight f4 [16, 3, 3, 3]
00000000: 1fdf 7fbd 3431 b0bd 278d af3b d6a8 373e
00000010: 42d1 203c f02a f33c e452 d1bc 7f76 1f3d
00000020: 6f3c 54bd 9bcd 7e3d 5f7d 39bc 1e7e 31be
00000030: 15ef 3cbc f12c 35bb 602b c73d 0c81 363d
00000040: bebb ce3d 10be 9cbb 7da4 07be 0bfd 2bbe
00000050: 4439 1bbe 8c0f 03bc 24af 19be 5936 e4bd
00000060: 7cd3 013e 07a8 623e d9b6 123e 3864 253d
00000070: 46f2 f0bc 52ae bfbd ff6e d03d f305 9cbd
00000080: b9c8 103d 084d 75be 2e06 6d3d 8d9e 113e
00000090: dcd6 02be adcb 3e3b 691d 283e 5cca 0ebe
000000a0: 1d8a fdbd 590f 4a3e 7c5e 0abe 533c a63d
000000b0: eb33 513e 5447 9b3d b11e db3c 0f23 8fbd
000000c0: 1fa0 41be 4047 8cbc 61f1 1a3e 5aed 0bbe
000000d0: fb53 023e 9e4c 94bd d9de 4abc c11a bcbd
000000e0: e55d 263e 49c4 3bbd f4be 1f3e a771 e7bd
000000f0: cff5 45be b7e1 45be ac30 86bc df23 b43c
00000100: 7ad9 1e3d fbe7 1f3e 49c2 cfbd 931e 163e
00000110: 992e 9b3d 559a 2abe dbe0 203e a5d4 843d
00000120: 675e 903d 1b42 58bd cc6d 443e 2830 e3bd
00000130: d510 cdbd 3a31 24be edd0 ad3d 61cd 293e
00000140: 117b f6bd 9abf 4f3e c4fc 973d 6853 05be
00000150: ccc9 04be 37c7 373d cac0 133e d935 703d
00000160: fdd0 37bd 5400 2d3d c6fd a23d f29e 9e3c
00000170: c10b 58bd 9c53 f6bd 6254 13be 7a33 d73b
00000180: aa7b 5fbe a619 4cbe 4cec 37be 2725 cfbd
00000190: b1fe ce3d be14 093e 377f 133e 663f 5b3d
000001a0: 2e7b e73d 4332 1bbe 7053 073e 5f03 693d
000001b0: 6af5 823d 025b c3bb 15ab 1a3e f622 a4bd
000001c0: f6ab 173e d379 ffbd eeef fbbd 97de 2e3c
000001d0: e9bd 45be 89c1 2e3d 13a2 6f3d 5124 1ebe
000001e0: 6055 4d3e 5404 103e d8e1 35be 65c9 af3d
000001f0: 0732 c0bd b97e 4bbe 1435 bc3d 1640 a3bd
00000200: fd42 09bd e477 423e 4967 30bd e511 873d
00000210: c828 04bd fe96 863d 1dc9 df3c e6ef 69bd
00000220: dd06 27be bf0b bf3d bcd1 93bd ad2b 383e
00000230: ebba 253e bfbb f3bd 9184 be3d b68d 4d3e
00000240: cf4b e63c 3fb4 a03d c5a5 743d 2afc cfbc
00000250: a042 95bc d86a 0a3e cd02 74be 300b d6bd
00000260: 6610 0ebe efbe fcbc 67fa 6abd 737b d1bd
00000270: 0da3 0cbe 50f9 aabd bd25 ad3d 9b2b e63c
00000280: b889 dc3c 1682 3f3e ec5e 22bd 259e e2bc
00000290: 4d97 8b3d 2899 97bd 09d1 37be 9f2b 3f3e
000002a0: 9df2 b2bd 3529 27be 8c04 39be 5595 163b
000002b0: 10b4 d7bd 4365 473e 1b58 c8bc 0e46 4abe
000002c0: b783 363c 8b80 0bbd a880 523d 95a4 f9bd
000002d0: 70b8 0cbe 5a35 683e 267d 3ebd 4c28 263e
000002e0: 3c75 073e bd5b 42bd 60f1 183d 7cc8 3f3e
000002f0: 41a6 593e 8e18 183e 0501 4cbb d713 c73d
00000300: 0ae6 a6bc 0974 d7bb c278 5abd 7ea9 ec3c
00000310: 9024 663e a6c9 b2bd 697c 81bd f98b 06be
00000320: 8603 80bd 08e2 323e d7d0 4bbe 4c61 15be
00000330: 1960 9d3d e8b9 53bd 8232 cdbd 4784 1c3d
00000340: 506e 073c e50e 85bd f758 a53d 199d d13d
00000350: d6ea 9c3d 0798 a23d dc76 8cbd cdff eabd
00000360: b355 20be dfab ab3d 2b39 8abd 2579 0fbe
00000370: 4147 093e ffa4 f03d 678a 1c3e be0b 2abe
00000380: f310 fb3d 93a9 0abe 20dd 58be 0cbc 4cbe
00000390: 8af1 01be d2d8 803e c536 423e 8c40 dbbd
000003a0: 2fd4 0c3e 4c16 6cbe 2f12 43be 1e80 a13d
000003b0: d5ec 6d3d fbbd ae3d 022f 933e 0f58 89bd
000003c0: a4af e93d 9652 fa3b 29f3 523d 5534 c93d
000003d0: d395 4abe 63a2 45bd acda b23d 2be2 143d
000003e0: de0f 4e3d f21e dbbb 3aae 58bd 086c 923d
000003f0: 9806 a83d 0320 bb3d ae87 673c e6e5 c63d
-0.062468644 -0.08603135 0.005357403 0.179355 0.009815516 0.02968356 -0.02555222 0.038931366
-0.051815446 0.0622078 -0.011321395 -0.17333266 -0.011531611 -0.0027645195 0.0972507 0.044556662
0.10094403 -0.0047833994 -0.13246341 -0.16795747 -0.15158564 -0.007999312 -0.15008217 -0.111431785
0.12678331 0.2213441 0.14327563 0.04037878 -0.0294124 -0.09359421 0.10177421 -0.07618322
0.035347674 -0.23955166 0.05786722 0.14220639 -0.12777275 0.00291131 0.16417469 -0.13944381
-0.12379859 0.19732417 -0.13512605 0.08116975 0.20429961 0.07581964 0.026748033 -0.06989109
-0.18908738 -0.017123818 0.15131141 -0.13664761 0.12727349 -0.07241176 -0.012382233 -0.091847904
0.16246755 -0.04584149 0.15600187 -0.11300974 -0.1933205 -0.19324385 -0.01638063 0.02198976
0.03878162 0.15615837 -0.10144479 0.146601 0.07577247 -0.16660435 0.15710776 0.06485871
0.07049256 -0.052797418 0.19182509 -0.110931695 -0.10012976 -0.16034403 0.08487115 0.16582252
-0.12035192 0.20287934 0.07421258 -0.13020098 -0.12967604 0.04486772 0.14429012 0.058645103
-0.04487704 0.04223664 0.0795856 0.0193629 -0.052745584 -0.12027666 -0.14387658 0.006567416
-0.21824518 -0.19931659 -0.17961234 -0.10114508 0.10107172 0.13386819 0.14403997 0.05352726
0.113027915 -0.15155892 0.13215423 0.05688798 0.06394465 -0.0059617767 0.15104325 -0.08014481
0.14811692 -0.12474408 -0.12301622 0.010673187 -0.19310726 0.04266504 0.058504175 -0.15443541
0.20052099 0.14064151 -0.17761934 0.08583335 -0.09384542 -0.1987256 0.09189811 -0.07971208
-0.03351115 0.18991047 -0.04306725 0.0659521 -0.032265455 0.06571768 0.027317578 -0.05711355
-0.16311212 0.09328412 -0.07217738 0.17985411 0.16184585 -0.11901044 0.09302629 0.2007359
0.02811232 0.07846879 0.059728403 -0.025388796 -0.018220246 0.1351732 -0.23829193 -0.104513526
-0.13873443 -0.030852763 -0.05736771 -0.10228624 -0.13734074 -0.08348334 0.08454464 0.028096965
0.026921138 0.18701968 -0.039641306 -0.0276633 0.06815968 -0.07402259 -0.17950834 0.18668984
-0.08737681 -0.16324313 -0.18068141 0.0022977192 -0.10532391 0.19472222 -0.024456074 -0.19753286
0.011139802 -0.034058135 0.051392227 -0.12189595 -0.13742232 0.22676602 -0.04650607 0.1622631
0.13228315 -0.04745077 0.03733957 0.18728822 0.21254827 0.14853117 -0.0031128537 0.09720581
-0.020373363 -0.0065751118 -0.05333782 0.028889414 0.22474885 -0.08729868 -0.063225575 -0.13139333
-0.06250672 0.17469037 -0.19903885 -0.14587897 0.07684345 -0.051690966 -0.10019399 0.038212087
0.008266047 -0.064969815 0.08073609 0.10235042 0.07661979 0.07939153 -0.06858608 -0.114745714
-0.15657692 0.08382391 -0.06749185 -0.14011057 0.13406087 0.117502205 0.15287171 -0.16606042
0.12259092 -0.1354125 -0.21178102 -0.19993609 -0.12689796 0.2516542 0.18966205 -0.10705671
0.13752817 -0.2305538 -0.19049905 0.078857645 0.05808719 0.0853233 0.28746802 -0.06706249
0.11410454 0.0076392395 0.051501427 0.09824435 -0.19783716 -0.048250567 0.087331146 0.036348503
0.0503081 -0.0066870386 -0.05290053 0.071495116 0.08204383 0.09136965 0.01413147 0.097118184

Conv_BN_ReLU1.0.bias f4 [16]
00000000: e610 afbd a9ec 50bd da51 bcbd c57a af3d
00000010: e216 123c 9457 13be 312a 293d e021 413d
00000020: e546 023e e3ac b43b 902a 2cbc 12ba 6cbe
00000030: 5d03 153e abbf c53d e584 28bd 3c37 943c
-0.08548145 -0.051006947 -0.091952994 0.08568338 0.0089165885 -0.14388877 0.041300002 0.047151446
0.12722357 0.0055137738 -0.010508195 -0.23117855 0.14552064 0.096556984 -0.041142363 0.018092744

Conv_BN_ReLU1.1.weight f4 [16]
00000000: 8b78 853f 7d30 8b3f 7060 803f a325 853f
00000010: 22aa 6e3f 51e9 753f 5bfa 7d3f f833 863f
00000020: a477 6b3f 8148 6d3f 88cd 8a3f 44a9 633f
00000030: 2c76 853f 9b9b 6f3f 3df6 6a3f 0bf1 7a3f
1.0427412 1.0874172 1.002943 1.0402111 0.9322835 0.9605914 0.9921014 1.048461
0.9197943 0.9268876 1.0843973 0.88930154 1.0426688 0.9359681 0.9178198 0.9802405

Conv_BN_ReLU1.1.bias f4 [16]
00000000: 7cab ba3c 7f81 4b3e aa19 583e 464d 123d
00000010: a218 6b3e 899d 3b3e e8fe 09be c9cc 783c
00000020: df9d ca3d a389 42be cbf0 d03e 4e1b 25be
00000030: 72b9 b03c 2ff7 323e 69ce 6cbe 21a6 4cbd
0.022786848 0.19873618 0.2110354 0.035718225 0.22958615 0.18321814 -0.13476145 0.015185543
0.09893393 -0.18997817 0.4080871 -0.16123697 0.021572802 0.17477106 -0.23125614 -0.04996312

Conv_BN_ReLU1.1.running_mean f4 [16]
00000000: f2da eabd c72f 82bd 9f44 acbd 0001 333d
00000010: 573d 493b 6c95 0ebe 7ca1 b93c ed65 da3c
00000020: d6fa 0e3e df0b bbbd a680 70bc 96bc d1be
00000030: ea8b 173e ef86 243d 3421 153e 1976 893d
-0.11467542 -0.06356769 -0.08411526 0.043702126 0.0030706727 -0.13924187 0.02266001 0.02665993
0.13962874 -0.091331236 -0.01467911 -0.40964192 0.14799467 0.040167745 0.14563447 0.067119785

Conv_BN_ReLU1.1.running_var f4 [16]
00000000: e67b dc3b 440a ce3b 10a6 833b de99 b73b
00000010: d646 af3b 5b1c bc3b 7b40 b13b 5a48 783b
00000020: 528a e23b abb6 453c 762c 713b e3be b13c
00000030: 8e61 dd3b 5e95 a33b f0bb 8d3c 87d2 a43b
0.006728637 0.006287845 0.004017599 0.005603059 0.0053490205 0.005740685 0.005409298 0.0037884922
0.0069134617 0.012067477 0.0036800182 0.021697467 0.006756014 0.004992171 0.01730153 0.0050299796

Conv_BN_ReLU1.3.weight f4 [16, 16, 3, 3]
00000000: b818 133d 433a dcbc afe5 d0bc 7952 88bd
00000010: 766c 933c fe7e 443d 3167 72bd b9de cc3c
00000020: 6dd8 e43d c367 83bd c0dc 8d3d 8b60 273d
00000030: 0362 8d3d e228 50bd 656a 7b3d f70c 773d
00000040: 8eca 96bd 90b9 dabd f54b bcbd 31b1 9ebc
00000050: f17b 45bd 7a26 16be e023 233c 9d56 85bc
00000060: 20b9 6ebd ecfb 99bc 060a 8fbd 471f 893d
00000070: 7eae 4abd a97a 753d 78c5 e43c f3c7 0dbd
00000080: 53af 813c 632e 40bb 7286 4fbc 9d1b 0bbd
00000090: 0a49 183d 7700 c73b a706 013b 1cb7 b0bd
000000a0: 9536 b3bc b7b9 d7bd aaf1 0fbd aaf9 143d
000000b0: ef05 993c 388c 77bc f88b 49bc 6e1d b23d
000000c0: e031 183d fe4f 5f3c c9a5 84bd 4ad3 a0bc
000000d0: 0e6e 453d 3620 07be e481 07be 0401 ae3d
000000e0: 05f2 07bd 5548 07be e85e b03d aea5 153e
000000f0: 8172 c9bc 0680 7dbb c29a 38bc f48a 9e3d
00000100: e477 fd3c 3749 ecbd eb96 983d 1f0f da3d
00000110: b4cb 2e3d 8f6d 1f3d fe36 f83d fa8b 163d
00000120: d9fe 6b3d 62d5 5dba 69c1 e53d 293c d13d
00000130: 3fd9 a4bd d005 aabd c913 8bbc 9ab3 29bc
00000140: d3bd a2bd f64c cc3c 4d76 dabc 87d8 b8bc
00000150: 66ee 0abd 3936 9e3b a673 b53d dd07 84bd
00000160: 55a3 813d e4db 1abd e4af 323d f8fa 43be
00000170: 361d 5cbd c7eb 933c 15d3 c33d 7faa 29bd
00000180: 2101 ce3b a446 373d f1f6 883d 3e0f be3d
00000190: 429a 2d3d d49e 013d 5490 8cbd 160a ba3d
000001a0: 457b 0e3e 0cd9 b63d 4dd8 883d 7bf0 d3bc
000001b0: d9c7 043e 2306 29bd 56a9 e43d 7645 14bd
000001c0: 85a6 7abc b917 b3bb abe2 163e 56e1 0bbd
000001d0: 7e86 033c feb9 35bd b2d6 78bd 818f 9ebd
000001e0: 6c07 e4bd 2e3c 19bd 5cc3 273d 67a0 a83c
000001f0: efbf d9bc f207 d5bb 9d72 c13c 4068 f93b
00000200: e75b 063e db30 f9bc 2651 8e3d fbc1 503d
00000210: 29b4 b03d 2662 adbc 3550 84bc 0832 96bd
00000220: 3521 05be 0451 0a3b 267f 0dbe ac65 a1bd
00000230: b742 b0bc f188 abbc 6711 c2bd c026 a8bc
00000240: e2a8 bf3c bb2f 35bd 4038 d6bd 740a 06bd
00000250: 7ffa bb3d c4f2 f33b 9106 f93c f24d 8dbd
00000260: f204 7f3d 7b94 b1bd 4647 b43d 5ca5 7d3d
00000270: aa9a cebb c095 c23d b6f9 733d 8528 75bd
00000280: 1ca5 393d 1b63 84bd 7ea3 26bb 513e ecbd
00000290: 00e9 c1bc 2333 c0bc ac06 42bb eb74 81bd
000002a0: decf 633d ced8 933b 2e4e 9bbd 75fa 883d
000002b0: 861b 833c d53c 4b3d 2488 f6bc 90fd 833d
000002c0: 3380 9b3d 1ad5 883c 4a80 afbb 3c84 293c
000002d0: d304 8b3d bbcb d2bc 47d4 43bd c5b7 8e3c
000002e0: 675a 923d 5e1b 05bd f567 093e 3853 813d
000002f0: 5de0 a5bd bdf7 a43c 83d4 ca3d 7487 393c
00000300: a05e 4f3d 533c 77bb 49c7 8b3d 95fe abbd
00000310: 98b3 b43b b260 a53c bb28 5abe 3aad 34be
00000320: 71b9 043c d9ec 71be 854c e8bd 3706 efbc
00000330: 63c3 debd 3c90 17be 6568 72bd a6ae 913d
00000340: 683e e0bc 27d5 8abd 6308 8a3d 24ad 2dbd
00000350: 0163 533c 37b5 af3c 4daf 9e3c 43ed 46bd
00000360: 67c9 10bd 8a3a efbd 0227 a7bd 8d3d 58bd
00000370: faa7 5e3b ad2e 7c3d a1a8 05be 32d6 04be
00000380: c903 13bd 352f ba3c e659 5c3d 135d 973d
00000390: 5208 d03d d42e 933d 89fd 893d c0af 0e3c
000003a0: fc77 123d 5e72 953c a9e1 003e 864f 2d3d
000003b0: afaf babd befd ad3d 9027 83bd e8f9 22be
000003c0: 25d1 773c 08b6 aebc 3f15 37be 5262 c4bc
000003d0: 5b0e 4b3d eb90 6f3d 19af 4e3d 2c34 073d
000003e0: be63 bf3c 1ac3 ff3b 5055 96bc c0f8 6ebc
000003f0: 7083 143e aead 8b3d be52 42bd 7a5f 70bd
0.035912246 -0.02688325 -0.025500147 -0.066563554 0.017996054 0.04797267 -0.059180442 0.025008546
0.111740924 -0.06416275 0.0692687 0.040863555 0.0690346 -0.05082024 0.061380763 0.0603151
-0.07362853 -0.106799245 -0.09194175 -0.0193716 -0.048213903 -0.14663115 0.009957284 -0.016276652
-0.058282018 -0.018796884 -0.06984334 0.06695419 -0.049482815 0.05993143 0.027926192 -0.034614515
0.015830671 -0.0029324524 -0.012666332 -0.03396188 0.03717903 0.0060730535 0.0019687803 -0.08628675
-0.021876613 -0.10533469 -0.03514258 0.03637091 0.018679587 -0.015109114 -0.012301438 0.086970195
0.03715694 0.0136299115 -0.064769335 -0.019632 0.04820066 -0.13195881 -0.13233143 0.084962875
-0.033189792 -0.13211186 0.08611852 0.14613983 -0.024590733 -0.0038681044 -0.011267366 0.07741347
0.030940957 -0.11537402 0.0745066 0.10647415 0.042674735 0.038922843 0.12119864 0.036754586
0.05761609 -0.00084622775 0.11218531 0.10216553 -0.08049249 -0.0830189 -0.016977208 -0.010357762
-0.07946362 0.024939042 -0.026667738 -0.022564186 -0.03391876 0.004828241 0.08859949 -0.06446812
0.06329981 -0.03780736 0.043624774 -0.19138706 -0.053738795 0.018056763 0.09561745 -0.041422363
0.0062867557 0.044745103 0.06687725 0.09280251 0.04238344 0.03164561 -0.06863466 0.09083955
0.13914211 0.08928117 0.06681881 -0.025871506 0.12966861 -0.041265618 0.11165111 -0.036199056
-0.01529849 -0.0054654744 0.14734904 -0.034150444 0.008027671 -0.04436683 -0.060751624 -0.07742215
-0.11134228 -0.037410907 0.040957794 0.020584298 -0.026580779 -0.0065011913 0.023614222 0.0076113045
0.13120995 -0.030418804 0.069490716 0.050966244 0.08628113 -0.021164965 -0.016151527 -0.073337615
-0.13000949 0.0021105418 -0.13818035 -0.078807205 -0.021516187 -0.020939322 -0.094759755 -0.02052629
0.02339596 -0.044234972 -0.104599476 -0.032724813 0.09178638 0.0074447114 0.030398639 -0.068996325
0.062260576 -0.086708985 0.08802657 0.061925277 -0.0063050585 0.09501219 0.059564315 -0.059853096
0.045323476 -0.06464215 -0.0025427039 -0.115353234 -0.023670673 -0.023461884 -0.0029606028 -0.063211285
0.05561816 0.004511929 -0.07583271 0.06688396 0.016004335 0.04961856 -0.030094214 0.064448476
0.075928114 0.016703177 -0.0053558694 0.010346469 0.067880295 -0.025731912 -0.047809865 0.017421613
0.07146149 -0.032496803 0.13418563 0.06314701 -0.080994345 0.020137662 0.09903815 0.011323798
0.05062735 -0.0037725165 0.0682512 -0.08398167 0.0055145733 0.02018771 -0.213046 -0.17644206
0.008100853 -0.23625506 -0.1134272 -0.029177768 -0.10877111 -0.14801115 -0.05918159 0.0711339
-0.027373508 -0.06778937 0.06739881 -0.042401448 0.012902022 0.021448715 0.0193707 -0.048566114
-0.035348322 -0.11681087 -0.08161737 -0.052793074 0.0033974634 0.06156795 -0.13052608 -0.12972334
-0.03589228 0.022727588 0.05379667 0.073907994 0.10157837 0.07186666 0.06737811 0.008708894
0.035758957 0.018243011 0.12586083 0.042312168 -0.0911554 0.08495663 -0.0640403 -0.15915644
0.015125548 -0.021327034 -0.17879198 -0.023972664 0.049574237 0.058487814 0.050459955 0.03300874
0.02336299 0.0078052403 -0.018351227 -0.014585674 0.14503264 0.06820236 -0.04744219 -0.058684804

Conv_BN_ReLU1.3.bias f4 [16]
00000000: e299 b33d 0501 d73c 15c2 003d 2bac 463d
00000010: 617b 833d a389 d3bc c09d 163d 8efa e93b
00000020: 29ab af3d 115a afbc 8d83 9d3b b717 40bd
00000030: 1341 583c 7dbe 943d 0bc5 80bd ad33 7a3d
0.08769585 0.026245603 0.03143509 0.048504036 0.06420017 -0.025822466 0.036771536 0.007140464
0.08577568 -0.021405252 0.004806942 -0.046897616 0.013199109 0.07262895 -0.06287583 0.061084438

Conv_BN_ReLU1.4.weight f4 [16]
00000000: 5ba9 6f3f ebfe 723f 2784 853f 6cee 653f
00000010: 189d 713f 94dd 893f a14b 7c3f 1d6c 7d3f
00000020: 1095 763f ef4f 803f e9ea 833f d98f 823f
00000030: a736 653f e0c9 8d3f 30b9 893f 39a9 863f
0.9361779 0.94920224 1.0430955 0.8981693 0.9438033 1.0770745 0.985529 0.9899309
0.963212 1.0024394 1.0306064 1.0200149 0.8953652 1.1077232 1.075964 1.0520393

Conv_BN_ReLU1.4.bias f4 [16]
00000000: fca2 92bb a5c3 edbc 8263 29bd d547 b4bd
00000010: cfed dabd a14b 8ebc c0ce 22bd a8fd 08bd
00000020: ff1f 093d 61ab 1dbc 291f edbd 8a2f ebbc
00000030: ac3c 1bbe 8ac2 ad3d 41de 043d 7d25 febd
-0.0044749957 -0.029023955 -0.041354664 -0.088027634 -0.1068989 -0.017370047 -0.039747953 -0.03344503
0.03347778 -0.009623379 -0.11578209 -0.028709192 -0.15159863 0.08484371 0.03243852 -0.12409494

Conv_BN_ReLU1.4.running_mean f4 [16]
00000000: d27d 58bd d19b fabe 26b6 1bbe 5f69 7cbf
00000010: 2aa5 9a3e e2e0 0ebf e257 40bf a413 06be
00000020: 22ac 5cbe a44c 8ebe 842b cbbe 8d85 0fbf
00000030: 1310 fbbe 5777 83bf 1113 babf ec84 78bf
-0.052854367 -0.48947003 -0.15206203 -0.98598284 0.30204135 -0.55811894 -0.751341 -0.1309343
-0.21550038 -0.27792847 -0.39681637 -0.5606316 -0.490357 -1.0270795 -1.4537069 -0.9707782

Conv_BN_ReLU1.4.running_var f4 [16]
00000000: e950 a33e 1f6e b73f 14b4 173f 90ec 453f
00000010: 7365 593f 636b 473f e03a 653f 1d5e 063f
00000020: 4aa7 0d3f e40c 833f f4bd 283f 6002 123f
00000030: fc67 843f 49b1 913f 70d6 ef3f 920f b13f
0.31897667 1.4330481 0.5925915 0.7731409 0.84920424 0.77898234 0.8954296 0.52487355
0.5533339 1.0238309 0.65914845 0.57034874 1.0344234 1.1382228 1.8737316 1.3832877

Conv_BN_ReLU2.0.weight f4 [32, 16, 3, 3]
00000000: d702 8c3d 31f5 f1bb 5ddb e83c 60a8 29bd
00000010: 9c76 febc d8b7 6cbc 3b5c 05be b8c7 b73d
00000020: b87e fa3c 641f dd3d e56c 2abd 8f1a 0d3d
00000030: b015 2abb d3f6 e13b f90a b2bd 6f39 043d
00000040: c65a 2e3c e144 b5bd 7492 b0bd 99c4 e33d
00000050: 0d43 b7bd a498 173d 74d7 013d 6b48 a23c
00000060: df0b 133e 181a 0ebd c76b 89bd bbf7 a8bc
00000070: c615 74bd 532d 20bd fae7 d53d 7a72 8cbd
00000080: a8d4 94bc 8743 a3bc 1c84 e83c 243e 373d
00000090: c744 0cbe 775f 63bd ab33 b63d 4fd8 31be
000000a0: 04d3 aebd 809a 813d a02c 75bd 883e 163d
000000b0: f773 c53d cda6 92bb 27ed 8d3d cc30 373d
000000c0: fb23 92bd b498 d4bc dd3a 643d 084e 773c
000000d0: fd3b cebd 6246 11bc d9c1 92bd 6e4f 6ebb
000000e0: 3690 a4bd 2914 3a3d f811 fe3b 2d4d 49bd
000000f0: bdb0 1a3e 0de5 5ebc 4465 17be a301 ccbd
00000100: 4971 c8bd c74c 153e b072 c2bd 2ebf 40bd
00000110: de75 873d 9f7a a7bd 9bb6 943c cc89 223e
00000120: 7cfb 083e 7303 e33d 0bbe a9bd 24e1 b13d
00000130: dae6 ff3c 4948 a7bd 4a23 c03d b97a 13be
00000140: dfb8 b9bd 9ac3 683b 90f1 b0bc e661 8d3d
00000150: b02d f0bd aeb5 033d b51d a1bd db31 af3c
00000160: 96d1 f3bd 5df2 52bd af22 12bd f57c b6bc
00000170: f91c 1abc 0737 30bc 4360 f7ba 1649 86bc
00000180: 5f4b debd 4157 b33b fbcf 6dbd e6b6 51bc
00000190: 26e5 83bc d010 a6b9 6eab 4a3d acce 52bb
000001a0: b1ba e73b b6e8 14bd b54d 6abd 0506 7dbb
000001b0: a44d d7bd 4024 073d 228c 26bd a893 edbd
000001c0: dcf3 5abd 6a84 443b 7f96 643d b5f9 2c3d
000001d0: 3fc9 283d 3298 9e3c 78d6 5d3d e784 813d
000001e0: f8e6 373e f3f0 0f3e cef2 d4bd 6f15 773e
000001f0: bb14 8e3d 2602 febd 16c4 5e3d efcf dbbd
00000200: 7148 5d3c ace0 adbc 4b76 62bc e3ec 58bd
00000210: 2372 fb3d 51cb d1bc 5c35 453d c0be 873c
00000220: abee 85bd 1924 3ebb 085d efbc 22de 40bd
00000230: a4ce 7dbd 219f 08bd 60f9 bdbd 4f49 083c
00000240: f93c e23d bb8c 1cbd 35fb 04be a92c 533d
00000250: 4cfd 133d e215 ddbd d975 6f3d 9bd1 09bb
00000260: dd8d debd d92c 973c cbcf cb3c 33f6 04bd
00000270: f9cf 01bd ebec 59bd f682 20be 63b0 a33d
00000280: 7a83 9ebd 6332 26be 9c44 2e3e 9b8a bebd
00000290: ea9a db3b fb51 833d ac9c bdbd a09d 4dbd
000002a0: b31d 173d ce5b 19bc 81ed adbd 9a00 d2bd
000002b0: 465f be3d 9f75 28bd d729 f0bc 1ca9 a13d
000002c0: 5211 b53d 1d48 98bd 781c bcbc 1fd4 5e3d
000002d0: 2a51 4f3d b576 50bc 8a4a a1bd 461e b3bc
000002e0: 983d bebd 67b4 f1bd fc0f a63c eddd 633d
000002f0: 7be1 3ebc 8309 d8bc 0d65 063d 524e 18be
00000300: dbec 713d 0c70 99bd bacc 78bd 0527 483e
00000310: bc69 163e 9d59 f53b fe25 223d eb20 53bd
00000320: 37a8 98bc 6cfe e5bc 8a05 36bc 25c6 4dbd
00000330: 7479 e73d 766e f1bc 9d3e 2bbd 1148 943d
00000340: bbad 31bd 77f2 a53d ff1e 5b3d 8e1a 9e3d
00000350: eaab 00be 054b f6bd 14e9 343d bdf1 2e3d
00000360: d40f febd 5be7 5abd da6b 98bd c852 04bc
00000370: 953b 34ba a83c e2bc f464 a53b 7e3d 1dbd
00000380: 399f 54bd 37a8 323d 4768 d2bd 973a 40bd
00000390: eb16 8c3d 42a1 39bd a41a c6bd 3671 5abd
000003a0: 4f03 04bd 780a 55bd 7a23 d0bc eb75 87bd
000003b0: aee9 e7bc 7b39 243d 8b83 2bbd 7568 cebd
000003c0: 793e e43d d9fa e0bb d410 0ebe 334c b7bb
000003d0: ec1b d7bd d20e b4bd ff27 d63c 1c7c 973d
000003e0: da3e 103d 2042 a0bd 2164 01bd 815e 723d
000003f0: d721 b6bc 8800 dcbc af3a 5cbd 51cd f23a
0.06836479 -0.0073839654 0.028424913 -0.04142034 -0.031062417 -0.014448129 -0.13023464 0.0897364
0.030578002 0.10797003 -0.041607756 0.034449156 -0.0025952868 0.006895879 -0.08693499 0.032281335
0.010641759 -0.08851028 -0.08621684 0.111214824 -0.08948336 0.037010804 0.031699613 0.019809922
0.14359997 -0.034692854 -0.0671001 -0.02062594 -0.059591077 -0.039105725 0.10444637 -0.06857772
-0.018167809 -0.01992966 0.028383307 0.044736996 -0.13698111 -0.055510964 0.08896574 -0.17367671
-0.08536342 0.06328297 -0.05985701 0.03668073 0.09641259 -0.0044754506 0.06929999 0.04472427
-0.07135769 -0.02595172 0.0557202 0.015094288 -0.100700356 -0.008866878 -0.0716588 -0.0036363262
-0.080353186 0.045429382 0.007753607 -0.049145866 0.15106483 -0.013604415 -0.14784724 -0.0996125
-0.097872324 0.1458007 -0.09494531 -0.047057323 0.06614278 -0.08177685 0.01815348 0.15872878
0.13377184 0.11084642 -0.08288201 0.0868552 0.031238008 -0.08168084 0.09381731 -0.14402284
-0.090684645 0.0035516978 -0.021599561 0.06903438 -0.11727464 0.032155685 -0.07866994 0.021386078
-0.1190521 -0.051500667 -0.035677608 -0.022276381 -0.009406322 -0.010755307 -0.0018873293 -0.016392272
-0.1085422 0.005473048 -0.058059674 -0.012799954 -0.016100477 -0.00031674514 0.049479894 -0.0032166643
0.007071816 -0.036354743 -0.057203013 -0.0038608324 -0.10512856 0.032993555 -0.040660985 -0.11600429
-0.05345522 0.0029986151 0.055807587 0.042230327 0.04120755 0.019359682 0.05415961 0.06324177
0.17959201 0.14056759 -0.10397874 0.2412927 0.06937548 -0.124027535 0.05438622 -0.107330196
0.013506041 -0.021225296 -0.013822149 -0.052960288 0.12277629 -0.025609644 0.04814659 0.016570449
-0.06539663 -0.0029013215 -0.029219165 -0.047086842 -0.061964646 -0.033354882 -0.0927608 0.008318259
0.11046786 -0.03822015 -0.12986453 0.051556263 0.036130235 -0.107951894 0.058461998 -0.0021029476
-0.10866902 0.018454002 0.024879357 -0.032461356 -0.03169248 -0.05320446 -0.15674958 0.079926275
-0.07739921 -0.16230159 0.1701836 -0.09303781 0.006701817 0.06412121 -0.092583984 -0.05019915
0.036893558 -0.009360267 -0.08492566 -0.10254021 0.09295516 -0.041127797 -0.029316826 0.07893583
0.08841194 -0.074356295 -0.022962794 0.054401513 0.050614513 -0.012723614 -0.07875545 -0.021865021
-0.09289092 -0.11801987 0.020271294 0.055631567 -0.011650438 -0.026371723 0.032811213 -0.14873627
0.059063774 -0.07492074 -0.060742117 0.19546135 0.14688772 0.0074874894 0.039587013 -0.051545065
-0.018634899 -0.02807542 -0.011109719 -0.050237793 0.11302462 -0.029471617 -0.04180776 0.07240308
-0.043378573 0.08102887 0.053496357 0.07719909 -0.1256558 -0.120260276 0.044167593 0.04271101
-0.12405363 -0.053443294 -0.07442446 -0.008076377 -0.00068753335 -0.027616814 0.005047435 -0.03838872
-0.05190966 0.043617453 -0.102737956 -0.046930876 0.06840309 -0.045319803 -0.0967305 -0.053330623
-0.032229718 -0.052011937 -0.025407542 -0.06614288 -0.02830967 0.04009388 -0.041873496 -0.10078517
0.11144728 -0.006865841 -0.13873607 -0.0055938005 -0.105033726 -0.08791889 0.026142118 0.07396719
0.03521619 -0.07825112 -0.03158963 0.059172157 -0.022232933 -0.026855722 -0.053766903 0.0018524324

Conv_BN_ReLU2.0.bias f4 [32]
00000000: a0a8 983d 0652 46bd 687d 103d 940f c0bc
00000010: 08b9 2b3b 63db a83b 3833 9a3d 68fb 073d
00000020: 6128 d8bb f39b a63c 3930 a3bd f62f 553c
00000030: 098e e03c 303c 50bd 0bf5 28bd 64a7 f2bc
00000040: 2d71 3d3d 3215 393d 7921 953c 9f1a 4cbc
00000050: c743 b2bd 086f 773d c1b2 a1bd 5e65 29bd
00000060: 5caf 85bd 9f27 42bc de6f 0a3d 59ee 72bd
00000070: 92fe 33bd 2490 303d 8b59 303d 6e14 183d
0.07454038 -0.048418067 0.035275847 -0.023444928 0.0026202817 0.005153106 0.075293005 0.033198744
-0.0065966104 0.020338034 -0.07968182 0.013011923 0.027411478 -0.05083865 -0.041249316 -0.029620834
0.04625051 0.04518623 0.018204438 -0.012457519 -0.08704334 0.060408622 -0.07895423 -0.041356437
-0.06527588 -0.011850267 0.03379809 -0.059309337 -0.04394395 0.043106213 0.043054145 0.03712886

Conv_BN_ReLU2.1.weight f4 [32]
00000000: b337 853f e6af 873f cb61 823f d542 8a3f
00000010: fab6 823f 813a 863f 937c 693f 8cea 763f
00000020: 1097 6f3f 2a8a 923f 364e 793f 90a9 7d3f
00000030: bf12 633f 21c5 7f3f 5b71 833f e3b6 843f
00000040: d708 883f 3413 6e3f 1a3e 763f 5fb0 8f3f
00000050: 7d9f 633f ae61 773f 49f6 8f3f e051 7e3f
00000060: 8e30 8f3f f6e3 8b3f c7eb 6f3f 471c 923f
00000070: 8244 683f b7f3 823f f6ca 6d3f a455 813f
1.0407623 1.0600555 1.0186094 1.0801646 1.021209 1.0486604 0.9120571 0.9645164
0.9358988 1.1448414 0.97384965 0.99086857 0.8870048 0.9991017 1.0268968 1.0368313
1.0627698 0.9299805 0.9618851 1.1225699 0.88915235 0.9663342 1.1247035 0.9934368
1.1186693 1.0928943 0.9371914 1.141488 0.90729535 1.0230626 0.9288782 1.010426

Conv_BN_ReLU2.1.bias f4 [32]
00000000: 1143 2dbd 7a5f 413d 21a0 65bd 3de1 21be
00000010: 5cba b7bd c3e3 623d 9fed e1bd 97d1 08be
00000020: 3402 f4bd 9b03 5a3c 8329 dcbd 7c8f 1fbe
00000030: a2ad f2bd ca3e e33c d2fc 8bbd 36c1 1abd
00000040: 3c2f bf3d fbf1 1cbe a479 d1bd a203 433d
00000050: 04b0 6dbe 6bb3 acbd 8e2b c43d f36b 66bd
00000060: 1d3f 07bd 5c72 f2bb 3f6f 04bb 6f27 dbbc
00000070: 2e0c d4bd 1c01 43bd f665 56be 7be9 20bd
-0.042300288 0.047210194 -0.056060914 -0.15808578 -0.08971092 0.05539299 -0.11031651 -0.13361202
-0.11914483 0.013306524 -0.10750105 -0.15582079 -0.11849524 0.027739901 -0.06835331 -0.037781917
0.09335181 -0.15326683 -0.10228279 0.047610886 -0.23211676 -0.08432659 0.0957862 -0.056255292
-0.033019174 -0.0073988866 -0.002020791 -0.026752202 -0.103538856 -0.04760848 -0.20937333 -0.039285164

Conv_BN_ReLU2.1.running_mean f4 [32]
00000000: a4ff 64be 1e0c 14bf 4063 c3be 6632 46bf
00000010: dff7 5abe 155c c9be ca78 c13f 9008 6c3e
00000020: 4aff f6be f7d2 0dbf c0df e1be 4078 0cbf
00000030: 3fb5 1f3f 83ec 25bc 6605 22bf 5bcb 72bf
00000040: 8395 21bd 9955 12be 1e91 4ebf edd5 acbe
00000050: e147 f23e 0be9 1b3f feb6 3fbf f56b 8abf
00000060: 6568 b8bf 467e 40bf 9d7a fcbe eb96 1bbf
00000070: e035 8ebe 7e04 c3be 5e65 6cbe ee88 323d
-0.22363144 -0.5783099 -0.3816166 -0.7742065 -0.21383618 -0.39328066 1.5114987 0.23050141
-0.48241645 -0.5540003 -0.4411602 -0.54870987 0.62385935 -0.01012719 -0.6328949 -0.94841546
-0.039449226 -0.14290465 -0.8069018 -0.33756962 0.47320464 0.6090247 -0.748886 -1.0814196
-1.4406859 -0.7519268 -0.49312297 -0.6077716 -0.27775478 -0.38089365 -0.23085544 0.043587618

Conv_BN_ReLU2.1.running_var f4 [32]
00000000: 5511 d83e 802f 0a3f 77da d13e a05c 1e3f
00000010: 1fe9 1e3f d3f2 993e 3c0f 003f 2dab b03e
00000020: 9f29 de3e 2a1b 1f3f e026 193f 8f6a 0a3f
00000030: d972 2e3f 7bf9 b23e d477 ec3e 298b 283f
00000040: ff6e 873e b69a 633f ffd1 f73e fdcb c23e
00000050: deb0 c83e 26fe 033f 2120 b93e 6f64 213f
00000060: 7fd7 873f f892 eb3e 0f0f c33e e9ab a43e
00000070: 62e9 a23e 07a7 d53e 3d4d d33e 8de7 dc3e
0.42200723 0.5397873 0.40986988 0.61860085 0.62074465 0.30068073 0.50023246 0.34505597
0.4339113 0.62150824 0.59824944 0.54068846 0.68143994 0.34955963 0.46185172 0.6583734
0.2645187 0.88907945 0.48402402 0.38046256 0.3919744 0.51559675 0.36157325 0.63043875
1.0612639 0.46010566 0.38097426 0.32162407 0.31818682 0.41728994 0.41269866 0.4314541

Conv_BN_ReLU2.3.weight f4 [32, 32, 3, 3]
00000000: 898c f5bd 6219 c1bd 8590 05bd 2002 83bc
00000010: 7436 cabb 39c7 17bd 4578 a5bd b648 4fbd
00000020: 10cd 1b3d 1c28 b23c 71cd d4bd f93b 863a
00000030: 91ef c7b9 dbfb 80bd b36d 303d f0e8 23bc
00000040: 6ea4 8e3d 8ad8 f33a 2312 f9bb 3e84 b5bd
00000050: f45f 82bd b4af 49bc 75dc 91bc f9ef 98bc
00000060: 51e4 7bbd 5b26 ad3c c82a 86bd 7ec2 783c
00000070: caf6 0abd 599a 73bd 0f77 acbd dffb 5c3d
00000080: 153d 583d 7dcf a7bd 6521 87bd ffa4 903c
00000090: c48c 9b3d 370b c83b c903 b53c e4f6 a33d
000000a0: d5b2 ab3c 80d1 cc3d 8564 943d d314 093d
000000b0: 3432 893d ad1a 02bd c4c6 0a3d 2f22 c23d
000000c0: c32f 97ba 19e4 d9bc 1c1b 2f3b f30c 9abd
000000d0: 982c 153d 3ef6 663c e0d9 bd3c 4bf1 a03b
000000e0: 7b83 883d 9552 ebbc b115 74bc 1791 d03c
000000f0: 47a6 943c 102c df3c f405 363d ecea cdbd
00000100: cadb 1cbd 4045 2b3c a605 f23c 62a2 62bd
00000110: b05e 04be 2298 90bd 7e05 19be d1ec 0abe
00000120: 9b52 88bd 7f16 7fbd 661d febc ed9b 84bd
00000130: 4225 8dbd 014d 43bd 36c7 bdbc ddf3 d8bc
00000140: 4316 05be 3676 adbd 956a debd 8f47 d23c
00000150: 6775 d6bd ebf0 f2bc 22bc 493d d54e 4abd
00000160: 01c0 b33c 9d66 8f3d cd94 073e 857c b73d
00000170: 8dfd 95bc 65dc 293e d685 823d 4045 c03b
00000180: e8f9 2b3e 4014 133d d1d0 92bd 4110 cb3b
00000190: c0c2 debd aab9 a03c d9fe f7bd b357 1cbd
000001a0: be08 f33c 4793 c8bd 8fad d8bd efe2 b9bd
000001b0: afaf c33d a628 d63d 4d43 3ebb fb65 033d
000001c0: 5c2c 92bc 7bd8 28bd 023c a6bb e99c 703d
000001d0: 6942 3fbc dbf3 783c 5133 053b c113 223c
000001e0: 81d9 9ebd fae8 02bd ed04 13bc c0e3 aabd
000001f0: 7ca8 65bd 8da1 85bd ba94 a2bd 706c 16bc
00000200: 938f 8e3c e957 c2ba da89 24bd 8aa0 23bc
00000210: ce1a 86bd e62d 15bd a84e e33c 8e9f c63c
00000220: 29d4 01bd 17f3 3dbd dcde 133c 1e53 db3c
00000230: 9228 b2bc d607 01bc a8b6 343d 16a6 ad3d
00000240: 3223 df3c 198d d63c b114 ea3c 957a bd3d
00000250: 19fa 973c 7d02 0e3d 7252 7c3d 375f 89bd
00000260: c3f9 a63d 86f1 04bd ccd1 30bc c882 9abc
00000270: 434c 263d b778 543d 7e7d 233d c8fd 11bd
00000280: 70f9 793d 76ea ad3d a376 76bc bb97 493c
00000290: 386c 9abd 676b 30bd 93e6 b6bd 50ec 8bbd
000002a0: 7b05 343c c49a 99bd 7abc 2d3d 97ab 04bd
000002b0: 4648 203d 564a ae3c 18a8 dc3c 4196 6c3d
000002c0: 551e 6a3d 9868 8b3d ad71 e13c ed47 38bd
000002d0: c169 67bd e725 87bd 5aff 123d 0eab 82bd
000002e0: e1dc 263c c1bb 793d 41a7 88bc ea87 7d3c
000002f0: 8c23 d83c fe38 6fbd a64c ea3c edd6 1bbc
00000300: 4917 8dbd 8a25 9dbc da2b 863d 156e 313d
00000310: 2388 7f3c 96bc 8f3d 74ea a5bc f776 f7bd
00000320: 9840 02be 2df5 b7bd 87dc 293c ddd5 b4bc
00000330: 2618 49bd d25c eabc 14d2 b73d 44bf cdbb
00000340: 05c6 cf3c 4206 5a3d 701f a03d 915f 083e
00000350: 2218 0f3e 8267 2f3c 20ce c93d 6f85 9a3d
00000360: 23c9 6f3d 3240 c93d 9649 093e 695c 683d
00000370: ebbd d93d bef8 283e 4ff0 07bc b15d 1d3e
00000380: afdd 183e c815 0d3c 42a0 153d cf18 873d
00000390: 4f6f 2a3d a4d1 8fbb 0177 e03d 9aee 4a3d
000003a0: 2cf4 f13b e83a 2c3d 8daa babd e033 35bd
000003b0: ed92 b33d 837c bfbd 27ad ddbb cadc 49bb
000003c0: a125 80bd 7640 24bc 4763 5dbb bc6e 29bc
000003d0: 30b9 42bd dd06 7fbd bcb1 013d 9d1a 59bc
000003e0: 0682 fbbc 8c20 23bd 6bc3 20bd 4822 56bd
000003f0: ec51 51bd aeab f03c 1663 5c3b 425e 783d
-0.119896956 -0.094286695 -0.032608528 -0.015992224 -0.006171042 -0.037055228 -0.0807958 -0.050606452
0.03803736 0.021747641 -0.10390747 0.0010241262 -0.0003813473 -0.062980376 0.043073367 -0.010004267
0.06964956 0.0018603962 -0.007601039 -0.08863114 -0.06365958 -0.012309957 -0.017805317 -0.018669115
-0.061497036 0.021136453 -0.065511286 0.015183089 -0.033926763 -0.05947337 -0.08421146 0.05395114
0.052792627 -0.08193872 -0.065981664 0.017656801 0.07595208 0.0061048525 0.022096531 0.08006075
0.020959297 0.100008965 0.07245735 0.033467125 0.066990286 -0.03176372 0.033880964 0.09479176
-0.001153462 -0.026598023 0.002671904 -0.07522001 0.03641948 0.014096795 0.02317518 0.004911577
0.06665703 -0.028725902 -0.01489775 0.02545981 0.018145693 0.02724269 0.04443927 -0.100545734
-0.038295545 0.010453522 0.029543709 -0.05533064 -0.12926745 -0.07060267 -0.14943501 -0.13566901
-0.06656381 -0.062277313 -0.031019878 -0.06475053 -0.06891872 -0.04768086 -0.02316628 -0.02648347
-0.12996773 -0.084698126 -0.10860173 0.025668887 -0.104716115 -0.029655894 0.049251683 -0.049391586
0.02194214 0.07001994 0.13240357 0.08959297 -0.018309379 0.1658798 0.063731834 0.0058676302
0.1679455 0.035907984 -0.07168735 0.006197006 -0.10876989 0.019619782 -0.12109155 -0.038169574
0.029667255 -0.09793716 -0.10579979 -0.09076487 0.09554993 0.10456972 -0.0029031814 0.032079678
-0.017843418 -0.041222077 -0.0050730715 0.05874339 -0.011673548 0.015194858 0.0020324776 0.009892405
-0.07756329 -0.031960465 -0.008973342 -0.08344221 -0.056068882 -0.06524954 -0.079385236 -0.009181127
0.017402446 -0.0014827225 -0.040170528 -0.009987006 -0.06548081 -0.036420725 0.027747467 0.024246003
-0.031696472 -0.046374407 0.009025302 0.026773032 -0.021747861 -0.007875403 0.044119507 0.08478944
0.027238462 0.026190327 0.02857432 0.09251896 0.018551873 0.03467034 0.061602063 -0.06707614
0.08153107 -0.032456897 -0.010792207 -0.01886119 0.040600073 0.051872935 0.0399146 -0.035642415
0.061028898 0.084919855 -0.015042934 0.012304242 -0.07540172 -0.043071177 -0.08930697 -0.068321824
0.010987635 -0.07500222 0.042416073 -0.032390203 0.039131425 0.02127568 0.026935622 0.05776048
0.057157833 0.06807059 0.027520025 -0.04499047 -0.05649734 -0.06599026 0.035888053 -0.06380282
0.010184498 0.06097007 -0.016681315 0.015474299 0.026384138 -0.05840396 0.028601002 -0.0095116915
-0.06889207 -0.01918294 0.06551333 0.043317873 0.015596422 0.07018392 -0.020253398 -0.120832376
-0.12719953 -0.089823104 0.010367519 -0.022074634 -0.049095295 -0.028608713 0.08975616 -0.006278904
0.025362978 0.053228624 0.07818496 0.13317706 0.1397405 0.0107058305 0.09853768 0.07544982
0.05854143 0.098266974 0.13406977 0.056728754 0.10631927 0.16501138 -0.00829704 0.15367772
0.14928316 0.00861115 0.036529787 0.06596529 0.04161006 -0.004389005 0.10960198 0.049543954
0.007383844 0.042048365 -0.09114561 -0.044238925 0.08768258 -0.093499206 -0.006765026 -0.0030801767
-0.06257177 -0.010025134 -0.0033781098 -0.010341343 -0.04753989 -0.062262405 0.03166364 -0.013250974
-0.030701648 -0.03982596 -0.039248865 -0.052278787 -0.051103517 0.029378738 0.0033628396 0.060636766

Conv_BN_ReLU2.3.bias f4 [32]
00000000: a74b 333d 9ff3 563c 2e12 fc3c 5365 ca3c
00000010: c846 143d 3ad9 adbb 73f4 6b3d a22e 693d
00000020: 396e 323d c935 9abc f6c7 c13b 73b0 38bd
00000030: e6af d1bc 2435 f4bc 6ffc 443d 3471 253d
00000040: 662f 1bbd 4db1 36bd ca44 27bd 411a d93b
00000050: 3cb6 413d 3093 a8bb 2aa1 af3c 95e1 8dbb
00000060: 4ac1 af3c 7c40 9bbc 25ba 2abd 12e1 283d
00000070: f2a9 4c3d 039d 303d 3099 d9bc c95f 8d3c
0.04377332 0.013119607 0.030770388 0.024706518 0.036200315 -0.0053054364 0.05760617 0.05692924
0.043562148 -0.018824475 0.00591373 -0.04509015 -0.02559657 -0.029810496 0.048092302 0.040391162
-0.037887 -0.04460268 -0.040837087 0.006625444 0.047292933 -0.0051444992 0.021439154 -0.00432987
0.021454472 -0.018951647 -0.041681428 0.04123027 0.04996676 0.043118488 -0.026562303 0.017257588

Conv_BN_ReLU2.4.weight f4 [32]
00000000: 3983 773f 2fa2 7e3f f26c 603f 8986 7f3f
00000010: 21a0 843f 0975 743f 4f71 7b3f 7dd1 863f
00000020: 98f8 793f 1f81 853f 0940 643f 77b7 813f
00000030: 45e9 6a3f d4cf 853f f8c3 673f c6cf 7b3f
00000040: 5e35 803f 064f 5a3f ed1c 7c3f fd10 753f
00000050: 38bd 763f 44ba 743f 6029 753f adb5 763f
00000060: 62fa 813f be5e 873f 5a3a 6f3f 6982 6d3f
00000070: f39d 893f 4af5 783f 3823 683f 2957 773f
0.96684605 0.9946622 0.8766624 0.9981466 1.0361367 0.9549108 0.9821977 1.0532681
0.9764495 1.043003 0.8916021 1.0134114 0.9176219 1.0454049 0.905334 0.9836391
1.0016286 0.8527683 0.9848164 0.9572905 0.96382475 0.9559672 0.9576626 0.96370965
1.0154536 1.0575788 0.9344841 0.92777115 1.0751327 0.9724928 0.9067874 0.9661737

Conv_BN_ReLU2.4.bias f4 [32]
00000000: ebaa 45be e5ec 01be 8815 72be 0ca8 b0bd
00000010: 0d4f b6be 78ae 20be 1268 1fbe d97d 09be
00000020: 373f 19be c098 a4bd 2229 22be ab58 50be
00000030: 1a7d 84be 149c 0cbe 98d8 d6bd 20e6 b9bd
00000040: e788 99bd 0f55 82be ff48 89bd 7168 08be
00000050: 23b4 8cbe b184 a2bd 67b3 66be 4153 74be
00000060: 803b afbd aea0 40be 5ba7 03be 103e 0bbe
00000070: d875 94be a1ff 2abe 858c 9ebe 7e4a 75be
-0.19303481 -0.12688024 -0.23641026 -0.086258024 -0.35607186 -0.15691555 -0.15567043 -0.13426913
-0.14965521 -0.08036947 -0.15836003 -0.20346324 -0.25876695 -0.13731414 -0.10490531 -0.09077096
-0.07496815 -0.2545552 -0.06703376 -0.13321091 -0.27481183 -0.07935465 -0.22529374 -0.23859884
-0.085562706 -0.18811294 -0.1285681 -0.13597894 -0.28996158 -0.16699077 -0.30966583 -0.23954198

Conv_BN_ReLU2.4.running_mean f4 [32]
00000000: 9027 633e 8960 ebbf eb59 7c3f dbfe 7ebe
00000010: 72b9 87be 86bd 02bd e04e 3dbf f0db 3dbf
00000020: 8baa 033f 8bbc e9be c23f aebf 25c2 39bf
00000030: a18c d1be b4b8 2dbf 2b47 94bf a1db f8be
00000040: 7d9e bebe 8d0a 5ebf 56f8 6a3e 2c46 27bf
00000050: 2f6c 44bf 3960 56be e86d 2ebf 514a 65be
00000060: a694 04be 4e3d f7bc 11f9 623f 7251 cbbe
00000070: fbf3 e5be dd32 533f c018 283f d9c0 c33e
0.2218306 -1.8388835 0.98574704 -0.24901907 -0.2650867 -0.031919025 -0.7394848 -0.74163723
0.514321 -0.4565166 -1.3613207 -0.72561866 -0.40927604 -0.6785996 -1.1584219 -0.48605064
-0.37230292 -0.8673485 0.22946295 -0.6534145 -0.76727575 -0.20935144 -0.68136454 -0.2239163
-0.1294733 -0.0301806 0.88661295 -0.39710575 -0.44912705 0.82499486 0.65662766 0.3823307

Conv_BN_ReLU2.4.running_var f4 [32]
00000000: dec2 0e3f 73c0 533f ec6f 3a3f edba bf3e
00000010: 6a9c d63e 0fbf dd3e 9cfb 923f dde9 323f
00000020: dfa5 0f3f 51ee 6f3f d8ec 483f 70eb eb3e
00000030: 0bd2 4b3f 0da3 193f 855a 073f 9243 c93e
00000040: e784 143f 68b8 d63e bcd0 143f 05c5 333f
00000050: 0b37 0d3f 30d6 613f 7eff 223f bf90 073f
00000060: 88d7 de3e d971 163f 2a7b 0f3f 41ab fb3e
00000070: f683 f73e 0408 463f d930 ac3f 0185 523f
0.55766094 0.8271553 0.7282703 0.374473 0.4191621 0.4330983 1.1483035 0.698881
0.56112474 0.93723017 0.78486395 0.46078062 0.79617375 0.6001442 0.52872497 0.39309365
0.5801529 0.41937566 0.58131003 0.702225 0.55162114 0.8821745 0.636711 0.5295524
0.43523812 0.5876747 0.5604731 0.49154094 0.48342866 0.7735598 1.3452407 0.822342

Conv_BN_ReLU3.0.weight f4 [32, 32, 3, 3]
00000000: a171 1c3d b99e c0bc e37f a9bc d553 e73d
00000010: fb61 37bd e6c3 253d 2ed2 3a3e be47 983d
00000020: e802 633d a8b9 0b3d 05f4 e43c 2e22 293d
00000030: 1331 a53c 2f68 933d 3b24 ac3d 1c31 a9bc
00000040: 44b4 8c3d e0de 2dbd 91e1 1a3d edb2 71b9
00000050: 34da eebc e179 e13c 5a9c 993d 5e3d 3f3d
00000060: 4716 b93c 3a24 633d 1027 ac3d 37e2 0b3d
00000070: cb7d 843b 3b18 923d b67e 07ba e34e 593d
00000080: 830a fa3d fd14 dc3b 1ff2 303d c8f9 893c
00000090: 079f 7ebd 7451 2a3d 5700 423d 736b 1bbd
000000a0: 3280 a6bb 41ad 703d 9625 4b3d de09 b03d
000000b0: 26b9 df3d abac 0dbd e483 9bbc 4d4f 24bd
000000c0: c376 97bc a589 23bd 88cd 31b8 4c75 af3c
000000d0: 5df6 963c 50ce 943d 514f 573c 3b82 b43c
000000e0: 2198 c1ba 638e 153d e67b 633c d016 e23d
000000f0: 1694 8dbc cbce d53d 3d74 0b3e 754e a03d
00000100: 5920 fe3d b517 bebc 3e5d 093c 4d8e ed3c
00000110: 968f 983d cf94 e13c 1bfb 863d 01e5 dd3d
00000120: 118d 343b 87c2 bcbd c7f2 55bb a599 a8ba
00000130: 42c8 e4bc a1f4 69bd 6b9d 883d da23 e23c
00000140: 456e 2abd 2c81 ccbd 2469 cb3d 936e 2e3c
00000150: ebd0 e0bd b04f 6d3d 3930 3d3d ffba 42bd
00000160: 04d1 b83c 4654 453e 02f7 e93b 8639 663d
00000170: c9af 8b3c bdff bb3c 1ced 80bd 53cc 103c
00000180: b335 443d bfbb a7ba 4a29 91bd 4147 80bd
00000190: dd2c 9b3c d267 53bb 78b4 84bd 07b0 fb3c
000001a0: 0fa4 163d 1aad b73c 3c7f 59ba 9e49 eb3d
000001b0: 0576 bd3d e43f 28bb d104 25bc 38ed 763c
000001c0: ea83 7d3d 7eea 93bd 01fe dd3c c8f3 fd3c
000001d0: 094d d63b 477d 14bd f764 8bbc 2fab c0bd
000001e0: 63cd 3a3d f0a0 c43d 5f6e c5bd cbcf c93d
000001f0: 2de0 1b3e 94f6 6bbd bb2f 06bd adbd b23c
00000200: 87c1 663d 885c 22bd ccdf a43c 1f71 4e3c
00000210: 488a 96bd e81e 3dbd 803b 88bb d9c6 05bc
00000220: c3e7 e03c 3a14 edbc 3d03 d2bc f1b6 39bd
00000230: 3c6b 973c 3ac9 0a3d 6ba5 dabd f925 64bd
00000240: 1a89 f5bc 8903 45bd 5315 6c3d 00b9 2ebd
00000250: 7157 0abc ca71 9fbc ad26 f1bc 5598 82bc
00000260: f86a 1d3b 4142 88bd ec28 8f3d 9c4b 683c
00000270: 1650 bfbd 5ee2 0dbd 1481 d03d 3e77 8dbd
00000280: a9e5 803c d93a 5a3d de1f 19bd ba55 96bc
00000290: 68d0 0f3c af73 913b 6797 f3bb 7064 643c
000002a0: 002c 97bb bedb ae3c 8ecc bcbb 0e5a a43c
000002b0: d1f1 b13d 56e9 3fbc 8f7b 6ebd a48d a7bc
000002c0: 040a c8bc 572a 36bc a628 0fbb cdd5 f8bc
000002d0: 5d1f 093d 3f22 60bd 8202 3abd e69a 7a3d
000002e0: 5644 98ba 3d6e 63bd 28b2 8b3c 3745 37bc
000002f0: 4ffb 2abd 3268 273d 260c ab3b d122 653b
00000300: ab3e 843d 2e16 963c 0db0 613c decf a33a
00000310: e804 813c f0c5 04bc 6eed 8b3d 083e 143c
00000320: d1b9 ddbb 0725 c03d 68dd f5b8 370c 6abd
00000330: 816c 003e d0db 983d b02b 46bb 95b6 1cbc
00000340: eecb bebc 957b 16bc c319 57bc 96ff 73bc
00000350: 2af5 f03c 8b70 24bd 6923 d63c f573 ca3d
00000360: f0bc 0ebc ca73 533b 11d5 b4bc 54ed 0d3e
00000370: 8f93 593d 2cde 73bc c910 3a3e 89cb 983d
00000380: 1dae dbbc d4e0 7c3d ba22 363b 131b e8bc
00000390: 9609 903d e722 bb3c 3572 c63c 1c99 0c3e
000003a0: 7c8f b23d bf28 623b b527 893d 7f11 e23d
000003b0: 9d10 153c 4708 d8bc c029 7d3d 0a19 7bbb
000003c0: bd99 53bd 3e37 b2bb 9651 1f3d 6aa0 2f3c
000003d0: 0384 f03c edd4 333c 4b8c 033d 1dfb e33d
000003e0: e916 ba3d daa1 8a3c e9db af3d 0d60 a03d
000003f0: d87c 113d 4a8e 07bc bc7c bf3d 4267 d13c
0.038194302 -0.023513185 -0.020690864 0.112952866 -0.044771176 0.040470026 0.1824424 0.07435559
0.055422693 0.034112602 0.027948389 0.041292362 0.020165002 0.07197606 0.08405348 -0.0206533
0.068703204 -0.04244888 0.037812773 -0.00023050206 -0.029156782 0.027523937 0.07500525 0.046689384
0.02259363 0.05545447 0.08405888 0.034151282 0.004043316 0.07133528 -0.0005168723 0.053053748
0.12209036 0.006716369 0.043199655 0.016842738 -0.06216338 0.041581586 0.047363605 -0.03794427
-0.0050812 0.058758978 0.04959639 0.08595632 0.10923986 -0.034588497 -0.018983789 -0.04011469
-0.018489247 -0.03992619 -4.2391504e-05 0.021418236 0.018428022 0.072659135 0.013141469 0.022034755
-0.0014770069 0.036512744 0.01388452 0.110395074 -0.017282527 0.10439833 0.1361856 0.078274645
0.124085136 -0.023204664 0.008384047 0.028998518 0.07449262 0.027536778 0.06590863 0.10834695
0.0027549902 -0.09216791 -0.0032645927 -0.0012863172 -0.027927522 -0.057118062 0.0667065 0.027604986
-0.041609067 -0.09985575 0.09932163 0.01064648 -0.10977348 0.057937324 0.046188567 -0.047541615
0.022560604 0.19270429 0.0071400413 0.056207202 0.017051594 0.022949094 -0.06295225 0.008837777
0.047902774 -0.0012797042 -0.070879534 -0.062635906 0.01894229 -0.0032257927 -0.06479734 0.030723585
0.036777552 0.022421408 -0.00082968525 0.11488651 0.09251026 -0.0025672847 -0.010071949 0.015071206
0.06189338 -0.0722246 0.027098658 0.031000033 0.006539945 -0.036252286 -0.017015917 -0.09407651
0.04560603 0.09601009 -0.09640192 0.098540865 0.15222235 -0.057608202 -0.032760363 0.02181896
0.056336906 -0.039639026 0.020126246 0.012600212 -0.07350594 -0.046172053 -0.0041574836 -0.008165085
0.027454263 -0.028940309 -0.02563631 -0.045340482 0.01848375 0.03388331 -0.10676082 -0.055700276
-0.029972602 -0.048099075 0.057637524 -0.0426569 -0.008443699 -0.019463439 -0.029437387 -0.015941778
0.0024020057 -0.06653262 0.06990227 0.014178183 -0.09341447 -0.03463971 0.1018087 -0.06907509
0.01573451 0.053278778 -0.037383907 -0.018351424 0.008777715 0.0044388394 -0.00743382 0.013939962
-0.0046133995 0.021345016 -0.0057616895 0.020062473 0.08688701 -0.0117133465 -0.058223303 -0.020453282
-0.024418838 -0.011118493 -0.0021844297 -0.030375386 0.033477176 -0.05472016 -0.045412548 0.06118288
-0.0011617045 -0.055525053 0.017052725 -0.011185936 -0.041743573 0.040870853 0.005219954 0.003496338
0.064572655 0.018321123 0.013774884 0.0012497862 0.01574941 -0.008103833 0.068323955 0.0090479925
-0.006766536 0.093820624 -0.000117237505 -0.057140555 0.12541391 0.07463801 -0.0030238442 -0.009565015
-0.0232906 -0.009184738 -0.013128701 -0.014892479 0.029413778 -0.04014639 0.026139932 0.09885398
-0.008712038 0.003226506 -0.022074254 0.13860065 0.05311924 -0.014884513 0.18170466 0.07460696
-0.026816422 0.06173785 0.0027791695 -0.028333222 0.07033078 0.022843791 0.02422438 0.13730282
0.08718774 0.003450915 0.06697027 0.11038493 0.009098199 -0.026371134 0.061807394 -0.0038314485
-0.051660288 -0.0054387143 0.038896166 0.010719398 0.029359823 0.010976058 0.032116216 0.111318804
0.09086401 0.01692288 0.085868664 0.0783082 0.03551945 -0.00827367 0.09349963 0.025561932

Conv_BN_ReLU3.0.bias f4 [32]
00000000: dcc3 d7bc 732f d63c df30 30bd d604 6b3d
00000010: 5be9 103d 5f41 b1bc 0ec1 963b f1d6 da3c
00000020: 229a e23c 7db8 da3b 12e4 0b3d e104 413c
00000030: 7c47 48bd 893e 31bd 292e 773c bca9 c3bc
00000040: dd29 60bc d5ba 163d e257 08bd c6a0 c6bc
00000050: 9d6c 4e3d 720f 4c3d 888c 793c f664 bb3c
00000060: da26 ef3c af5c 0cbd b2a4 1d3d 626e f63b
00000070: 908a 07bd d99b 6b3d b76d 873b 9b4c a7bc
-0.02633851 0.026145672 -0.043015357 0.05737766 0.035378795 -0.021637617 0.0046006506 0.02671382
0.027661387 0.0066748247 0.03415305 0.011780948 -0.048896298 -0.04327253 0.015086689 -0.023884647
-0.013681856 0.03679927 -0.033286937 -0.024246585 0.05039655 0.049819417 0.015231259 0.02287529
0.02919333 -0.034268077 0.038487144 0.007520483 -0.033091128 0.057521675 0.004132952 -0.02042227

Conv_BN_ReLU3.1.weight f4 [32]
00000000: 2775 7f3f 02a3 733f bb4c 803f f1f7 893f
00000010: 9f9a 883f 1114 813f 2d7d 7d3f 008a 633f
00000020: 819d 793f 5c69 6c3f abfd 7b3f 0de6 813f
00000030: 2e27 863f 3bc0 743f 0aef 7a3f 15b2 783f
00000040: 93bc 873f 9df6 733f 194d 943f ed9d 663f
00000050: f92b 8c3f 61e7 683f efe4 843f 590b 763f
00000060: 69da 7a3f 9117 833f d633 583f 8827 723f
00000070: 5ac2 783f 6df4 803f b195 6e3f ad29 7b3f
0.99788135 0.95170605 1.0023416 1.0778791 1.0672187 1.0084249 0.9901913 0.88882446
0.97505957 0.92348266 0.9843394 1.0148331 1.0480707 0.9560582 0.98020995 0.9714673
1.0604423 0.95298177 1.1586028 0.90084726 1.0950919 0.90978056 1.0382365 0.96111065
0.9798952 1.0241567 0.84454095 0.9459157 0.97171557 1.0074593 0.9319716 0.9811047

Conv_BN_ReLU3.1.bias f4 [32]
00000000: afe1 65be 602e 34be 4c63 32be 40a1 97be
00000010: e9b6 2abe 40b6 68bd 45e6 c9bd 46fb 53be
00000020: 2d8b 43be 42b3 6abe b0b6 30be 5e67 47be
00000030: 3c9b e1bd c109 e1bd 87e4 98bd 732c 85bd
00000040: 9959 9abd 71ed 63be 79de b4be d1e8 08be
00000050: e06a 54bc 9836 d7bc 00af e6bd 408e 52be
00000060: faef bebd 4a82 c8be e5f8 0bbe 8c1d 6abd
00000070: d5e2 82bd dfcc 1fbe d35f 40be 69f9 05be
-0.22449373 -0.17595816 -0.17420691 -0.2961521 -0.16671337 -0.056814432 -0.098583736 -0.20701322
-0.1909606 -0.22919944 -0.1725719 -0.19473025 -0.11015937 -0.109881885 -0.07465463 -0.06502619
-0.07536621 -0.22258545 -0.35325983 -0.13370062 -0.012964934 -0.02627115 -0.11263847 -0.20562077
-0.09323116 -0.39161903 -0.13669164 -0.057157084 -0.06390921 -0.15605496 -0.18786554 -0.13083424

Conv_BN_ReLU3.1.running_mean f4 [32]
00000000: 4394 1e40 5481 323f a3ad f6bf 3d27 b73e
00000010: cd01 5abf 7252 12c0 62b5 47c0 144d f73e
00000020: 194f 87bf c6db afbf 915a 86be 6c30 2a3e
00000030: 483e 6abf 3564 bebd 6dbe 2bc0 0308 2cc0
00000040: d64e 893e a66f ddbf 9c66 5c3f 5535 12c0
00000050: d4b3 47bf 545b 04c0 6cec a5bf f07f b23f
00000060: 90db 82bf 45e6 423f 2c1d 6dbf 2562 adbf
00000070: c6ac 33c0 bd2b aa3e dc1d 4dbf da13 ca3f
2.4777992 0.6972859 -1.927174 0.35772124 -0.85159 -2.286282 -3.1204457 0.48300993
-1.0571014 -1.3738945 -0.26240972 0.16620034 -0.91501284 -0.09296457 -2.6834977 -2.687989
0.2681796 -1.7299697 0.8609407 -2.2845051 -0.7800877 -2.0680742 -1.2962775 1.3945293
-1.0223255 0.76132613 -0.9262264 -1.3545576 -2.8074203 0.33236495 -0.80123687 1.5787308

Conv_BN_ReLU3.1.running_var f4 [32]
00000000: f33d 6d3f e965 983f a7c0 fd3f edfb 883f
00000010: 3d23 5c3f 8035 f03f d252 e83f 43df 853f
00000020: 2858 443f a51d c13f eb94 6e3f c55b 493f
00000030: e621 2f3f a44a 3c3f 13bf 3240 3e57 c73f
00000040: f46a f73f 2630 953f a086 713f cacc 2040
00000050: e0b4 823f b806 a43f d54e 5f3f d308 f93f
00000060: 29b1 883f 181b 8b3f 69ce 553f 6e95 df3f
00000070: b0ea ea3f 76e8 7e3f eade 7b3f d177 803f
0.9267265 1.19061 1.9824418 1.0701882 0.8599127 1.8766327 1.8150275 1.0458759
0.76697016 1.5087172 0.9319598 0.78655654 0.684111 0.7355139 2.7929122 1.5573499
1.9329515 1.1655319 0.94346046 2.5124993 1.0211449 1.281455 0.87229663 1.9455818
1.0679065 1.0867643 0.8351808 1.7467477 1.8352871 0.9957346 0.98387015 1.0036565
