CA04/checkpoints/checkpoint.pth (torch, 710925 bytes, 143 tensors)

Conv_BN_ReLU1.0.weight f4 [16, 3, 3, 3]
-0.115112714 -0.09713449 -0.23934658 -0.14290822 0.0695856 -0.18742143 0.10198553 0.090353295
-0.035845287 0.09952012 0.13207844 -0.14938664 0.18454297 0.1042268 -0.19815032 -0.015331093
-0.057398394 -0.039576314 0.09849723 -0.01862172 0.04739826 0.011406188 0.038118273 0.16515361
0.09987537 0.1321271 -0.10571732 0.15843973 0.093531035 0.13712467 -0.036943138 -0.07337981
-0.13402314 0.009618277 -0.041839503 0.011926782 -0.07402928 0.21128926 -0.14317779 0.13759637
-0.1195088 -0.13608782 0.07955562 0.11554504 0.01395736 -0.1232305 0.07773002 -0.11185467
0.017828874 0.05103557 -0.08663588 0.044858318 -0.16892055 0.0041330974 0.018458031 -0.070810094
-0.057295103 0.025830742 0.12529024 -0.005524535 0.023829069 0.15639359 -0.009185417 -0.14103936
-0.04718413 0.0007353326 -0.045480072 -0.11032421 -0.15795688 0.042784788 -0.034001976 -0.11155369
0.07716623 0.0992173 0.18560496 0.024978597 0.00013841556 0.13138612 -0.13265643 0.018568348
-0.16191244 0.13429078 0.16638167 -0.18658729 -0.02106287 -0.06392745 0.035686124 -0.12977323
0.15495582 -0.104728535 -0.0011838085 0.13520797 0.07059976 0.16467492 -0.1439098 -0.051635135
0.02146183 -0.10007899 -0.080839 0.04821821 -0.0099703595 0.0032553724 0.19397013 -0.1284695
-0.020808768 -0.026356984 -0.21210678 0.06677917 -0.06679235 -0.101194106 -0.0651451 0.008397084
0.061447445 0.17583029 0.1164032 -0.0929092 0.032688875 -0.054915488 -0.116769224 -0.04134846
-0.086902864 0.15988131 0.19581772 -0.025870217 -0.047703296 -0.033829555 -0.01723156 -0.1841129
-0.08136897 -0.004844794 -0.08855035 0.3065732 -0.0003627571 0.03617308 0.019980822 0.03849648
0.20140678 0.18432523 0.19084258 0.13806562 0.06907182 -0.0641914 -0.076823905 -0.053958215
0.03076494 -0.15603112 -0.049559616 -0.15703425 -0.16530128 0.045391683 -0.097582795 0.020400219
0.1480659 0.0009100864 -0.0016632379 -0.046396848 -0.17133 0.050631266 -0.1237908 0.1737498
-0.1684908 0.06702648 0.1302091 -0.092728645 -0.07924873 -0.0746636 -0.043729145 0.17188643
-0.055824105 -0.123544276 0.14699431 -0.1434871 0.021727553 0.24325311 -0.0662952 0.061797913
0.013766177 -0.018653743 -0.11059426 -0.0263118 -0.18382585 -0.06737959 0.18033539 0.14259271
-0.15619767 -0.025499266 -0.07334896 0.033295 0.19347394 -0.095060945 0.17616192 0.05021522
0.14685123 0.10377588 0.0065186433 0.17637254 0.15252756 0.007849101 0.040280297 -0.1183076
-0.21637455 0.13848974 -0.083388224 0.061689537 -0.054092746 -0.08413496 -0.067641914 -0.10885286
-0.04893352 -0.17649552 -0.08586277 -0.11263545 -0.03367661 -0.0708084 0.14889105 -0.027356429
-0.06986318 0.18263887 0.16709347 -0.054683853 0.05102141 0.019383432 0.13510457 -0.11326119
0.15099372 -0.11836528 -0.007485226 -0.022556335 -0.0873454 0.016728917 0.23310241 -0.11179062
0.105389126 -0.08635951 -0.20094553 -0.20418474 -0.16431941 0.07744994 0.05118859 0.0028560436
0.016095113 -0.13967486 -0.1448505 -0.084614 0.0067098984 0.16530865 0.22339763 0.18809107
-0.10453682 -0.024745079 -0.10679402 -0.16725376 -0.18685608 -0.14167535 -0.19465685 0.23596928
00000000: 37c0 ebbd 73ee c6bd 4517 75be 8856 12be
00000010: e582 8e3d 67eb 3fbe cadd d03d 260b b93d
00000020: 82d2 12bd 34d1 cb3d 923f 073e d0f8 18be
00000030: d5f8 3c3e dc74 d53d ebe7 4abe 442f 7bbc
00000040: 941a 6bbd c61a 22bd eab8 c93d 948c 98bc
00000050: ae24 423d 05e1 3a3c e821 1c3d 071e 293e
00000060: 758b cc3d 544c 073e 5382 d8bd 063e 223e
00000070: 338d bf3d 696a 0c3e b051 17bd 2748 96bd
00000080: 5d3d 09be fa95 1d3c e65f 2bbd 8d68 433c
00000090: aa9c 97bd 365c 583e 339d 12be 10e6 0c3e
000000a0: 08c1 f4bd 9b5a 0bbe 0fee a23d e1a2 ec3d
000000b0: 69ad 643c 4660 fcbd eb30 9f3d 1014 e5bd
000000c0: dc0d 923c ad0a 513d 276e b1bd 5bbd 373d
000000d0: 82f9 2cbe ef6e 873b 4c35 973c e204 91bd
000000e0: 45ae 6abd fe9a d33c 164c 003e 2907 b5bb
000000f0: 2e35 c33c a425 203e 6e7e 16bc 9f6c 10be
00000100: 2544 41bd 56c3 403a 5049 3abd a9f1 e1bd
00000110: 73bf 21be 1a3f 2f3d a845 0bbd 4376 e4bd
00000120: 5409 9e3d 7132 cb3d 3a0f 3e3e ea9f cc3c
00000130: a523 1139 158a 063e 16d7 07be a61c 983c
00000140: 60cc 25be 8683 093e f55f 2a3e bd10 3fbe
00000150: 0a8c acbc 65ec 82bd 9d2b 123d 46e3 04be
00000160: bdac 1e3e ea7b d6bd 062a 9bba f573 0a3e
00000170: 9b96 903d 8ba0 283e 175d 13be 5d7f 53bd
00000180: b8d0 af3c 37f6 ccbd eb8e a5bd 7580 453d
00000190: b85a 23bc 1658 553b 1ba0 463e 828d 03be
000001a0: 2677 aabc 9aea d7bc 8532 59be 84c3 883d
000001b0: 6dca 88bd db3e cfbd cb6a 85bd ec93 093c
000001c0: 51b0 7b3d db0c 343e cd64 ee3d 2e47 bebd
000001d0: c5e4 053d 10ef 60bd b424 efbd 015d 29bd
000001e0: 21fa b1bd edb7 233e 7184 483e c7ed d3bc
000001f0: 8864 43bd dc90 0abd 3329 8dbc 1888 3cbe
00000200: c6a4 a6bd 14c1 9ebb e359 b5bd 2af7 9c3e
00000210: 6f30 beb9 392a 143d d2ae a33c 7cae 1d3d
00000220: 943d 4e3e c1bf 3c3e 3d6c 433e 1361 0d3e
00000230: 8775 8d3d c876 83bd da55 9dbd 4a03 5dbd
00000240: c106 fc3c 9fc6 1fbe 06ff 4abd 96cd 20be
00000250: bd44 29be a1ec 393d 7dd9 c7bd 5c1e a73c
00000260: 969e 173e dd92 6e3a 0101 daba 9f0a 3ebd
00000270: 2271 2fbe bb62 4f3d 0886 fdbd 78eb 313e
00000280: da88 2cbe 2e45 893d 8955 053e 84e8 bdbd
00000290: 284d a2bd 3be9 98bd 551d 33bd ff02 303e
000002a0: d1a7 64bd c804 fdbd ad85 163e 48ee 12be
000002b0: fbfd b13c 5817 793e c7c5 87bd cf1f 7d3d
000002c0: 888b 613c bccf 98bc 3e7f e2bd d88b d7bc
000002d0: d83c 3cbe 4ffe 89bd d7a9 383e d303 123e
000002e0: 48f2 1fbe d6e3 d0bc fb37 96bd 5760 083d
000002f0: 081e 463e 50af c2bd ca63 343e 79ae 4d3d
00000300: 2b60 163e 7388 d43d 589a d53b 019b 343e
00000310: 2f30 1c3e 8499 003c f4fc 243d 414b f2bd
00000320: 4a91 5dbe 41d0 0d3e 72c7 aabd 2bae 7c3d
00000330: 5b90 5dbd f34e acbd d887 8abd 40ee debd
00000340: 846e 48bd 3ebb 34be d2d8 afbd 6aad e6bd
00000350: 7cf0 09bd ff03 91bd e576 183e 971a e0bc
00000360: 6d14 8fbd af05 3b3e 8d1a 2b3e 2dfc 5fbd
00000370: d3fb 503d 01ca 9e3c da58 0a3e 7cf5 e7bd
00000380: 199e 1a3e 7f69 f2bd a046 f5bb 10c8 b8bc
00000390: 25e2 b2bd 150b 893c 66b2 6e3e 7bf2 e4bd
000003a0: 41d6 d73d 41dd b0bd aac4 4dbe ce15 51be
000003b0: 5943 28be 139e 9e3d 20ab 513d 762c 3b3b
000003c0: e6d9 833c ed06 0fbe b153 14be 1b4a adbd
000003d0: b5de db3b ac46 293e 59c2 643e f29a 403e
000003e0: 6617 d6bd 31b6 cabc d3b6 dabd 9244 2bbe
000003f0: 3357 3fbe 5813 11be 2054 47be eea1 713e

Conv_BN_ReLU1.0.bias f4 [16]
-0.20639531 -0.022416754 -0.11098427 0.20819815 0.031417973 -0.020425515 -0.027942156 -0.078696094
-0.046674408 -0.0101233395 0.1729107 0.027720498 0.07913958 0.13548249 -0.055390604 -0.040949766
00000000: 4b59 53be 57a3 b7bc b94b e3bd e531 553e
00000010: 22b0 003d 6953 a7bc f3e6 e4bc 6b2b a1bd
00000020: aa2d 3fbd 5ddc 25bc 810f 313e 1916 e33c
00000030: ef13 a23d ecbb 0a3e 42e1 62bd f1ba 27bd

Conv_BN_ReLU1.1.weight f4 [16]
1.0087352 0.99707997 0.96488994 1.0152899 1.1368496 0.947939 1.0818694 0.976286
0.81235385 1.039225 0.9584593 0.9993851 1.0898831 0.9655259 0.9783166 1.022062
00000000: 3c1e 813f a240 7f3f 0703 773f 05f5 813f
00000010: 4a84 913f 21ac 723f b27a 8a3f e1ed 793f
00000020: 6cf6 4f3f 5305 853f 975d 753f b4d7 7f3f
00000030: 4a81 8b3f b52c 773f f572 7a3f edd2 823f

Conv_BN_ReLU1.1.bias f4 [16]
0.064761624 0.020296933 -0.07543817 -0.07384724 0.35637292 0.04062399 0.2847572 0.07291544
-0.3021441 -0.047761124 -0.115946665 0.062115356 -0.03395545 -0.032711092 0.017695243 0.06383613
00000000: bea1 843d c145 a63c 547f 9abd 393d 97bd
00000010: 8376 b63e 5765 263d b2cb 913e b154 953d
00000020: a2b2 9abe 2ba1 43bd 7275 edbd ac6c 7e3d
00000030: df14 0bbd 11fc 05bd 9df5 903c 84bc 823d

Conv_BN_ReLU1.1.running_mean f4 [16]
-0.22999285 -0.04627548 -0.17891629 0.17777973 0.03345393 -0.005687853 -0.031102803 -0.12960778
-0.14460084 -0.057893045 0.044434983 0.08848269 0.06690668 0.102040164 0.0034259334 -0.01634845
00000000: 3f83 6bbe 5c8b 3dbd d535 37be e40b 363e
00000010: fd06 093d 2b61 babb 4ecb febc e7b7 04be
00000020: 3e12 14be 4221 6dbd 7501 363d 6a36 b53d
00000030: 5f06 893d 6ffa d03d a085 603b 2fed 85bc

Conv_BN_ReLU1.1.running_var f4 [16]
0.0065892646 0.0028742384 0.0029811237 0.0038787941 0.004754013 0.0027523572 0.004054274 0.0069448655
0.01014443 0.0064880657 0.015061476 0.0063368683 0.0013593776 0.006814806 0.006649775 0.0035710856
00000000: c2ea d73b b85d 3c3b f55e 433b 5e33 7e3b
00000010: 8dc7 9b3b e460 343b b7d9 843b c191 e33b
00000020: d334 263c d799 d43b 69c4 763c 81a5 cf3b
00000030: 252d b23a bc4e df3b 5be6 d93b e008 6a3b

Conv_BN_ReLU1.3.weight f4 [16, 16, 3, 3]
-0.07872603 0.054847978 -0.08636035 -0.04410771 0.058450107 0.059177276 -0.05795284 -0.012917831
-0.06328503 0.053921204 0.027696235 0.008948464 -0.043253407 -0.07235105 -0.10083182 -0.017061446
-0.04227829 -0.07707127 0.04687146 0.03596286 -0.0030237113 -0.012084154 0.091874376 0.104849264
0.043896507 0.0646355 0.10429251 0.06798611 0.002236399 0.058005866 -0.067026794 -0.0666999
0.0022636673 0.025435897 0.055328824 0.02110821 0.01620924 0.058864526 -0.07115663 0.012599824
-0.045856796 -0.00012402052 0.073923156 -0.016417217 -0.0072861216 0.009349935 -0.05350279 -0.034890026
0.04691268 -0.11156694 -0.12218461 -0.024796521 -0.016094716 -0.1278141 0.061256047 0.008860506
0.060327895 -0.025739534 -0.088613 0.007207565 -0.013353059 0.010158883 0.055485904 0.08544847
0.050634835 0.023399647 0.01979229 -0.022766273 -0.050107755 0.0068360567 0.0660069 0.09140703
0.018813474 0.033183593 -0.026250288 0.070514135 0.017261852 -0.02393134 0.071862265 0.058671683
-0.04872222 0.09587587 -0.003694159 0.039671723 -0.070966095 -0.015617936 0.06858706 0.08284021
0.041756686 0.05355156 0.07508305 0.08855983 0.11673052 0.0092680855 -0.023269093 0.06054983
0.07483046 0.00880802 0.10467365 0.09779558 0.0249215 0.00925141 0.063820444 0.03987762
0.08674648 0.0067247367 0.047290225 0.044202875 0.009110237 -0.005043362 -0.053652193 0.04731078
-0.091807015 -0.073008984 0.045859944 0.080249414 0.010333734 -0.009534872 0.071569 0.045191165
0.028454974 0.004924661 0.058024764 -0.009805992 0.020034108 -0.04276025 0.11314932 0.046250988
0.10504034 0.08537936 0.08762702 -0.0044788504 -0.03662061 -0.010841121 0.06407333 -0.019032348
-0.024259934 0.041657455 -0.08829386 0.02050856 0.09082447 -0.077118635 -0.11468548 -0.067387275
-0.006102023 0.06999757 -0.037140913 0.05568461 0.047062684 0.06890136 -0.0071811383 -0.005960297
-0.0642473 0.013188511 0.06898092 0.102614656 -0.049323823 0.103716984 0.016972521 0.11047047
0.059685227 -0.05514657 0.042036366 0.055901006 0.08074041 -0.065999225 -0.0020254273 -0.022330593
0.032109514 0.038666103 -0.06456714 -0.15567946 0.051808577 0.11182092 -0.09806406 0.062104512
0.12189935 0.054042578 0.13005938 0.03992798 0.007342331 -0.107360296 0.00857741 -0.08872833
-0.09686217 0.004200651 -0.03626922 -0.017860368 0.07157873 -0.050505757 -0.0029684582 0.03340011
-0.08192691 -0.06316984 -0.0065522655 0.038005386 -0.011145844 -0.038516555 -0.11301897 -0.03048463
0.043908976 -0.123229064 -0.059916534 0.028003419 -0.12934867 -0.10509717 0.056833576 -0.06462332
-0.038197756 -0.020601295 0.0064765993 -0.024374522 0.086487986 0.0295284 0.08811624 0.07555417
-0.06793704 0.057355944 -0.09274696 0.022461621 0.014883722 0.04396704 -0.098045126 0.0005333352
-0.045062438 0.07052775 0.09345483 0.014281507 0.08802784 0.042128496 0.02376769 0.06890287
0.05311924 -0.021145811 -0.043365266 -0.03290294 -0.03559679 -0.10762035 -0.08122821 0.010753199
0.024131311 0.016880931 -0.080979005 0.05445662 -0.0192899 -0.12993746 0.18814662 0.004195844
-0.11120045 0.14656469 -0.01902475 -0.11810281 0.025897527 0.047058724 -0.085502006 0.048991933
00000000: 1d3b a1bd 46a8 603d b2dd b0bd 49aa 34bd
00000010: 6169 6f3d df63 723d f55f 6dbd 4fa5 53bc
00000020: 959b 81bd 7bdc 5c3d 37e3 e23c 949c 123c
00000030: 7c2a 31bd ca2c 94bd ea80 cebd 72c4 8bbc
00000040: 002c 2dbd 8bd7 9dbd 4afc 3f3d cb4d 133d
00000050: 7529 46bb 9efc 45bc a228 bc3d 36bb d63d
00000060: d3cc 333d 9e5f 843d 5097 d53d 4d3c 8b3d
00000070: 8d90 123b 8f97 6d3d 5845 89bd f599 88bd
00000080: 095a 143b f15e d03c 7aa0 623d 20eb ac3c
00000090: 3dc9 843c ee1b 713d 91ba 91bd 7e6f 4e3c
000000a0: 56d4 3bbd 810b 02b9 0665 973d 667d 86bc
000000b0: 6bc0 eebb 7830 193c be25 5bbd d8e8 0ebd
000000c0: 8327 403d 357d e4bd ed3b fabd 1322 cbbc
000000d0: 11d9 83bc b3e1 02be 9fe7 7a3d a82b 113c
000000e0: 621a 773d b7db d2bc bc7a b5bd 702d ec3b
000000f0: cac6 5abc 7271 263c 3045 633d 9cff ae3d
00000100: 7966 4f3d 9eb0 bf3c 7123 a23c 5680 babc
00000110: ca3d 4dbd 0001 e03b a02e 873d 9c33 bb3d
00000120: b71e 9a3c 85eb 073d d80a d7bc b769 903d
00000130: ba68 8d3c a80b c4bc 862c 933d b851 703d
00000140: f390 47bd 915a c43d b419 72bb d17e 223d
00000150: ac56 91bd 5fe2 7fbc 5f77 8c3d 21a8 a93d
00000160: 0f09 2b3d e158 5b3d 24c5 993d db5e b53d
00000170: 6910 ef3d 2bd9 173c d39e bebc 1903 783d
00000180: b640 993d 834f 103c 235f d63d 0d49 c83d
00000190: 2c28 cc3c 3a93 173c 4bb4 823d b756 233d
000001a0: 23a8 b13d 2e5b dc3b 65b3 413d 130e 353d
000001b0: 1a43 153c c942 a5bb 67c2 5bbd f3c8 413d
000001c0: 5105 bcbd bc85 95bd a3d7 3b3d ce59 a43d
000001d0: d24e 293c 2738 1cbc c592 923d 5f1a 393d
000001e0: 681a e93c 0d5f a13b 60ab 6d3d 50a9 20bc
000001f0: 921e a43c 5f25 2fbd d5ba e73d ad71 3d3d
00000200: 641f d73d 60db ae3d cc75 b33d 52c3 92bb
00000210: 7eff 15bd f59e 31bc e138 833d bae9 9bbc
00000220: c5bc c6bc 02a1 2a3d 69d3 b4bd 9101 a83c
00000230: 2e02 ba3d 60f0 9dbd 39e0 eabd 5702 8abd
00000240: 7bf3 c7bb e35a 8f3d 1221 18bd 8c15 643d
00000250: cdc4 403d 281c 8d3d c14f ebbb 984e c3bb
00000260: 1794 83bd a014 583c de45 8d3d a227 d23d
00000270: c707 4abd 9269 d43d f509 8b3c 573e e23d
00000280: 7f78 743d 5fe1 61bd 532e 2c3d 74f8 643d
00000290: 3a5b a53d 9a2a 87bd 08bd 04bb a6ee b6bc
000002a0: 4485 033d 5960 1e3d c73b 84bd 706a 1fbe
000002b0: 3b35 543d 5e02 e53d cfd5 c8bd 4d61 7e3d
000002c0: 5ea6 f93d c05b 5d3d 492e 053e 868b 233d
000002d0: f097 f03b b7df dbbd 4488 0c3c 33b7 b5bd
000002e0: ac5f c6bd 9da5 893b 098f 14bd e84f 92bc
000002f0: df97 923d 20df 4ebd 778a 42bb 8ece 083d
00000300: 4cc9 a7bd 305f 81bd 63b4 d6bb 89ab 1b3d
00000310: 0f9d 36bc 89c3 1dbd 7d76 e7bd e7ba f9bc
00000320: e6d9 333d 855f fcbd 0a6b 75bd 6d67 e53c
00000330: fa73 04be 2f3d d7bd 53ca 683d 3b59 84bd
00000340: 4075 1cbd 0cc4 a8bc a739 d43b 14ad c7bc
00000350: 9d20 b13d 8be5 f13c 4a76 b43d 25bc 9a3d
00000360: 9322 8bbd 11ee 6a3d 1ef2 bdbd 6f01 b83c
00000370: dbda 733c c816 343d e2cb c8bd 85cf 0b3a
00000380: 6493 38bd da70 903d 3f65 bf3d fbfc 693c
00000390: f147 b43d ee8e 2c3d 75b4 c23c f31c 8d3d
000003a0: 8f93 593d fb39 adbc c79f 31bd 3cc5 06bd
000003b0: f1cd 11bd 0f68 dcbd fa5a a6bd 302e 303c
000003c0: 07af c53c e149 8a3c 52d8 a5bd e80d 5f3d
000003d0: da05 9ebc 530e 05be 82a9 403e 4a7d 893b
000003e0: 10bd e3bd 0e15 163e cbd9 9bbc e3df f1bd
000003f0: 0d27 d43c a6c0 403d ad1b afbd c4ab 483d

Conv_BN_ReLU1.3.bias f4 [16]
-0.061852578 -0.014470787 -0.019140564 -0.023154749 -0.039757974 -0.0051564467 -0.08843732 -0.045201104
-0.03172495 -0.059151623 0.056231357 -0.05851626 0.012507363 -0.03327475 -0.05263868 -0.0083741825
00000000: 2159 7dbd e116 6dbc accc 9cbc 07af bdbc
00000010: 42d9 22bd 69f7 a8bb a01e b5bd cb24 39bd
00000020: 05f2 01bd f948 72bd da52 663d bfae 6fbd
00000030: afeb 4c3c 1b4b 08bd a89b 57bd de33 09bc

Conv_BN_ReLU1.4.weight f4 [16]
0.8709252 1.0721732 1.0022849 1.0405298 1.1378282 0.9724939 1.0313665 0.9903282
1.0953349 0.93571514 0.9476308 1.0058296 0.94072556 1.0091424 0.92187655 0.97361535
00000000: f4f4 5e3f f93c 893f df4a 803f 1530 853f
00000010: 5ba4 913f 5cf5 783f d103 843f 2686 7d3f
00000020: ef33 8c3f 078b 6f3f ef97 723f 06bf 803f
00000030: 64d3 703f 942b 813f 1a00 6c3f db3e 793f

Conv_BN_ReLU1.4.bias f4 [16]
-0.2424558 0.0015802277 -0.03716039 0.021074962 -0.003592354 -0.13618204 -0.08415143 0.014800018
0.05648076 -0.10519365 -0.02089267 -0.12506095 -0.06894182 0.026755376 -0.1463331 -0.017031768
00000000: 5546 78be a51f cf3a 7e35 18bd 66a5 ac3c
00000010: b36d 6bbb 4e73 0bbe 9657 acbd c67b 723c
00000020: 5f58 673d c56f d7bd 1b27 abbc fa0f 00be
00000030: 5e31 8dbd 172e db3c 58d8 15be 3586 8bbc

Conv_BN_ReLU1.4.running_mean f4 [16]
0.57591563 -0.32102835 -0.41378385 -0.24708824 -0.51240784 -0.6799673 -0.2595165 -0.5610857
-0.6322783 -0.5225436 0.22251207 -0.453733 0.40758112 -0.9373776 -0.049963463 -0.39185727
00000000: 356f 133f d45d a4be 7adb d3be b304 7dbe
00000010: 292d 03bf 5612 2ebf 59df 84be 50a3 0fbf
00000020: fedc 21bf 6bc5 05bf 34da 633e b14f e8be
00000030: 79ae d03e faf7 6fbf 7da6 4cbd 84a1 c8be

Conv_BN_ReLU1.4.running_var f4 [16]
0.26562163 1.1857712 0.64848554 0.60587555 0.38241088 0.5076966 0.30831045 0.5542085
0.83804107 0.8202833 0.6478139 0.6940642 0.30661508 0.66399413 0.6282469 0.56160504
00000000: 8fff 873e 5ac7 973f 2603 263f a91a 1b3f
00000010: 5ccb c33e 68f8 013f deda 9d3e 9ce0 0d3f
00000020: dc89 563f 16fe 513f 22d7 253f 31ae 313f
00000030: a7fc 9c3e 85fb 293f cad4 203f 59c5 0f3f

Conv_BN_ReLU2.0.weight f4 [32, 16, 3, 3]
0.058046672 0.077005014 0.07060935 -0.04870374 0.0060266117 -0.06057576 0.04769584 -0.08865477
-0.08733077 -0.008269257 0.04192868 -0.019823758 -0.042336024 -0.026226748 0.0019743748 0.05482674
-0.03488156 -0.09868833 -0.0140485205 0.06611268 -0.056700613 0.034417696 0.0013379884 -0.07960692
0.0644368 -0.08430336 -0.031823747 -0.037374232 -0.097424425 -0.1235912 -0.046365112 0.021483678
-0.11019004 0.038757652 0.031671785 -0.11042118 -0.1543987 -0.0034479941 0.022943962 -0.093497045
-0.0016173035 0.019051349 -0.16104834 0.07044292 0.021421894 -0.110938996 -0.069841966 -0.048983403
0.01142962 -0.053221717 0.05931975 -0.030044107 0.02750917 0.030392587 0.004419401 -0.06988321
-0.07499359 0.13611463 -0.09339747 -0.072045125 0.043044902 0.059342816 -0.010370693 -0.116944395
-0.06878148 -0.11516622 -0.012219197 -0.0069327136 -0.09504595 0.021855801 -0.032374028 -0.09411495
-0.08710581 0.07614991 0.023905719 -0.04140668 0.09763636 0.047963083 0.02754136 -0.038072843
-0.034827765 0.029373156 0.06805213 -0.12092319 0.087580346 0.073143035 0.022153322 0.024174273
0.052061968 -0.042677615 0.051483538 0.02341199 0.014028422 0.016989833 -0.025487812 -0.001298392
0.06534873 -0.03593314 -0.06349102 -0.01253005 -0.087254204 -0.110636495 -0.025984628 -0.036926884
-0.16321984 -0.0061366586 -0.086190425 -0.0671945 0.062239736 0.04610429 0.036820397 -0.07054364
0.019255722 -0.02427826 -0.0056406655 0.11209078 0.0010287669 0.011160634 0.025199836 0.0026754446
0.113205865 0.051718306 0.053631347 0.1728505 0.015743876 0.06754917 0.010970504 0.020325495
-0.07517821 -0.03169274 0.0036471307 0.02827845 -0.041362885 0.0076774927 -0.013993613 0.08484952
-0.049048636 -0.07380315 0.06755178 0.001742359 -0.006406121 -0.014572833 0.032539893 0.04541663
-0.10613136 -0.0009214121 0.07223546 0.064626954 0.044394393 -0.07174914 0.00027944462 -0.037620734
-0.049936496 0.048857477 0.058491997 -0.15032329 0.026941722 -0.021519454 -0.16053289 -0.045323137
0.08065515 -0.19591852 -0.01265167 -0.029781427 0.09415005 0.097394004 0.061535653 0.02169207
-0.038682286 -0.08913665 0.0417172 -0.08747422 -0.07860357 0.0720148 -0.016391236 -0.03420498
0.011643914 -0.03752331 -0.056588635 0.07097267 -0.057027955 -0.0040159575 0.02316553 -0.016396824
-0.083625056 -0.068726055 0.0673703 -0.116156615 -0.06524411 0.019506257 0.024813622 0.07171421
0.034864366 0.0026966995 -0.017321048 -0.026204634 -0.025325965 -0.024528226 0.08342264 0.04382581
0.06538638 -0.001835663 -0.024043117 0.098927386 -0.08671842 0.043332983 0.050835885 -0.080990456
0.06773201 0.11918246 -0.041677 -0.06797865 0.06130713 -0.13325188 -0.04841322 0.0982806
0.044922944 -0.12285137 0.050526872 0.024231134 -0.05460204 0.06319997 0.04158907 -0.1170578
-0.012102708 0.037560813 -0.025334902 -0.014437492 0.09511638 0.038679566 0.026187187 -0.039290868
-0.021175329 0.021917932 0.03632173 0.053820487 -0.04298497 -0.030654017 0.003629841 -0.07238015
-0.06316773 -0.02070276 -0.112274036 0.014034216 0.025286742 0.028627796 0.09347535 0.020739287
-0.032475024 0.10247358 0.020084206 0.03156969 -0.019863112 0.007000836 0.12683812 -0.04713296
00000000: 59c2 6d3d ceb4 9d3d a39b 903d 937d 47bd
00000010: e27a c53b 4a1e 78bd b75c 433d a290 b5bd
00000020: 7ada b2bd c77b 07bc 68bd 2b3d 6f65 a2bc
00000030: 8a68 2dbd 7ad9 d6bc 8364 013b 0192 603d
00000040: f7df 0ebd 1b1d cabd c42b 66bc 1666 873d
00000050: e73e 68bd 92f9 0c3d 715f af3a f408 a3bd
00000060: 71f7 833d 3da7 acbd 9e59 02bd b915 19bd
00000070: 7586 c7bd 621d fdbd 58e9 3dbd 8afe af3c
00000080: 51ab e1bd 58c0 1e3d 46ba 013d 8024 e2bd
00000090: b11a 1ebe bef7 61bb faf4 bb3c 617b bfbd
000000a0: b3fb d3ba 9311 9c3c dbe9 24be 6144 903d
000000b0: f87c af3c fc33 e3bd 4e09 8fbd d2a2 48bd
000000c0: 4d43 3b3c 04ff 59bd 44f9 723d 0f1f f6bc
000000d0: e95a e13c e0f9 f83c 9fd0 903b ee1e 8fbd
000000e0: 3d96 99bd a261 0b3e 2c47 bfbd 658c 93bd
000000f0: da4f 303d 7411 733d d7e9 29bc 8b80 efbd
00000100: 4edd 8cbd 44dc ebbd 0733 48bc d12b e3bb
00000110: 73a7 c2bd f00a b33c a19a 04bd 57bf c0bd
00000120: 8864 b2bd 7cf4 9b3d edd5 c33c 0d9a 29bd
00000130: 92f5 c73d f074 443d 6b9e e13c 45f2 1bbd
00000140: 8fa7 0ebd f99f f03c ea5e 8b3d 94a6 f7bd
00000150: 535d b33d 04cc 953d e27a b53c 2009 c63c
00000160: ee3e 553d b9ce 2ebd 67e0 523d 80ca bf3c
00000170: 77d7 653c 432e 8b3c d1cb d0bc ce2e aaba
00000180: 8ed5 853d a12e 13bd 9407 82bd d74a 4dbc
00000190: 55b2 b2bd 6395 e2bd b7dd d4bc a540 17bd
000001a0: 1a23 27be 0616 c9bb 9b84 b0bd 459d 89bd
000001b0: 18ef 7e3d dad7 3c3d fcd0 163d 2f79 90bd
000001c0: 2dbe 9d3c 34e3 c6bc 55d5 b8bb da8f e53d
000001d0: b0d7 863a 18db 363c e36f ce3c 8356 2f3b
000001e0: 7ad8 e73d 93d6 533d 8bac 5b3d b9ff 303e
000001f0: 4df9 803c 3857 8a3d a1bd 333c a781 a63c
00000200: 09f7 99bd 3fd0 01bd b304 6f3b 35a8 e73c
00000210: 216c 29bd 7a93 fb3b 7845 65bc 96c5 ad3d
00000220: 39e7 48bd 1b26 97bd 9658 8a3d de5f e43a
00000230: 70ea d1bb e4c2 6ebc 8d48 053d ca06 3a3d
00000240: 665b d9bd eb8a 71ba 2ff0 933d 235b 843d
00000250: e5d6 353d 37f1 92bd 6c82 9239 3318 1abd
00000260: 368a 4cbd c71e 483d 4e95 6f3d 59ee 19be
00000270: e3b4 dc3c 9149 b0bc bc62 24be c1a4 39bd
00000280: 872e a53d dd9e 48be f348 4fbc 2ef8 f3bc
00000290: bed1 c03d 8276 c73d cf0c 7c3d 91b3 b13c
000002a0: 5171 1ebd 478d b6bd a8df 2a3d af25 b3bd
000002b0: e9fa a0bd 7f7c 933d ea46 86bc 851a 0cbd
000002c0: 1dc6 3e3c 0bb2 19bd 7cc9 67bd 1f5a 913d
000002d0: 2596 69bd 4b98 83bb a3c5 bd3c a252 86bc
000002e0: 9d43 abbd 3fc0 8cbd 71f9 893d 85e3 edbd
000002f0: b49e 85bd 96cb 9f3c f045 cb3c e6de 923d
00000300: f0cd 0e3d 1cbb 303b dfe4 8dbc 1aab d6bc
00000310: 6678 cfbc 6bef c8bc 7dd9 aa3d b182 333d
00000320: 4be9 853d a19a f0ba 12f6 c4bc 719a ca3d
00000330: 6d99 b1bd ed7d 313d 4a39 503d 53de a5bd
00000340: 14b7 8a3d ef15 f43d 80b5 2abd 6438 8bbd
00000350: 2f1d 7b3d 2e73 08be f14c 46bd 5747 c93d
00000360: 1f01 383d 8099 fbbd 44f5 4e3d 5f80 c63c
00000370: 64a6 5fbd fc6e 813d 4d59 2a3d 00bc efbd
00000380: 704a 46bc 5ed9 193d 248b cfbc 3b8b 6cbc
00000390: 60cc c23d 776e 1e3d 8386 d63c 76ef 20bd
000003a0: e277 adbc 3c8d b33c 18c6 143d df72 5c3d
000003b0: 0211 30bd 221e fbbc a0e2 6d3b 0b3c 94bd
000003c0: 155e 81bd d698 a9bc eeef e5bd c5ef 653c
000003d0: 2426 cf3c d784 ea3c 0170 bf3d 70e5 a93c
000003e0: 8804 05bd abdd d13d a287 a43c 384f 013d
000003f0: f7b7 a2bc 4567 e53b dae1 013e 7e0e 41bd

Conv_BN_ReLU2.0.bias f4 [32]
-0.011254517 0.038061857 -0.019089967 0.021527853 0.06479966 -0.017401297 -0.07131024 0.009173085
0.08418 -0.05061307 0.042689905 -0.061430167 -0.07352019 0.013837825 -0.05626183 -0.020633457
0.009143005 0.0017383049 -0.040280737 -0.053398456 -0.024952859 -0.058541693 0.0016629288 0.08498764
-0.049144156 -0.03411245 -0.07980998 0.025167093 0.019190513 -0.07262328 -0.039662357 -0.018724808
00000000: de64 38bc c0e6 1b3d 9062 9cbc 2e5b b03c
00000010: afb5 843d 2a8d 8ebc 1a0b 92bd b54a 163c
00000020: 9066 ac3d a74f 4fbd 9cdb 2e3d 339e 7bbd
00000030: c191 96bd 0bb8 623c ce72 66bd 7f07 a9bc
00000040: 8bcc 153c d5d7 e33a 6afd 24bd 57b8 5abd
00000050: f069 ccbc 6ac9 6fbd a2f6 d93a 000e ae3d
00000060: 624b 49bd 7fb9 0bbd 6a73 a3bd 382b ce3c
00000070: 6c35 9d3c 84bb 94bd ff74 22bd c564 99bc

Conv_BN_ReLU2.1.weight f4 [32]
1.0008878 1.0625159 1.0131158 0.93150085 1.0324378 1.132414 0.9483332 0.98462784
0.9751203 1.034114 0.99591 0.94445795 0.98244435 1.0757763 0.9927 0.96384573
0.91284883 0.9655456 0.9933708 1.0002458 0.94803804 0.91600615 0.9473525 1.005981
1.0803661 0.99522185 1.0314105 0.9678404 1.105751 1.1798048 0.98963517 1.0277917
00000000: 171d 803f 8500 883f c7ad 813f d776 6e3f
00000010: ec26 843f f1f2 903f f7c5 723f 9210 7c3f
00000020: 7ca1 793f d95d 843f f5f3 7e3f ffc7 713f
00000030: 7981 7b3f 0ab3 893f 9621 7e3f 98be 763f
00000040: 76b0 693f ff2d 773f 8c4d 7e3f 0e08 803f
00000050: 9fb2 723f 617f 6a3f b285 723f fcc3 803f
00000060: 7049 8a3f dcc6 7e3f 4205 843f 63c4 773f
00000070: 4089 8d3f d803 973f bb58 7d3f ae8e 833f

Conv_BN_ReLU2.1.bias f4 [32]
-0.124738246 0.031032631 -0.025424737 -0.141892 -0.017480714 -0.041549154 -0.055764638 -0.0823737
-0.06345367 -0.09560154 -0.06692926 -0.05109493 -0.15092726 -0.013008502 -0.0004622467 -0.035150655
-0.022664046 -0.046043668 -0.0520836 -0.068275645 -0.058123007 -0.223539 -0.04361108 -0.10371533
-0.011833783 -0.12919201 -0.025330823 -0.11655617 0.010524444 0.031235402 -0.06856992 -0.08955024
00000000: c476 ffbd 2538 fe3c 8a47 d0bc 234c 11be
00000010: b733 8fbc 722f 2abd 7669 64bd 8bb3 a8bd
00000020: fff3 81bd bdca c3bd 3512 89bd eb48 51bd
00000030: ad8c 1abe 9d21 55bc b459 f2b9 22fa 0fbd
00000040: f3a9 b9bc 4998 3cbd 9d55 55bd 1ad4 8bbd
00000050: 6412 6ebd 68e7 64be 88a1 32bd b468 d4bd
00000060: 7ce2 41bc e94a 04be 9682 cfbc 00b5 eebd
00000070: b86e 2c3c 63e1 ff3c 636e 8cbd 1e66 b7bd

Conv_BN_ReLU2.1.running_mean f4 [32]
-0.695798 -0.32706922 -1.2221457 0.09730096 -0.54638916 -0.46978745 -0.640022 -0.4707001
-0.43566257 -0.72198045 -0.2117125 -0.8254159 -1.0548642 -0.8708229 -0.5606836 -0.65111136
0.13965134 0.32403132 0.3751295 0.20097983 0.61762506 0.14281756 0.3962175 -0.39176193
-0.4719825 0.162506 -0.73134065 -0.4220974 -0.677922 -0.32357475 -0.08120119 -0.19895665
00000000: d11f 32bf 9e75 a7be 456f 9cbf ba45 c73d
00000010: 29e0 0bbf fb87 f0be 7bd8 23bf 9aff f0be
00000020: 2a0f dfbe b6d3 38bf 29cb 58be 754e 53bf
00000030: ca05 87bf 40ee 5ebf f688 0fbf 3caf 26bf
00000040: c300 0f3e 6fe7 a53e f910 c03e a8cd 4d3e
00000050: ad1c 1e3f c43e 123e 05dd ca3e 0595 c8be
00000060: b1a7 f1be f967 263e 2439 3bbf 271d d8be
00000070: 4c8c 2dbf 97ab a5be cf4c a6bd 4bbb 4bbe

Conv_BN_ReLU2.1.running_var f4 [32]
0.60008144 0.411488 0.7941164 0.3881147 0.8882926 0.42902768 0.8456552 1.0873414
0.45556226 0.488166 0.36194956 0.5682468 0.7776851 0.5974167 0.46045113 0.6743119
0.549314 0.38541886 0.53266466 0.54705673 0.54505545 0.5997427 0.61502796 0.48870188
0.36292845 0.54256094 0.44169837 0.901362 0.59340507 0.35709885 0.3868921 0.39571685
00000000: f09e 193f 8eae d23e 364b 4b3f f8b6 c63e
00000010: 2567 633f 84a9 db3e dc7c 583f 012e 8b3f
00000020: 753f e93e e5f0 f93e 7451 b93e 9f78 113f
00000030: 5f16 473f 4df0 183f 40c0 eb3e b49f 2c3f
00000040: d89f 0c3f 9f55 c53e b65c 083f e90b 0c3f
00000050: c188 0b3f bd88 193f 7972 1d3f 2237 fa3e
00000060: c2d1 b93e 46e5 0a3f 4a26 e23e a9bf 663f
00000070: 65e9 173f a9d5 b63e b916 c63e 669b ca3e

Conv_BN_ReLU2.3.weight f4 [32, 32, 3, 3]
0.022776099 -0.01563515 -0.11055695 0.034620218 -0.029945826 -0.019872112 -0.06117308 -0.03155137
0.060038924 -0.03682862 -0.03435622 0.060493514 7.329821e-05 -0.015658827 0.06624355 0.017451476
0.016065205 -0.02633178 0.027539149 -0.00014323599 -0.0346948 0.061911866 0.0025430417 0.042574618
-0.025322078 -0.023942009 -0.07830513 0.077155605 -0.059334066 0.025163293 0.085914664 -0.09863998
-0.0782801 -0.02497218 -0.0024699075 -0.01881104 0.056295335 -0.015729545 -0.030232124 0.04937682
0.022564813 0.02018971 0.025894146 0.058506217 -0.031459823 0.1155456 0.10100419 -0.05882088
0.117411785 0.028851347 -0.053943507 -0.0066988673 0.048604544 0.09579076 -0.018032417 0.01889898
-0.042873364 -0.07414735 -0.017824374 0.039249707 0.04244117 0.04920799 -0.0514546 0.05548128
0.00825473 0.0094442405 0.046512492 0.04839358 0.0595964 -0.029449299 0.05665247 0.03929262
0.024637628 -0.01635715 0.042356547 -0.03694847 -0.0020726814 -0.035118546 -0.0780238 0.07499883
-0.026238473 0.03291622 -0.0038273362 0.16237345 0.056281846 0.058517884 0.15745632 0.007894171
0.005151508 0.012370886 -0.051968895 -0.07209758 -0.037666127 -0.009009011 0.0054768682 -0.024043996
-0.030724976 -0.005439636 -0.12078568 -0.02460904 0.029445896 0.049275827 0.003698049 0.020512443
0.08929956 0.019922221 -0.033831976 -0.0030628133 0.05619478 0.0704096 0.016747847 0.03703437
0.056064285 0.046311673 -0.004964512 -0.0028603077 0.005675939 -0.079473376 -0.036479153 -0.0008556606
0.051479403 0.059130415 0.03371527 0.049249627 0.014715848 -0.054626964 -0.0128433425 0.0013792556
-0.073824346 0.054743774 0.0062321136 0.016555317 -0.046454046 -0.032704603 0.02216181 0.09516593
0.060703564 -0.035290953 0.053160466 0.018533168 -0.02649452 0.043848813 0.038612578 -0.002507423
0.001901607 -0.07319457 -0.034699522 -0.01960292 -0.103328645 0.050243508 -0.023642465 -0.08887083
-0.06098092 0.032854017 0.0041467696 0.005642541 0.06273826 0.06334799 0.041816104 0.036692966
0.020279588 -0.017672783 0.036952246 0.0707191 -0.0016592823 0.057747032 -0.04218694 0.014594216
-0.04072988 0.027041396 0.030450612 -0.059556168 0.04323559 -0.032709956 -0.04286777 -0.062424716
-0.08663512 -0.10820961 -0.110516876 0.005660944 -0.025363905 -0.053912047 -0.056074154 0.013379389
-0.05696092 -0.017105708 -0.0670266 -0.017784653 0.044062443 -0.05024363 -0.114017665 -0.13035807
-0.061233975 -0.10801349 -0.1552029 -0.06734367 -0.13207427 -0.09092737 -0.051237706 0.000848078
-0.08916771 -0.005393546 -0.042297892 -0.113661416 -0.06703273 -0.040618256 -0.0019839269 -0.024798669
-0.01807253 -0.014510959 0.0053998167 -0.052325174 0.03353619 -0.029783966 -0.0983656 -0.1339219
0.086693615 -0.009482739 -0.10522169 0.015303404 0.021497345 0.0049801413 0.03750453 -0.04449619
0.055201177 -0.066540055 -0.018783392 -0.075440586 -0.10037454 -0.09512255 -0.03982629 -0.012082373
-0.06564877 0.00446888 0.08138362 0.034697972 -0.03976851 -0.06255188 -0.014533774 0.06421956
-0.036790866 -0.059333697 -0.02154771 0.029145129 0.025673283 -0.023900144 0.032177784 -0.05257247
0.0030112073 0.013051242 0.0127497045 -0.03770579 0.008952471 -0.0963164 -0.019757137 0.0043723593
00000000: f194 ba3c 4915 80bc af6b e2bd eecd 0d3d
00000010: f350 f5bc d7ca a2bc a090 7abd 023c 01bd
00000020: 60eb 753d 9bd9 16bd 1cb9 0cbd 0cc8 773d
00000030: adb7 9938 f146 80bc b3aa 873d 66f6 8e3c
00000040: 2d9b 833c bfb5 d7bc c899 e13c 9e31 16b9
00000050: 221c 0ebd 4c97 7d3d 29a9 263b b962 2e3d
00000060: 3f70 cfbc 0822 c4bc 715e a0bd c203 9e3d
00000070: 4708 73bd 4023 ce3c 07f4 af3d c203 cabd
00000080: 5151 a0bd 7592 ccbc 2cde 21bb 9c19 9abc
00000090: f095 663d 3fdb 80bc 5ca9 f7bc 593f 4a3d
000000a0: d8d9 b83c e464 a53c f61f d43c 37a4 6f3d
000000b0: 04dc 00bd 2ca3 ec3d 49db ce3d 2aee 70bd
000000c0: 9775 f03d a959 ec3c def3 5cbd 2c82 dbbb
000000d0: 8f15 473d f22d c43d b8b8 93bc 09d2 9a3c
000000e0: fb9b 2fbd 91da 97bd 6c04 92bc 4dc4 203d
000000f0: cbd6 2d3d 518e 493d 0fc2 52bd 5740 633d
00000100: d93e 073c 04bc 1a3c e283 3e3d 5938 463d
00000110: 5b1b 743d a83f f1bc 6c0c 683d 4cf1 203d
00000120: dad4 c93c 6eff 85bc 0f7e 2d3d 4757 17bd
00000130: d3d5 07bb 77d8 0fbd f1ca 9fbd fd98 993d
00000140: 11f2 d6bc 29d3 063d 0cd4 7abb 3a45 263e
00000150: cb87 663d 73b0 6f3d 3b3c 213e 8e56 013c
00000160: fbcd a83b 42af 4a3c 56dd 54bd e5a7 93bd
00000170: cc47 1abd 889a 13bc 4d77 b33b eaf7 c4bc
00000180: f2b2 fbbc f93e b2bb 7c5e f7bd e698 c9bc
00000190: 8538 f13c 73d5 493d f85a 723b b609 a83c
000001a0: b0e2 b63d ed33 a33c 6693 0abd 7bb9 48bb
000001b0: 7f2c 663d e932 903d c832 893c 5ab1 173d
000001c0: aaa3 653d 4fb1 3d3d 58ad a2bb 0074 3bbb
000001d0: 3afd b93b f0c2 a2bd 2a6b 15bd 694e 60ba
000001e0: 11dc 523d bc32 723d 0619 0a3d fab9 493d
000001f0: bd1a 713c 86c0 5fbd e26c 52bc 23c8 b43a
00000200: 3831 97bd 023b 603d c236 cc3b 049f 873c
00000210: 9946 3ebd 43f5 05bd af8c b53c 5be6 c23d
00000220: 4da4 783d 3f8d 10bd cabe 593d dfd2 973c
00000230: 090b d9bc d09a 333d 3928 1e3d 9453 24bb
00000240: 583f f93a 09e7 95bd 1621 0ebd 4e96 a0bc
00000250: f89d d3bd 23cc 4d3d d8ad c1bc e901 b6bd
00000260: 21c7 79bd ef91 063d a0e1 873b 11e5 b83b
00000270: eb7c 803d 97bc 813d 5d47 2b3d 5d4b 163d
00000280: 6121 a63c 83c6 90bc 3d5b 173d 2dd5 903d
00000290: 467c d9ba 2788 6c3d 36cc 2cbd 941c 6f3c
000002a0: 60d4 26bd eb85 dd3c 9073 f93c 2bf1 73bd
000002b0: cd17 313d e0fa 05bd 1d96 2fbd 0fb1 7fbd
000002c0: c16d b1bd 009d ddbd ac56 e2bd 717f b93b
000002d0: f7c7 cfbc e1d2 5cbd 03ae 65bd 3a35 5b3c
000002e0: db4f 69bd 4521 8cbc 3e45 89bd 1fb1 91bc
000002f0: d27a 343d 44cc 4dbd 1882 e9bd 967c 05be
00000300: 7ad0 7abd 2d36 ddbd 82ed 1ebe 7aeb 89bd
00000310: 7a3e 07be 2138 babd a1de 51bd 8d51 5e3a
00000320: 8f9d b6bd 58bc b0bb 8e40 2dbd 51c7 e8bd
00000330: 7548 89bd 545f 26bd c504 02bb 9426 cbbc
00000340: d80c 94bc 60bf 6dbc f2f0 b03b ec52 56bd
00000350: 3e5d 093d 81fd f3bc e773 c9bd d322 09be
00000360: 6c8c b13d 7d5d 1bbc 787e d7bd 21bb 7a3c
00000370: 331b b03c 7430 a33b 5a9e 193d a341 36bd
00000380: a11a 623d 2746 88bd a1df 99bc 9880 9abd
00000390: 2b91 cdbd 9dcf c2bd e420 23bd 25f5 45bc
000003a0: dd72 86bd af6f 923b 75ac a63d 761f 0e3d
000003b0: 4ee4 22bd 331b 80bd 111f 6ebc 8b85 833d
000003c0: 05b2 16bd e407 73bd d384 b0bc c4c1 ee3c
000003d0: c750 d23c 3cca c3bc dacc 033d 3b56 57bd
000003e0: ad57 453b e0d4 553c 23e4 503c 6371 1abd
000003f0: 63ad 123c 8841 c5bd b8d9 a1bc 0246 8f3b

Conv_BN_ReLU2.3.bias f4 [32]
0.05073355 -0.04215714 0.054262485 -0.05269287 -0.057049587 -0.0182331 -0.056169793 -0.03259035
0.024792463 -0.010971089 -0.04893116 -0.003949272 -0.01646026 0.051780753 0.011172158 -0.04386135
0.0084928665 0.024377124 -0.052546874 -0.029999655 -0.066811696 0.029448783 -0.042618383 0.05999391
-0.051445458 -0.03735027 -0.007634336 -0.015280603 0.048077088 -0.02280279 0.038082507 -0.053905193
00000000: fccd 4f3d f7ac 2cbd 5742 5e3d 7bd4 57bd
00000010: d4ac 69bd 955d 95bc 4c12 66bd 757d 05bd
00000020: 9019 cb3c 15c0 33bc 0a6c 48bd e568 81bb
00000030: abd7 86bc 0e18 543d 6d0b 373c f5a7 33bd
00000040: aa25 0b3c 89b2 c73c 643b 57bd d6c1 f5bc
00000050: 92d4 88bd 933e f13c 9d90 2ebd 2dbc 753d
00000060: 79b8 52bd 99fc 18bd 7429 fabb 7f5b 7abc
00000070: 7bec 443d ebcc babc 67fc 1b3d b1cb 5cbd

Conv_BN_ReLU2.4.weight f4 [32]
0.9552048 1.0567449 1.0073296 0.9782397 1.031123 0.9821257 0.95220363 1.0419044
1.0252249 0.9369066 1.057708 0.96455526 0.9650743 0.9576684 0.94372 0.9739098
0.9774582 1.051521 0.8697328 1.0041987 1.0074929 0.91824025 0.96895313 0.95535237
0.98915833 0.9759058 0.95586586 0.87442476 0.9899071 0.9866957 0.9982689 0.99062794
00000000: 4d88 743f 6b43 873f 2df0 803f eb6d 7a3f
00000010: d7fb 833f 976c 7b3f 9ec3 733f 205d 853f
00000020: 923a 833f 1cd9 6f3f fa62 873f 18ed 763f
00000030: 1c0f 773f c229 753f a297 713f 2752 793f
00000040: b33a 7a3f 3d98 863f cfa6 5e3f 9589 803f
00000050: 87f5 803f cb11 6b3f 500d 783f f991 743f
00000060: 7b39 7d3f f6d4 793f a0b3 743f 4dda 5f3f
00000070: 8d6a 7d3f 1798 7c3f 8d8e 7f3f cb99 7d3f

Conv_BN_ReLU2.4.bias f4 [32]
-0.12697165 -0.018421322 -0.13350001 -0.13545221 -0.10495296 -0.16321729 -0.09882995 -0.061620936
-0.051044103 -0.12859344 -0.14654855 -0.09088225 -0.18485408 -0.14528786 -0.15092447 -0.2323786
-0.04268108 -0.06880339 -0.22577828 -0.06679253 -0.12318648 -0.1305476 -0.070615865 -0.19659092
-0.08165084 -0.17171341 -0.11665632 -0.07854851 -0.23753227 -0.120723814 -0.10207404 -0.13622405
00000000: db04 02be 50e8 96bc 3ab4 08be fcb3 0abe
00000010: 94f1 d6bd 6f22 27be 5b67 cabd 3c66 7cbd
00000020: 9f13 51bd 00ae 03be d310 16be 7920 babd
00000030: 634a 3dbe 57c6 14be f28b 1abe a8f4 6dbe
00000040: 5bd2 2ebd cbe8 8cbd 6c32 67be 86ca 88bd
00000050: 3149 fcbd 45ae 05be 0d9f 90bd 214f 49be
00000060: 8e38 a7bd a4d5 2fbe 82e9 eebd 0bde a0bd
00000070: a93b 73be 0c3e f7bd 320c d1bd 517e 0bbe

Conv_BN_ReLU2.4.running_mean f4 [32]
-0.4602507 -1.0053321 -0.28888947 -1.3353668 -0.18813425 -0.48106334 0.2829094 -0.27460444
0.27747968 -0.17788865 -0.4726081 -0.8618938 -0.6757988 0.103840865 -0.0948598 -0.0090901265
-0.10928758 -0.70405406 1.5220954 -0.24711215 -0.670064 -0.03740209 -0.6121217 -1.3894302
-0.06934872 -0.68226635 -0.044606682 -1.9459243 -0.5079407 0.0073749605 -1.3874555 -0.54748285
00000000: fba5 ebbe b9ae 80bf 52e9 93be 4ded aabf
00000010: 44a6 40be ef4d f6be 80d9 903e f498 8cbe
00000020: d111 8e3e 7128 36be b0f9 f1be 12a5 5cbf
00000030: 2601 2dbf 85aa d43d db45 c2bd c1ee 14bc
00000040: 2bd2 dfbd e33c 34bf 06d4 c23f f80a 7dbe
00000050: 5089 2bbf ef32 19bd 02b4 1cbf d9d8 b1bf
00000060: b406 8ebd 02a9 2ebf 7fb5 36bd 0c14 f9bf
00000070: 6708 02bf a7a9 f13b 2498 b1bf d627 0cbf

Conv_BN_ReLU2.4.running_var f4 [32]
1.2241457 0.56512475 0.588487 0.8780994 0.7965983 0.5980742 1.1189386 0.76226234
0.8577684 0.5667375 0.4344764 0.5509185 0.545221 0.6597626 0.4808952 0.69207436
0.7593434 0.5083691 0.7666373 0.4055252 0.41785207 0.5817812 0.8771499 0.84015375
1.1463007 0.4839103 0.8871758 1.098929 0.49430668 0.45993844 0.83205587 0.61685735
00000000: ceb0 9c3f 04ac 103f 16a7 163f 1fcb 603f
00000010: deed 4b3f 641b 193f 6139 8f3f a023 433f
00000020: b696 5b3f b515 113f b173 de3e ff08 0d3f
00000030: 9a93 0b3f 34e6 283f e537 f63e c92b 313f
00000040: 5464 423f 7a24 023f 5842 443f 00a1 cf3e
00000050: b5f0 d53e 9def 143f e58c 603f 5114 573f
00000060: fbb9 923f 17c3 f73e f41d 633f b5a9 8c3f
00000070: c415 fd3e 0d7d eb3e 9d01 553f 5dea 1d3f

Conv_BN_ReLU3.0.weight f4 [32, 32, 3, 3]
-0.07078528 -0.025874624 -0.019413253 0.023825763 -0.05331617 -0.037403416 -0.053080965 -0.013164379
-0.073629715 0.07999397 0.030310674 0.069127075 0.040577307 0.070208736 0.09902695 0.06363358
0.052990954 0.08459574 -0.07763512 0.008598296 -0.09167184 -0.07605885 -0.011584056 -0.09014352
-0.03818369 0.020946018 -0.035581306 -0.0815168 -0.054247476 -0.041920625 -0.042754713 0.0063873837
-0.08109399 -0.00434438 -0.0673511 -0.016174208 0.060823493 0.07495436 0.09654526 0.012390698
0.07234943 0.066512585 0.047459554 0.042360477 0.032656185 0.021430006 -0.012098754 -0.028641714
-0.06036097 -0.010987007 -0.0015390549 -0.05484671 0.006247841 0.044850595 0.059163194 0.055406015
0.094212234 0.016257178 0.014787851 0.047805667 -0.05288629 0.013147749 -0.02401074 0.004057696
-0.05593215 -0.042900473 -0.04372967 0.048208326 0.0018422746 -0.08328399 -0.0643046 -0.07412942
0.1174873 0.046330456 0.09530936 0.04931301 0.07998116 0.035351742 1.4242974e-05 0.017130576
0.04735934 -0.060206734 0.014305747 -0.0153443 -0.026325637 -0.019173302 -0.06333542 0.0067157582
-7.201846e-05 -0.076732695 0.007511562 0.012506548 -0.07042905 0.04120989 0.08751863 -0.08574414
0.066051655 0.0971082 -0.059688214 -0.03709318 -0.057132762 0.0636982 -0.052484136 0.012376945
0.030032625 -0.081116565 -0.019971194 0.06182777 0.044518422 0.029769417 0.051226858 0.07342561
0.004864476 -0.02001256 0.09384006 -0.0020172661 0.05701691 0.0190244 0.060046714 -0.0038375766
0.024988387 -0.020064337 0.050001808 -0.060065795 -0.031887513 -0.029196018 -0.0050982255 -0.021294286
-0.08865361 -0.03131488 -0.02992872 0.01630041 0.02523725 0.0141512845 -0.051133096 -0.033435527
0.0011565472 -0.011366586 0.018912261 0.044594247 0.061622884 -0.032778326 -0.015570057 -0.027891206
0.01832393 -0.021092068 -0.01499475 0.016654532 -0.020822922 0.06066997 -0.03439515 0.04352967
0.014257335 -0.021007719 0.05186256 0.03546475 -0.03693793 0.04848603 0.004875387 0.048627835
0.06982455 0.022576364 -0.04907073 -0.06182625 -0.112768 0.018297322 -0.061157122 -0.005720647
-0.019277364 0.023634007 0.03620822 -0.055759948 -0.0017316893 -0.02624448 -0.0059794406 0.07260333
0.06788875 0.016324824 0.06565151 0.06313506 -0.025665803 0.0023914396 0.04938576 0.00033750018
0.0070751375 -0.0014456334 -0.024339966 -0.028113766 0.0054545337 -0.026207615 0.0009239154 0.027618924
-0.073693186 1.2994836e-06 -0.028020073 0.0010034787 -0.08575488 -0.05182965 0.06818505 -0.051037535
0.03954153 0.032154147 0.011115227 -0.06931984 0.008682006 -0.002591197 -0.09930358 -0.037719566
-0.052971713 -0.07196348 0.01146573 -0.013253496 -0.030827982 -0.0038982294 -0.028363181 -0.0874008
-0.035807654 -0.01074311 -0.050344776 -0.016306695 -0.06261567 -0.07785139 -0.094536774 -0.017275495
-0.10944956 0.00032362842 -0.06577691 -0.016446954 0.021583516 -0.040189866 0.050120167 -0.019696493
-0.0282503 0.011958779 -0.045312755 -0.023155985 -0.04142206 -0.039931722 0.061556883 -0.03546865
0.06635541 -0.0472946 0.04383189 0.033787232 -0.025386602 0.041033342 -0.046931945 -0.010132061
0.030195508 -0.01488865 0.008756503 -0.0067769065 -0.041024353 -0.0024955932 -0.011199109 0.0016261514
00000000: dff7 90bd 05f7 d3bc 8b08 9fbc 3f2e c33c
00000010: 0e62 5abd 5334 19bd 6d6b 59bd 68af 57bc
00000020: 2dcb 96bd e1d3 a33d 174e f83c 7f92 8d3d
00000030: 6434 263d 99c9 8f3d a4ce ca3d 5352 823d
00000040: 0b0d 593d 8840 ad3d 29ff 9ebd dedf 0c3c
00000050: 72be bbbd bec4 9bbd 0dcb 3dbc 2a9d b8bd
00000060: 8066 1cbd fc96 ab3c b4bd 11bd 48f2 a6bd
00000070: 9a32 5ebd f6b4 2bbd 911f 2fbd 424d d13b
00000080: 9b14 a6bd 4d5b 8ebb 60ef 89bd c67f 84bc
00000090: 0e22 793d ac81 993d 85b9 c53d 5b02 4b3c
000000a0: f02b 943d c037 883d f364 423d 2e82 2d3d
000000b0: 7ec2 053d fb8d af3c da39 46bc 07a2 eabc
000000c0: 113d 77bd d902 34bc 1dba c9ba f2a6 60bd
000000d0: b0ba cc3b 42b5 373d 1b55 723d 6bf1 623d
000000e0: 58f2 c03d c62d 853c be48 723c e0cf 433d
000000f0: 4b9f 58bd a869 573c 2cb2 c4bc 6cf6 843b
00000100: 1c19 65bd 68b8 2fbd e21d 33bd 1876 453d
00000110: 7a78 f13a cc90 aabd 21b2 83bd 2ad1 97bd
00000120: 2e9d f03d 01c5 3d3d 8e31 c33d 70fc 493d
00000130: 2acd a33d fdcc 103d 1cf5 6e37 6c55 8c3c
00000140: defb 413d 569b 76bd a762 6a3c a966 7bbc
00000150: dda8 d7bc 5411 9dbc 00b6 81bd dd0f dc3b
00000160: 9e08 97b8 0826 9dbd 8d23 f63b 44e8 4c3c
00000170: 1b3d 90bd b4cb 283d f83c b33d a09a afbd
00000180: 1746 873d aae0 c63d a17b 74bd 05ef 17bd
00000190: 0b04 6abd 3474 823d 9bf9 56bd abc8 4a3c
000001a0: fb06 f63c 7120 a6bd a19a a3bc 1e3f 7d3d
000001b0: f358 363d fede f33c 41d3 513d 2b60 963d
000001c0: 2f66 9f3b 61f1 a3bc 382f c03d 1c34 04bb
000001d0: 908a 693d 0fd9 9b3c 8bf3 753d da7f 7bbb
000001e0: 72b4 cc3c f75d a4bc b2ce 4c3d 8d07 76bd
000001f0: 7b9c 02bd 7d2c efbc 040f a7bb 5b71 aebc
00000200: 0690 b5bd 0844 00bd 132d f5bc 7088 853c
00000210: 59be ce3c cada 673c f070 51bd b1f3 08bd
00000220: 4997 973a eb3a 3abc e3ed 9a3c 75a8 363d
00000230: 4768 7c3d 9142 06bd 8d19 7fbc 197c e4bc
00000240: 111c 963c 46c9 acbc 8aac 75bc 166f 883c
00000250: d594 aabc 1381 783d eee1 0cbd 2b4c 323d
00000260: 9997 693c 6118 acbc d66d 543d 7c43 113d
00000270: 3a4c 17bd 4a99 463d b6c1 9f3b fb2d 473d
00000280: 2c00 8f3d 11f2 b83c 64fe 48bd 863d 7dbd
00000290: e9f2 e6bd 44e4 953c e47f 7abd 4474 bbbb
000002a0: 90eb 9dbc 1b9c c13c 124f 143d 8b64 64bd
000002b0: daf9 e2ba aafe d6bc 2fef c3bb 0eb1 943d
000002c0: 4209 8b3d a3bb 853c 4d74 863d f44c 813d
000002d0: 1741 d2bc b3b9 1c3b b948 4a3d 82f2 b039
000002e0: 8ed6 e73b 687b bdba 9c64 c7bc d74e e6bc
000002f0: f2bb b23b 5ab1 d6bc ea32 723a 1541 e23c
00000300: 74ec 96bd eb69 ae35 5a8a e5bc 2887 833a
00000310: 41a0 afbd 544b 54bd 9aa4 8b3d bc0c 51bd
00000320: 4df6 213d 11b4 033d a41c 363c 8ff7 8dbd
00000330: f93e 0e3c 12d1 29bb ad5f cbbd d57f 1abd
00000340: def8 58bd 9761 93bd c2da 3b3c 3125 59bc
00000350: f78a fcbc 7079 7fbb e759 e8bc 31ff b2bd
00000360: 0cab 12bd df03 30bc 5336 4ebd 9e95 85bc
00000370: a53c 80bd 8d70 9fbd 7f9c c1bd 5785 8dbc
00000380: 1727 e0bd acac a939 0bb6 86bd c3bb 86bc
00000390: eacf b03c 219e 24bd ce4a 4d3d 8a5a a1bc
000003a0: 2c6d e7bc c1ee 433c de99 39bd 9fb1 bdbc
000003b0: 2eaa 29bd 728f 23bd 1223 7c3d 9347 11bd
000003c0: 58e5 873d fcb7 41bd 1189 333d 7b64 0a3d
000003d0: 90f7 cfbc 9412 283d b63b 40bd f200 26bc
000003e0: 925c f73c 86ef 73bc 7077 0f3c d010 debb
000003f0: 2709 28bd 1b8d 23bb 787c 37bc 9624 d53a

Conv_BN_ReLU3.0.bias f4 [32]
-0.03949014 0.025305698 0.05839469 0.02840129 -0.053652357 0.05599396 0.05746102 -0.055503435
0.048031453 -0.010697129 0.013129182 0.04076522 0.044896737 0.0592779 -0.042705335 -0.028367035
0.013571337 0.055872146 -0.033623073 -0.05892972 -0.045422148 0.056225635 -0.0220893 0.018550845
-0.007911278 -0.028815519 0.01977241 -0.024018472 0.019841403 -0.040585235 -0.014641031 5.665782e-05
00000000: 6ac0 21bd e54d cf3c 452f 6f3d d2a9 e83c
00000010: 93c2 5bbd ec59 653d 3f5c 6b3d 9257 63bd
00000020: a1bc 443d 0343 2fbc c81b 573c 6ef9 263d
00000030: a4e5 373d 62cd 723d caeb 2ebd fc61 e8bc
00000040: 505a 5e3c 31da 643d 59b8 09bd 4a60 71bd
00000050: 930c 3abd da4c 663d 9ff4 b4bc f1f7 973c
00000060: 4e9e 01bc 860e ecbc c0f9 a13c 63c2 c4bc
00000070: 708a a23c b43c 26bd efe0 6fbc dfa3 6d38

Conv_BN_ReLU3.1.weight f4 [32]
0.99755275 0.8777701 0.9491487 1.0242096 0.9694182 1.1145205 1.0434752 0.91689634
1.1118819 0.913416 0.97419715 0.9682192 1.0606161 0.936132 0.96426195 1.0548925
0.98933727 1.1023061 0.97784233 0.95384234 0.91232157 0.9726441 0.99725324 1.088429
1.0004114 0.98761266 1.04401 0.9877132 0.96445626 1.0015444 1.0452374 1.0966598
00000000: 9e5f 7f3f 8bb5 603f 69fb 723f 4d19 833f
00000010: cb2b 783f 9ca8 8e3f 9890 853f b8b9 6a3f
00000020: 2552 8e3f a2d5 693f fc64 793f 37dd 773f
00000030: 45c2 873f 59a6 6f3f dfd9 763f b806 873f
00000040: 3545 7d3f 5e18 8d3f e053 7a3f 032f 743f
00000050: e88d 693f 34ff 783f fd4b 7f3f a451 8b3f
00000060: 7b0d 803f 2fd4 7c3f 1fa2 853f c6da 7c3f
00000070: 9be6 763f 9b32 803f 57ca 853f 595f 8c3f

Conv_BN_ReLU3.1.bias f4 [32]
0.023723125 -0.10306681 -0.16673087 -0.14033622 -0.05684515 -0.22286096 -0.013381623 -0.1442372
-0.33040416 -0.20540121 -0.052129965 -0.087771766 -0.055645484 -0.07753567 -0.13912325 -0.13654816
-0.13437627 0.10417242 -0.122572325 -0.13454995 -0.09294313 -0.031408016 0.023268595 0.02867326
0.03812592 -0.08091577 -0.058578517 -0.11082017 -0.06861721 -0.061935555 -0.16719669 -0.216077
00000000: 0057 c23c b114 d3bd 7fbb 2abe 4cb4 0fbe
00000010: 76d6 68bd aa35 64be 983e 5bbc ebb2 13be
00000020: bc2a a9be b254 52be 3b86 55bd afc1 b3bd
00000030: 85ec 63bd 05cb 9ebd 5376 0ebe 48d3 0bbe
00000040: ef99 09be 5a58 d53d 3307 fbbd 76c7 09be
00000050: f858 bebd b1a5 00bd c89d be3c 2fe4 ea3c
00000060: ed29 1c3d 2bb7 a5bd 07f0 6fbd aff5 e2bd
00000070: 2e87 8cbd 23b0 7dbd 9c35 2bbe 4a43 5dbe

Conv_BN_ReLU3.1.running_mean f4 [32]
-0.5139999 -0.26341256 -0.2774854 0.19090176 -0.06340496 0.3980829 -2.4829192 0.87081814
0.47719562 0.31874248 -2.0755048 -0.79682976 0.105297245 0.04904342 -0.06913946 0.6504233
2.0975192 -0.6354017 0.19378094 -0.21479894 1.9280245 -1.6188064 -0.8061272 0.5895179
-0.08265678 0.36173517 -1.5880798 0.5279203 -0.58172756 -1.5349973 0.5260907 -0.22935183
00000000: 7f95 03bf 03de 86be 9112 8ebe c07b 433e
00000010: 76da 81bd 86d1 cb3e 26e8 1ec0 f0ed 5e3f
00000020: fc52 f43e 3732 a33e 12d5 04c0 09fd 4bbf
00000030: 15a6 d73d c1e1 483d fd98 8dbd 2482 263f
00000040: c13d 0640 b0a9 22bf 836e 463e 41f4 5bbe
00000050: 82c9 f63f 0c35 cfbf 5a5e 4ebf a5ea 163f
00000060: f547 a9bd 5a35 b93e 3346 cbbf c925 073f
00000070: 19ec 14bf cb7a c4bf e1ad 063f 35db 6abe

Conv_BN_ReLU3.1.running_var f4 [32]
0.7594367 0.7399721 0.76033205 0.708654 0.5838082 0.55954146 1.6592915 1.9293678
0.63153446 0.92988086 1.0128247 0.8696854 1.0079986 0.9584869 0.92060465 0.55142313
0.9633744 0.66231066 1.3645583 0.6928497 0.8793315 0.9006866 1.0645497 0.51393867
0.5406241 0.8700617 0.9277446 1.258408 0.63288426 0.85887885 0.7396449 0.53152204
00000000: 726a 423f d06e 3d3f 1fa5 423f 596a 353f
00000010: 7474 153f 1c3e 0f3f aa63 d43f 86f5 f63f
00000020: 3eac 213f ac0c 6e3f 3da4 813f b4a3 5e3f
00000030: 1906 813f 665f 753f bfac 6b3f 112a 0d3f
00000040: b49f 763f 318d 293f d9a9 ae3f 995e 313f
00000050: df1b 613f 6693 663f 2a43 883f 7c91 033f
00000060: 5766 0a3f 5dbc 5e3f ac80 6d3f 8313 a13f
00000070: b404 223f 7cdf 5b3f 5e59 3d3f d411 083f
