CA04/checkpoints/checkpoint.pth (torch, 710925 bytes, 143 tensors)

Conv_BN_ReLU1.0.weight f4 [16, 3, 3, 3]
0	0xbc2f2607	-0.010690219
1	0x3cc8e559	0.024523424
2	0x3d631ac5	0.05544545
3	0x3e41571d	0.18880887
4	0xbd9bb52c	-0.07602915
5	0x3dc1cb41	0.09462596
6	0x3d6f813c	0.058472857
7	0xbd87bbad	-0.06627593
8	0x3d924fa0	0.071440935
9	0xbe036c74	-0.1283434
10	0xbce9fd53	-0.028563177
11	0x3db9ae5b	0.09066459
12	0xbe3e6648	-0.18593705
13	0xbc36126a	-0.011112789
14	0xbdc560bc	-0.09637591
15	0x3e2c6242	0.16834357
16	0xbe3d25a8	-0.18471396
17	0xbdc3ab56	-0.09554164
18	0xbd21675b	-0.039405208
19	0xbe03329a	-0.12812272
20	0x3e27bfb4	0.16381723
21	0xbe332a17	-0.17496525
22	0x3e36f2ac	0.1786601
23	0x3dba21b0	0.09088457
24	0xbe2f02e7	-0.17090951
25	0x3df674f8	0.12034029
26	0xbe1c9d2a	-0.15294328
27	0xbe56f915	-0.20993455
28	0x3e346a0e	0.17618582
29	0xbdcd4744	-0.100233585
30	0xbd5f5f53	-0.054534268
31	0xbc71b2d1	-0.014752106
32	0x3e1eda3b	0.15512936
33	0xbda48c84	-0.08034614
34	0x3e03aa26	0.12857875
35	0x3d59eb9b	0.053203207
36	0xbc133fc1	-0.008987368
37	0x3d961356	0.07327907
38	0x3c7b0843	0.015321794
39	0xbe26d37b	-0.16291611
40	0x3e37ee60	0.17962027
41	0x3d2e0543	0.042485487
42	0x3d750b7d	0.05982541
43	0xbd4b3a53	-0.04961617
44	0xbdf941b7	-0.12170737
45	0xbdf0e551	-0.11762489
46	0x3deb4a4b	0.1148878
47	0x3e134043	0.14379983
48	0x3db95287	0.09048944
49	0x3dcf1ff7	0.10113519
50	0x3e0d477e	0.13796803
51	0x3d895d88	0.06707293
52	0xbd167e9c	-0.036741838
53	0xbe116158	-0.1419729
54	0xbd3a7839	-0.04552481
55	0x3d8c7d1f	0.068598025
56	0x3e180334	0.14844972
57	0xbcd9888d	-0.02655437
58	0xbe4a28fb	-0.19742195
59	0xbe402671	-0.18764664
60	0x3d433e36	0.04766675
61	0xbda4bb94	-0.0804359
62	0x3dea1397	0.11429518
63	0xbdefc724	-0.11707905
64	0xbd4adb21	-0.049525384
65	0x3e3ee87e	0.18643376
66	0x3dd32ab3	0.103108786
67	0x3d7ca87d	0.06168412
68	0x3dfd4323	0.12366321
69	0xbbc3b4ce	-0.0059724813
70	0x3b1c3286	0.0023833825
71	0xbd8ca4a9	-0.06867344
72	0xbd4513e7	-0.048114683
73	0x3e1132ff	0.1417961
74	0x3cf1e119	0.02952628
75	0xbd59f8cb	-0.053215783
76	0xbe30be7e	-0.17260167
77	0x3b7e3d2c	0.0038793785
78	0x3c4a5cd4	0.0123512335
79	0x3d1b3510	0.0378924
80	0xbe35ddd5	-0.17760403
81	0x3e5aec44	0.2137919
82	0xbd9e8b1b	-0.07741376
83	0xbd97b071	-0.074067004
84	0xbc338c65	-0.010958766
85	0x3dda4e08	0.106594145
86	0x3e178c7b	0.14799683
87	0x3e63bd8b	0.22240274
88	0x3d7184e9	0.058964644
89	0xbde806b5	-0.11329404
90	0xbc11c5e2	-0.008897277
91	0xbe35902a	-0.17730775
92	0xbe5aab48	-0.21354401
93	0x3e06c115	0.13159592
94	0xbcab3eaf	-0.020903913
95	0x3e034a4f	0.12821315
96	0x3dd15802	0.10221864
97	0x3d9b1c49	0.07573754
98	0x3dafa363	0.085760854
99	0xbd9a3f15	-0.07531563
100	0x3c8773eb	0.016534766
101	0xbe546502	-0.20741656
102	0xbc7048d3	-0.0146658
103	0xbddd1401	-0.10794831
104	0x3d05c092	0.032654352
105	0x3e14832a	0.1450316
106	0xbd346d5e	-0.044049613
107	0xbe5513c2	-0.20808318
108	0x3e4d1191	0.20026232
109	0x3e0f1fa5	0.13976915
110	0xbd7eb4e7	-0.06218424
111	0xbdf7744a	-0.12082727
112	0x3e221a6f	0.15830396
113	0xbdc01d11	-0.09380544
114	0xbe04ed79	-0.12981214
115	0xbd8d3ed1	-0.06896747
116	0xbe18f0fb	-0.14935677
117	0xbd15c54b	-0.036565106
118	0x3e2f497d	0.17117877
119	0xbe235c34	-0.15953141
120	0x3d579502	0.05263234
121	0xbdada6ee	-0.08479105
122	0xbde906ef	-0.113782756
123	0x3e493fd7	0.19653259
124	0x3dd5f2ea	0.10446723
125	0x3e0a5b8c	0.13511485
126	0x3d372b9d	0.044719327
127	0xbdf1a363	-0.11798742
128	0xbddaab97	-0.106772594
129	0xbc1c6c7a	-0.009547347
130	0xbe09fa86	-0.13474473
131	0xbdc5ce12	-0.096584454
132	0x3e3d5a54	0.18491489
133	0x3d8caf45	0.068693675
134	0xbca97d92	-0.02068976
135	0xbc018ae3	-0.007906648
136	0x3d5c1a99	0.053736303
137	0x3e10d826	0.14144954
138	0xbe355a5f	-0.17710255
139	0xbcd46a27	-0.025929524
140	0x3cf30f8f	0.029670505
141	0xbe4a818d	-0.19775982
142	0x3caa82b6	0.020814281
143	0x3e4b4240	0.19849491
144	0x3d236176	0.039887868
145	0xbb8f7e22	-0.00437905
146	0x3e35162e	0.17684242
147	0xbdcb19c7	-0.09917026
148	0xbe201af3	-0.1563528
149	0x3ca2869b	0.019839576
150	0xbe0a565e	-0.13509509
151	0x3e3d177b	0.18465988
152	0xbd827cef	-0.063714854
153	0xbe01beda	-0.1267046
154	0xbde28686	-0.110608146
155	0xbdb18f89	-0.08669955
156	0xbe0b6b7f	-0.13615225
157	0x3e495eba	0.19665042
158	0x3e2d53bf	0.16926478
159	0xbdf32542	-0.11872341
160	0x3da1a600	0.0789299
161	0x3dc44e4e	0.09585248
162	0xbcd25078	-0.025673136
163	0x3d49d7ab	0.049277943
164	0xbdcf113e	-0.101107106
165	0x3dfd59c3	0.12370636
166	0xbdc3973f	-0.09550332
167	0xbe22ae67	-0.15886842
168	0x3dd7ebed	0.10543046
169	0x3ceadd1b	0.028669884
170	0xbdf9027e	-0.121586785
171	0xbe0c0032	-0.1367195
172	0x3d5e7854	0.054313973
173	0x3db6e72b	0.089308105
174	0x3e1887d5	0.14895566
175	0xbc8604e8	-0.016359761
176	0xbdf363c3	-0.118842624
177	0xbdfa5f03	-0.12225153
178	0x3d9a640d	0.075386144
179	0xbe04783f	-0.12936495
180	0xbdde9c22	-0.10869624
181	0x3e1a738d	0.15083142
182	0x3e0d60b7	0.13806425
183	0x3dcbf2d1	0.09958423
184	0x3d4ff368	0.05076924
185	0xbe3d4e57	-0.18486916
186	0x3de50795	0.11183087
187	0x3d78df85	0.06076004
188	0x3cce84c2	0.025209788
189	0xbbc242c0	-0.0059283674
190	0xbdedea0d	-0.11616907
191	0xbda11b91	-0.07866586
192	0xbdfaf634	-0.12253991
193	0x3e2e3b67	0.17014848
194	0x3df0dcbe	0.11760853
195	0xbe09b22f	-0.13446878
196	0xbcc9e9aa	-0.024647553
197	0xbb1c0a7f	-0.0023809967
198	0xbe378848	-0.17923081
199	0x3e393c65	0.18089445
200	0xbd0a7a06	-0.033807777
201	0x3de9f124	0.11422947
202	0x3e126445	0.14296062
203	0xbda3f7e9	-0.080062695
204	0x3cab5679	0.020915257
205	0x3d781e02	0.060575493
206	0xb9b2529f	-0.00034012363
207	0xbe54d355	-0.20783742
208	0xbc965059	-0.01834886
209	0xbe0037d7	-0.12521301
210	0xbe1e2d2b	-0.15446918
211	0x3e3bb6b2	0.18331411
212	0xbd744e7f	-0.059645172
213	0xbe37904c	-0.17926139
214	0xbd3c6bc9	-0.04600123
215	0xbe16d42c	-0.14729375
216	0x3e2e3cf6	0.17015442
217	0xbe47b96e	-0.1950433
218	0x3e317034	0.17327958
219	0x3e1bb23d	0.15204711
220	0xbd54b3fc	-0.05192946
221	0xbe240080	-0.16015816
222	0xbde04309	-0.10950286
223	0xbc9e7555	-0.019343058
224	0x3cd4c7d9	0.025974201
225	0xbdddc33c	-0.108282536
226	0xbe1db9d7	-0.15402924
227	0xbe2a6f42	-0.16644004
228	0xbe021cc0	-0.1270628
229	0xbd88c626	-0.06678419
230	0x3de9fa01	0.114246376
231	0xbdea1b74	-0.114310175
232	0x3d583433	0.052784156
233	0xbda0bddc	-0.07848713
234	0x3da85615	0.08219544
235	0x3e1a78e9	0.15085186
236	0x3e3d766e	0.18502209
237	0x3c3a5f37	0.01137524
238	0x3dd113d8	0.10208863
239	0x3cae9dea	0.021315534
240	0x3dd420b8	0.10357803
241	0x3e21148f	0.15730499
242	0xbe2528c4	-0.16128832
243	0x3d26089d	0.040535558
244	0xbe016c5b	-0.1263899
245	0x3d2cb1c6	0.042161725
246	0x3dd79a2d	0.105274536
247	0xbcc3e7dc	-0.02391427
248	0x3e0b72b8	0.1361798
249	0x3e15376c	0.14571923
250	0xbe28f5a4	-0.16499954
251	0x3dd9127f	0.10599231
252	0x3df9bed2	0.12194599
253	0xbd6a7e2b	-0.05724923
254	0x3c8cbb46	0.017179143
255	0xbd8a3d43	-0.06749966

Conv_BN_ReLU1.0.bias f4 [16]
0	0xbdadbc86	-0.084832236
1	0xbe4dc039	-0.20092858
2	0x3da2fbee	0.07958208
3	0x3d0e25b1	0.034703914
4	0xbdd9924f	-0.10623609
5	0xbd318596	-0.043340288
6	0xbddc9464	-0.10770491
7	0xbd90aa41	-0.07063723
8	0xbd69d718	-0.057089895
9	0xbdfeb17b	-0.124361955
10	0x3d25ba24	0.04046072
11	0x3d9b110c	0.07571611
12	0x3d1a204f	0.037628468
13	0x3cb677d4	0.022273935
14	0x3e146306	0.144909
15	0x3e09c1c3	0.1345282

Conv_BN_ReLU1.1.weight f4 [16]
0	0x3f7be2e0	0.9839306
1	0x3f6eb716	0.93248117
2	0x3f7cdc69	0.9877382
3	0x3f79710b	0.97438115
4	0x3f881716	1.0632045
5	0x3f8af28e	1.0855272
6	0x3f8e0d8c	1.1097884
7	0x3f80f0a4	1.0073438
8	0x3f7f94e9	0.99836594
9	0x3f76a58b	0.9634635
10	0x3f76de80	0.9643326
11	0x3f84009d	1.0312687
12	0x3f7556ba	0.9583546
13	0x3f88755f	1.0660819
14	0x3f81f97a	1.0154259
15	0x3f6cc6a2	0.9249059

Conv_BN_ReLU1.1.bias f4 [16]
0	0xbc80d2f8	-0.015725598
1	0xbd7f6106	-0.062348388
2	0xbd63aa4e	-0.055582337
3	0x3cec72bd	0.028863305
4	0x3dcd0fec	0.100128025
5	0x3e412466	0.18861541
6	0x3c629bb9	0.0138310725
7	0xbd16fcda	-0.03686223
8	0xbd8e1666	-0.06937866
9	0xbaa622f2	-0.001267521
10	0x3d36dc51	0.044643704
11	0x3e324751	0.17410018
12	0xb958e135	-0.00020683261
13	0x3e589c3c	0.21153349
14	0x3e1b2caa	0.15153757
15	0xbdbe6341	-0.09296275

Conv_BN_ReLU1.1.running_mean f4 [16]
0	0xbe325642	-0.17415717
1	0xbd04d7c9	-0.03243235
2	0x3cdac012	0.026702914
3	0x3db9a2e9	0.09064276
4	0xbe030463	-0.12794642
5	0xbd6948ca	-0.056954183
6	0xbdf39836	-0.11894266
7	0xbea79cce	-0.3273682
8	0xbda88be4	-0.08229807
9	0xbd2be74a	-0.04196862
10	0x3c61ad58	0.0137742385
11	0x3d9c95ef	0.07645785
12	0x3d961723	0.07328632
13	0x3c8d83b5	0.017274717
14	0x3de5281d	0.111892916
15	0x3d99bb94	0.07506481

Conv_BN_ReLU1.1.running_var f4 [16]
0	0x3ba8973e	0.0051449826
1	0x3c896b08	0.01677467
2	0x3b61ab77	0.0034434476
3	0x3c1d38e7	0.009596086
4	0x3b8fbbb2	0.0043863887
5	0x3bf6b22d	0.0075285644
6	0x3b655fdb	0.0034999761
7	0x3d12f540	0.03587842
8	0x3b631f61	0.0034656154
9	0x3bb5aa5f	0.0055439915
10	0x3b3cd494	0.002881323
11	0x3b7ff253	0.0039054349
12	0x3b9369d1	0.0044986983
13	0x3b7f0fc9	0.003891932
14	0x3b7034fd	0.0036652677
15	0x3b8b8be4	0.0042586196

Conv_BN_ReLU1.3.weight f4 [16, 16, 3, 3]
0	0xbd58ef04	-0.052962318
1	0xbd3fce05	-0.046827335
2	0xbd6edc16	-0.05831536
3	0x3d3d123a	0.04615996
4	0xbcbdaf92	-0.023155008
5	0x3c153076	0.009105792
6	0x3d7bcecf	0.061476525
7	0xbd63a7a9	-0.055579815
8	0xbd1a0324	-0.03760065
9	0x3dc5b16d	0.09652982
10	0x3c6dd395	0.014515777
11	0xbcf652f7	-0.030068858
12	0x3d2ca11c	0.042145833
13	0x3dac102c	0.08401522
14	0x3d4ef1a7	0.050523426
15	0x3dc44573	0.09583559
16	0x3daa10ef	0.08304011
17	0x3d0f31f2	0.03495974
18	0xbd2bd2c7	-0.04194906
19	0x3d57942b	0.05263154
20	0xbd6d0b8b	-0.057872336
21	0x3d3c81c0	0.046022177
22	0xbcf800d5	-0.030273834
23	0xbc83e7bd	-0.016101712
24	0xbc820346	-0.015870702
25	0xbda77b91	-0.08177865
26	0xbdc9458f	-0.098277204
27	0xbda1f53c	-0.07908103
28	0x3cfb7c2c	0.030698858
29	0x3d55a7b2	0.05216188
30	0xbd97bad2	-0.0740868
31	0x3d9815bd	0.07426021
32	0x3e098d31	0.13432766
33	0x3b25c879	0.0025296493
34	0x3d26987d	0.040672768
35	0x3d5cf816	0.05394753
36	0xbd05116d	-0.03248732
37	0x3d6b42c7	0.05743673
38	0x3c9fac0d	0.01949122
39	0x3d224914	0.039620474
40	0x3e0085ec	0.12551087
41	0x3ba252c7	0.0049537155
42	0x3aec8e0d	0.0018047706
43	0x3dc77d60	0.0974071
44	0x3cf453e7	0.029825164
45	0xbdd204c2	-0.10254814
46	0xbcf38394	-0.029725827
47	0xbd916e15	-0.071010746
48	0x3ce5f8ed	0.028072799
49	0x3ce7a8d2	0.028278742
50	0xbd60a067	-0.05484047
51	0xbcccd0c9	-0.0250019
52	0x3a1c70db	0.00059677445
53	0x3d5e80ba	0.054321982
54	0x3b74e6db	0.0037369046
55	0x3e12048d	0.14259548
56	0x3ccf1692	0.025279317
57	0xbd34ca19	-0.044138048
58	0x3dde8a07	0.108661704
59	0x3da92e44	0.082607776
60	0xbdf85dd0	-0.12127268
61	0x3d76f9a6	0.060296677
62	0x3d4bbf59	0.04974303
63	0x3d25b966	0.040460013
64	0x3d7e72a1	0.062121037
65	0xbdd0c5c1	-0.101939686
66	0xbd93cde6	-0.072170064
67	0x3d6d550a	0.057942428
68	0x3c85f697	0.016352935
69	0x3af193ce	0.001843089
70	0x3d42af41	0.047530416
71	0xbcc0e70d	-0.023547674
72	0xbcb40aaa	-0.021977741
73	0x3de58a7c	0.112080544
74	0x3c58192a	0.013189593
75	0xbda96bf4	-0.082725435
76	0x3b6f28a4	0.003649273
77	0x3d5e3b82	0.05425597
78	0xbb394333	-0.0028268814
79	0xbcd37eb1	-0.025817247
80	0x3d9e7ade	0.07738279
81	0xbd1a9866	-0.037742995
82	0x3d483a42	0.048883684
83	0x3ba7313d	0.005102305
84	0xbd6248a3	-0.055245053
85	0x3b9dc8a9	0.0048151803
86	0xbcf71966	-0.030163478
87	0xbd39b587	-0.045339134
88	0xbd8010c7	-0.062532
89	0xbd4b55e7	-0.04964247
90	0xbd5794e5	-0.05263223
91	0x3cfc95d4	0.030833162
92	0x3d48d4a7	0.049030926
93	0x3d74f476	0.05980345
94	0xbdbffe7b	-0.0937471
95	0x3c8d3dc4	0.017241366
96	0xbcf94a88	-0.030431047
97	0xbd30e7c9	-0.043189798
98	0x3d563d78	0.052304715
99	0xbd8cf123	-0.06881931
100	0xbd281ac5	-0.041041154
101	0xbc0f45d4	-0.008744676
102	0xbc44ec33	-0.012019205
103	0x3debfa6f	0.11522376
104	0xbe031cff	-0.1280403
105	0xbcac65d9	-0.021044658
106	0x3d0a60f1	0.033783857
107	0xbdd83145	-0.105562724
108	0xbc2055ff	-0.009786128
109	0x3d8c8ab5	0.06862394
110	0x3d856a36	0.06514399
111	0xbbcf8382	-0.0063328156
112	0x3d482f85	0.048873443
113	0xbbf44153	-0.0074540763
114	0xbd018e12	-0.03162963
115	0x3c830575	0.015993813
116	0x3d9691b5	0.0735201
117	0xbd337bd9	-0.043819282
118	0x3d1c7399	0.03819618
119	0xbdc3a973	-0.09553804
120	0x3b38d6c5	0.0028204184
121	0x3c942a1c	0.018086486
122	0xbcdb9c51	-0.026807936
123	0x3c80aad9	0.015706467
124	0x3c9451c2	0.018105391
125	0xbd1b8d55	-0.03797658
126	0xbc174c0e	-0.009234441
127	0x3d96928f	0.073521726
128	0x3d65a5fa	0.05606649
129	0xbdcf825d	-0.10132287
130	0x3d9abc12	0.07555403
131	0x3d516656	0.051122986
132	0xbdc45e91	-0.095883496
133	0xbdc8bc27	-0.09801512
134	0x3dd71c48	0.10503441
135	0x3d42ae2c	0.047529384
136	0x3d927dae	0.07152878
137	0xbd391f59	-0.04519591
138	0x3be16e0c	0.0068795737
139	0x3d87ee9f	0.0663731
140	0xbb96edac	-0.0046059694
141	0xbb52b17f	-0.0032149253
142	0x3d65296c	0.055947706
143	0xbd0d433b	-0.034487944
144	0x3cd45d33	0.025923347
145	0x3d246270	0.04013294
146	0x3d8f8454	0.070076615
147	0x3d893283	0.066990875
148	0xbbf40046	-0.0074463217
149	0x3c8521a5	0.016251395
150	0x3d9204f7	0.07129853
151	0x3db6a554	0.089182526
152	0x3d58cd7b	0.052930336
153	0x3d318af3	0.043345403
154	0x3d9962e4	0.07489565
155	0x3bcb78a8	0.0062094517
156	0x3bdcf064	0.006742524
157	0x3da32ea1	0.07967878
158	0x3cfe9e1e	0.031081256
159	0x3cb5f661	0.02221221
160	0x3d3560c2	0.04428173
161	0x3d1d9717	0.03847417
162	0xba312350	-0.0006757276
163	0x3cc2b28f	0.023766784
164	0x3da1615e	0.078798994
165	0x3d589269	0.052874003
166	0x3dc5de17	0.09661501
167	0x3d1347b5	0.035957057
168	0xbc78e455	-0.015191157
169	0x3dc330ff	0.0953083
170	0x3d4733de	0.04863345
171	0x3d5ef4cb	0.05443267
172	0x3cd836a6	0.026393246
173	0xbd0873c5	-0.03331353
174	0xbd5f3d94	-0.054502085
175	0xbbd07801	-0.006361962
176	0x3cc5aac2	0.024129275
177	0xbcb094ed	-0.021555388
178	0xbd876dd4	-0.06612745
179	0x3d087ea6	0.033323906
180	0x3dbb4020	0.0914309
181	0x3af73219	0.0018859535
182	0xbce74429	-0.028230743
183	0x3d9c93d3	0.07645383
184	0xbd122e9f	-0.035688993
185	0x3c63aa52	0.013895588
186	0x3dbcf4af	0.09226357
187	0x3d766913	0.0601588
188	0x3d4fcced	0.05073254
189	0x3d0dac9b	0.034588438
190	0x3d095406	0.033527397
191	0x3c82df9e	0.01597577
192	0xbd0a2c22	-0.033733495
193	0xbd3a7b37	-0.045527663
194	0x3c7554df	0.014973848
195	0xbc439e86	-0.01193965
196	0x3dc36614	0.09540954
197	0x3d240171	0.040040437
198	0xbc82d7a6	-0.01597197
199	0x3d971066	0.07376175
200	0x3d342a0b	0.043985408
201	0xbd4f6cda	-0.05064092
202	0x3cc61f10	0.024184734
203	0xbc8fd0ed	-0.017555678
204	0xbd9c02be	-0.076177105
205	0xbdc0bd94	-0.09411159
206	0xbd6e66cd	-0.058203507
207	0x3dee9ce8	0.11651021
208	0x3d871450	0.06595671
209	0x3db8ba9c	0.09019968
210	0x3d6fc846	0.058540605
211	0xbcd5afa0	-0.026084721
212	0x3d9fb75f	0.07798647
213	0x3dd2b1b1	0.10287798
214	0xbd12c8c5	-0.035836
215	0x3d94d6f5	0.07267562
216	0x3d1456ae	0.036215477
217	0xbdc1038b	-0.09424504
218	0xbcc4898c	-0.023991369
219	0x3d89fdfe	0.06737898
220	0xbda69e66	-0.08135681
221	0xbdae123c	-0.08499572
222	0xbd9a10d6	-0.075227425
223	0xbd4ae02d	-0.049530197
224	0x3c061360	0.00818333
225	0xbd4e95a6	-0.050435685
226	0x3d831b87	0.06401735
227	0x3ccc48d6	0.024937075
228	0xbd37acc5	-0.0448425
229	0x3d797fb5	0.060912807
230	0x3c880a78	0.016606554
231	0x3d518820	0.05115521
232	0xbcb1d8f0	-0.02170989
233	0x3d11e8a1	0.035622243
234	0xbc8c67ae	-0.017139282
235	0x3da92dab	0.082606636
236	0xbd8464f8	-0.06464571
237	0x3d01e804	0.031715408
238	0x3d49105a	0.04908786
239	0x3b8b0552	0.0042425776
240	0xbc7fc3ca	-0.015610645
241	0x3d81850e	0.06324206
242	0xbb298289	-0.0025865159
243	0x3d4f1f85	0.05056717
244	0xbd3c1e28	-0.045927197
245	0x3c670ac4	0.014101688
246	0x3d8b292e	0.06794964
247	0x3ca40818	0.02002339
248	0x3c3a176d	0.011358124
249	0xbd42518f	-0.04744106
250	0xbcd24949	-0.02566971
251	0x3d2976af	0.04137295
252	0xbd355fbd	-0.044280756
253	0x3da2d87a	0.07951446
254	0x3d83a167	0.064272694
255	0x3cc24ae7	0.023717357

Conv_BN_ReLU1.3.bias f4 [16]
0	0xbd3eb4c9	-0.04655913
1	0x3b590bc3	0.0033118583
2	0x3db8ed93	0.09029689
3	0x3d9277e6	0.07151775
4	0x3cef7515	0.029230634
5	0x3c298e08	0.010348804
6	0xbd45339e	-0.04814493
7	0x3d94aef5	0.07259933
8	0x3d6b2b38	0.057414263
9	0xbc08984f	-0.008337094
10	0xbdc1a529	-0.0945533
11	0x3dd0aae6	0.10188846
12	0x3d35dc88	0.044399768
13	0x3d4d3220	0.05009663
14	0x3dad4805	0.08461002
15	0x3d021b5d	0.031764377

Conv_BN_ReLU1.4.weight f4 [16]
0	0x3f736075	0.95069057
1	0x3f79a7b2	0.9752151
2	0x3f708c00	0.93963623
3	0x3f6c3c45	0.92279464
4	0x3f871570	1.0553417
5	0x3f80f30d	1.0074173
6	0x3f84232f	1.0323237
7	0x3f7d5b5e	0.9896754
8	0x3f76f6a8	0.9647012
9	0x3f8095ed	1.0045754
10	0x3f6ae4fe	0.91755664
11	0x3f7f3cce	0.99702156
12	0x3f8052ef	1.0025309
13	0x3f878a46	1.0589073
14	0x3f82d4a3	1.0221142
15	0x3f72e663	0.9488279

Conv_BN_ReLU1.4.bias f4 [16]
0	0xbd99672e	-0.07490383
1	0xbde0f113	-0.10983481
2	0xbd8d1abc	-0.06889865
3	0xbd6ab1c1	-0.057298426
4	0x3c7d9d20	0.015479356
5	0xbd45460c	-0.048162505
6	0x3c4a2440	0.012337744
7	0xbc0d1093	-0.008609909
8	0xbce4a806	-0.027912151
9	0x3d441f20	0.047881246
10	0xbda08b61	-0.078390844
11	0x3ca86e4a	0.020560402
12	0xbd946a36	-0.07246821
13	0x3c9c926c	0.019112788
14	0xbc85d38f	-0.01633623
15	0xbd57fa5c	-0.052728996

Conv_BN_ReLU1.4.running_mean f4 [16]
0	0x3e5d835d	0.21632142
1	0x3f673770	0.90318966
2	0xbebbad37	-0.3665559
3	0x3eb6f397	0.3573272
4	0xbf7142a5	-0.94242316
5	0x3ddf61de	0.109073386
6	0xbed67ca0	-0.41891956
7	0xbdc85144	-0.09781125
8	0xbf4500fa	-0.76954615
9	0x3dd0aff7	0.10189813
10	0xbfbf78e0	-1.4958763
11	0xbe88e956	-0.2674052
12	0x3e2609d9	0.16214694
13	0xbf23a3af	-0.63921636
14	0xbc33b708	-0.010968931
15	0xbfa86217	-1.3154935

Conv_BN_ReLU1.4.running_var f4 [16]
0	0x3f087b42	0.53313076
1	0x3e95ec24	0.29281723
2	0x3edd65b0	0.43241644
3	0x3f0a0197	0.53908676
4	0x3f091545	0.5354808
5	0x3ee42dde	0.44566244
6	0x3ea31520	0.31852055
7	0x3f5437d6	0.828977
8	0x3f287879	0.65808827
9	0x3f9d5d1e	1.2294042
10	0x3f860f01	1.0473329
11	0x3f03665b	0.5132806
12	0x3e2d196c	0.16904229
13	0x3f9b08a3	1.2112011
14	0x3f03d1ec	0.5149219
15	0x3f8828c1	1.0637437

Conv_BN_ReLU2.0.weight f4 [32, 16, 3, 3]
0	0x3b9a7ac1	0.0047143404
1	0x3c35b7ec	0.011091214
2	0x3d1cbb6a	0.03826467
3	0xbda5ce72	-0.08096017
4	0xbbe143c6	-0.0068745343
5	0xbd8bb68f	-0.0682193
6	0x3d35efab	0.04441802
7	0xbd008626	-0.031377934
8	0xbd7efd85	-0.062253494
9	0xbd558f90	-0.052138865
10	0xbdcd9fed	-0.10040269
11	0x3d5afdf1	0.053464834
12	0xbd9df230	-0.07712209
13	0x3c5d099f	0.013491063
14	0x3cb550ec	0.022133313
15	0xbd22a2b9	-0.039705966
16	0x3cfb5fd7	0.030685348
17	0xbd576fca	-0.052596845
18	0x3d1cff52	0.03832943
19	0x3d818977	0.063250475
20	0xbd47eddd	-0.04881083
21	0x3cf990a2	0.030464474
22	0x3c912c1c	0.017721228
23	0xbc8aac54	-0.016927876
24	0xbdb320b2	-0.087464705
25	0xbdbc48e7	-0.091935925
26	0xbd61bf04	-0.055113807
27	0x3ba78b19	0.0051130173
28	0x3d6bded7	0.057585564
29	0x3d39b6d8	0.04534039
30	0x3d24a93e	0.040200464
31	0xbd099923	-0.03359331
32	0xbcfd9551	-0.030954989
33	0xbc612ad1	-0.013743118
34	0x3d766a4a	0.06015996
35	0xbd2a928b	-0.04164366
36	0xbd51df7d	-0.051238526
37	0xbd984cba	-0.074365094
38	0xbd208986	-0.039193653
39	0x3aece3d1	0.0018073266
40	0xbd1b4616	-0.037908636
41	0xbcf6fb83	-0.030149227
42	0x3d6d65b6	0.057958327
43	0xbdc98b50	-0.09841025
44	0xbcce982b	-0.025219044
45	0x3cdc15fd	0.026865954
46	0xbde1aee6	-0.11019687
47	0xbe18821b	-0.14893381
48	0xbd9ceb33	-0.07662048
49	0xbd818310	-0.06323826
50	0xbc8999c1	-0.016796948
51	0xbcb4915e	-0.022041973
52	0xbdf6a5be	-0.120433316
53	0xbdd70157	-0.104983024
54	0xbd9c5b73	-0.0763463
55	0xbcd77e09	-0.026305215
56	0xbe02f42a	-0.12788454
57	0x3d9d5137	0.07681506
58	0xbce0747b	-0.027399292
59	0xbdebc0bd	-0.11511371
60	0x3b64d393	0.0034916147
61	0xbe043353	-0.12910204
62	0xbdc1c0ad	-0.09460578
63	0x3ce4c3b8	0.027925357
64	0xbc38307e	-0.01124203
65	0x3d3592c0	0.044329405
66	0x3c225261	0.009907336
67	0xbdbb9a50	-0.09160292
68	0xbd9bfcd5	-0.07616583
69	0x3d6f4dd2	0.058423825
70	0xbd3db20f	-0.046312388
71	0xbdb6e66e	-0.0893067
72	0xba4ce5b6	-0.0007816212
73	0x3cfe8a65	0.031071851
74	0x3cb424ee	0.021990266
75	0x3d3dad75	0.046308
76	0x3d5d76f4	0.05406852
77	0xbda47a3d	-0.080311276
78	0xbb4c71a0	-0.0031195655
79	0x3ccdfdfa	0.02514552
80	0x3dc2be0f	0.09508907
81	0xbd164e39	-0.036695693
82	0x3adbd147	0.0016770744
83	0x3a773c93	0.00094313285
84	0xbd1f8c8c	-0.038952395
85	0x3daa506e	0.08316122
86	0x3d68bc09	0.05681995
87	0x3d605257	0.054766025
88	0x3cad2a09	0.021138208
89	0x3d051ef2	0.032500215
90	0x3c15e1a4	0.009148035
91	0xbd5b556c	-0.05354826
92	0x3cc4c0bd	0.024017686
93	0x3d5c16d0	0.053732693
94	0x3d7c6118	0.061616033
95	0xbc8b42d6	-0.016999643
96	0xbdafed15	-0.08590142
97	0x3c9b865a	0.018984962
98	0xbda93d5d	-0.08263657
99	0x3d644525	0.055730004
100	0x3daffdf7	0.08593362
101	0xbd2dad2b	-0.042401474
102	0x3de8b346	0.11362319
103	0xbcc0c165	-0.023529718
104	0xbc031eeb	-0.008002977
105	0x3c8a129d	0.016854579
106	0xbd9cefec	-0.07662949
107	0x3c097ced	0.008391601
108	0xbcd1dace	-0.02561703
109	0x3d8950a5	0.06704835
110	0xbcbc917b	-0.02301859
111	0xbcd5183a	-0.026012529
112	0xbc639c8a	-0.013892302
113	0xbde26b6d	-0.11055646
114	0x3dc6d1c6	0.0970798
115	0xbbfeebbc	-0.0077795666
116	0xbd9516fe	-0.07279776
117	0xbd31423f	-0.043276068
118	0xbd3047bd	-0.043037165
119	0xbd789e37	-0.06069776
120	0x3cf72138	0.030167207
121	0x3d18eb54	0.0373338
122	0x3d908c2b	0.07057985
123	0xbaa4f1a7	-0.0012584225
124	0xbd82ce57	-0.063870125
125	0x3d4238e8	0.04741755
126	0xbc3c959c	-0.011510279
127	0xbd2cfd86	-0.042233966
128	0xbdb3dc75	-0.08782283
129	0xbb1d6d23	-0.002402135
130	0x3be624dc	0.007023437
131	0xbdc7d8b9	-0.097581334
132	0x3c927151	0.0178763
133	0xbd1f311e	-0.0388652
134	0xbdce842b	-0.10083803
135	0xbd14d950	-0.036340058
136	0xbd32eb86	-0.043681644
137	0x3d0ddacf	0.0346325
138	0xbd7c1246	-0.061540864
139	0x3d55e494	0.052219942
140	0x3d84ec31	0.064903624
141	0xbd055963	-0.03255595
142	0x3d063e82	0.032774456
143	0xbd9026e8	-0.07038671
144	0xbccce588	-0.025011793
145	0x3d513627	0.051077034
146	0x3ca38b07	0.019963754
147	0xbc9d2a1a	-0.019185115
148	0x3dd82472	0.105538264
149	0x3d4d7561	0.05016077
150	0xbd9ee59b	-0.077586375
151	0x3da93f24	0.08263996
152	0x3cb84194	0.022492208
153	0x3d874b46	0.06606154
154	0x3d8444ba	0.06458421
155	0x3d903e1d	0.07043097
156	0x3cce728d	0.025201106
157	0x3dd1641e	0.10224174
158	0x3df53481	0.11972905
159	0x3d9aa2a0	0.075505495
160	0x3c593d68	0.013259269
161	0x3d70e1ab	0.058808964
162	0xbd9564f4	-0.07294646
163	0xb9bfbce6	-0.000365711
164	0xbc21b3d6	-0.009869536
165	0xbd8a8e1c	-0.067653865
166	0xbbe93a6c	-0.00711756
167	0xbdac0624	-0.08399609
168	0xbd8f2bc6	-0.06990771
169	0xbc9ead1a	-0.01936965
170	0xbd0c5170	-0.034257352
171	0xbd40060e	-0.046880774
172	0x3d42d2a3	0.04756416
173	0x3db0d00e	0.08633433
174	0xbcda6f57	-0.02666442
175	0x3dc81e91	0.09771455
176	0x3cdee70b	0.02720978
177	0x3ceacb80	0.02866149
178	0x3d04b4cd	0.032398988
179	0x3d2b3857	0.041801777
180	0x3cf206b9	0.029544221
181	0xbde82a5a	-0.11336203
182	0x3d3d013c	0.046143755
183	0xbd981ff0	-0.074279666
184	0xbdf587a2	-0.119887605
185	0xbb53cc8c	-0.0032317964
186	0xbd175f65	-0.03695621
187	0xbd9b768f	-0.07590973
188	0xbcde20dd	-0.02711528
189	0xbe26a376	-0.16273293
190	0xbcde98b3	-0.027172422
191	0x3ccb2b99	0.024801062
192	0xbe2b87f4	-0.16751081
193	0xbc4117a3	-0.011785421
194	0x3cd466b5	0.02592788
195	0xbc1bda5a	-0.009512508
196	0xbd019469	-0.031635676
197	0x3c57ae33	0.013164091
198	0xbd49a604	-0.04923059
199	0x3d779320	0.060443044
200	0xbbccc32f	-0.0062488536
201	0x3c8b0538	0.016970262
202	0xbdcd6a74	-0.1003007
203	0x3d48ac9f	0.04899275
204	0xbd057b42	-0.03258825
205	0x3c2f0539	0.0106823975
206	0xbb7cec87	-0.003859313
207	0xbcca6350	-0.024705559
208	0xbc3a1816	-0.011358282
209	0x3d0b7f35	0.03405686
210	0xbda20d40	-0.079126835
211	0x3d91ec71	0.07125176
212	0x3d87ee45	0.06637243
213	0xbd23817f	-0.03991842
214	0xbc25c64f	-0.010118081
215	0x3d8b8256	0.06811969
216	0x3b9e121f	0.0048239375
217	0xbd838f09	-0.06423766
218	0xbd855c75	-0.065117754
219	0x3d65fa29	0.056146774
220	0x3d807b4d	0.06273518
221	0xbd103907	-0.035210636
222	0xbd5a85cd	-0.05335026
223	0xbca9c50e	-0.020723846
224	0x3a66a957	0.00087990373
225	0x3da34c85	0.07973579
226	0x3d9d167a	0.07670303
227	0xbc88dacc	-0.016705893
228	0xbb6991de	-0.0035639922
229	0x3dc0a299	0.09406013
230	0xbc07c4d2	-0.008286672
231	0x3da7d259	0.081944175
232	0x3d2a474c	0.0415719
233	0xbd1ae065	-0.037811656
234	0x3d9fd7f3	0.07804861
235	0x3d6045c8	0.05475405
236	0x3c8958f1	0.016766043
237	0xbd164968	-0.0366911
238	0xbc939c8e	-0.018018987
239	0x3d59dbff	0.05318832
240	0x3b8b7716	0.0042561395
241	0x3d3b8289	0.045778785
242	0xbcedbe29	-0.02902134
243	0xbcb8e1de	-0.02256864
244	0x3d99f42b	0.075172745
245	0xbd850c47	-0.06496482
246	0xbc999dbb	-0.01875197
247	0x3c95d608	0.018290535
248	0x3c97d7ce	0.01853552
249	0x3d7bd0f5	0.061478574
250	0xbdba3641	-0.09092379
251	0x3c15f87c	0.009153482
252	0xbb740599	-0.0037234782
253	0x3cdd5551	0.027018221
254	0xbc30ea68	-0.010798074
255	0xbd97bb2d	-0.07408748

Conv_BN_ReLU2.0.bias f4 [32]
0	0x3d9d840d	0.07691202
1	0x3c1c1fa7	0.009529031
2	0x3c3ebaa6	0.01164118
3	0xbb017a4a	-0.0019756728
4	0x3d8cd8a7	0.06877261
5	0xbd99ebcc	-0.07515678
6	0x3cca0289	0.024659412
7	0x3d2a026d	0.04150622
8	0x3d72eac8	0.059305936
9	0x3d0418e7	0.03225031
10	0xbd6e9f31	-0.058257286
11	0x3d99ff63	0.07519414
12	0x3d6be316	0.057589613
13	0x3d97328f	0.0738269
14	0xbca9f0a9	-0.020744639
15	0xbd3e9f71	-0.046538774
16	0xbdae442d	-0.08509097
17	0x3d83a692	0.06428255
18	0x3d3fcc4b	0.04682569
19	0x3d00e6e4	0.031470194
20	0x3d54f2f0	0.051989496
21	0x3d3a1c87	0.045437362
22	0xbbc765ec	-0.006085148
23	0x3cf3609a	0.02970915
24	0xbda234da	-0.07920237
25	0x3ceedab4	0.02915702
26	0xbd2afc8e	-0.04174476
27	0xbd3639e3	-0.0444888
28	0x3d3608cc	0.044441983
29	0xbd60901c	-0.054824933
30	0xbd88162d	-0.06644855
31	0x3cfc6e06	0.030814182

Conv_BN_ReLU2.1.weight f4 [32]
0	0x3f7f8bfc	0.99822974
1	0x3f70fed6	0.9413885
2	0x3f78f4cb	0.97248524
3	0x3f63fdb0	0.8905897
4	0x3f7da0d9	0.9907356
5	0x3f6b54f2	0.9192649
6	0x3f77d27a	0.96805537
7	0x3f76889a	0.9630219
8	0x3f79f9bb	0.97646683
9	0x3f79012d	0.9726742
10	0x3f791a32	0.97305596
11	0x3f7f8b12	0.9982158
12	0x3f7a85bc	0.9786031
13	0x3f8944be	1.0724103
14	0x3f82d9d5	1.0222727
15	0x3f8050e3	1.0024685
16	0x3f80d200	1.0064087
17	0x3f837ab8	1.0271826
18	0x3f837936	1.0271366
19	0x3f8342fd	1.0254818
20	0x3f8b111b	1.0864595
21	0x3f8210f7	1.0161427
22	0x3f859901	1.0437318
23	0x3f8563ec	1.0421119
24	0x3f67b2f5	0.9050744
25	0x3f883966	1.0642517
26	0x3f83cd2b	1.0296987
27	0x3f71744a	0.9431807
28	0x3f80b746	1.0055931
29	0x3f8b814c	1.0898833
30	0x3f8fbfb3	1.1230377
31	0x3f7caa46	0.98697317

Conv_BN_ReLU2.1.bias f4 [32]
0	0xbda1735e	-0.07883333
1	0xbd7d7001	-0.061874393
2	0xbd299a7d	-0.041407097
3	0xbd55a125	-0.052155633
4	0xbca70484	-0.020387895
5	0xbd9f6b3f	-0.077841274
6	0xbddb8c5a	-0.10720129
7	0xbd9e15d5	-0.07719008
8	0xbccaf143	-0.024773246
9	0xbdb35bf7	-0.08757775
10	0xbd4db43b	-0.05022071
11	0x3cc0aa4e	0.023518708
12	0xbdb79bd2	-0.08965267
13	0xbbb7d4c5	-0.005610081
14	0xbd9c1d66	-0.07622795
15	0xbb9c27a3	-0.0047654673
16	0xbc56904d	-0.013095927
17	0xbb0f8385	-0.002189846
18	0x3cc6e7e0	0.024280488
19	0xbc503aaa	-0.012709299
20	0xbcb17599	-0.02166252
21	0xbd57eab5	-0.05271407
22	0xbd216191	-0.039399687
23	0xbd38fb1f	-0.045161363
24	0xbd4512ec	-0.04811375
25	0x3b97ad1b	0.00462879
26	0xbc8a1778	-0.016856894
27	0xbd3abeaa	-0.045591988
28	0xbd23ec99	-0.04002056
29	0x3a2a38e5	0.00064934633
30	0x3c1ce235	0.009575416
31	0xbdb783c5	-0.0896068

Conv_BN_ReLU2.1.running_mean f4 [32]
0	0xbf8a8ccf	-1.0824221
1	0x3ed2f28b	0.4120067
2	0xbf7a238a	-0.9771048
3	0xbda5d579	-0.08097357
4	0xbf320b36	-0.69548357
5	0xbf7e8f62	-0.99437535
6	0xbeae2aa1	-0.34016898
7	0xbedc734d	-0.43056718
8	0x3df7b5ff	0.1209526
9	0x3f136534	0.575763
10	0x3f2b530c	0.66923594
11	0xbf195117	-0.5988936
12	0xbf0b1628	-0.5433068
13	0xbca4d33c	-0.020120256
14	0xbf760799	-0.96105343
15	0xbeaa31a4	-0.33240998
16	0xbf4c7a80	-0.7987442
17	0x3e519bb3	0.20469551
18	0xbea6069c	-0.32426918
19	0xbeaebeb4	-0.3412987
20	0xbf2ae3b4	-0.667537
21	0xbda70cfb	-0.08156773
22	0x3d2638a9	0.04058138
23	0xbd9229d0	-0.07136881
24	0x3da96a17	0.08272188
25	0xbe77df07	-0.24206172
26	0xbf1e2248	-0.6177106
27	0xbf803ba3	-1.00182
28	0xbec0a5e7	-0.37626573
29	0xbe978775	-0.29595533
30	0xbee96b28	-0.45589566
31	0xbf2a89c3	-0.6661646

Conv_BN_ReLU2.1.running_var f4 [32]
0	0x3f1117d5	0.5667699
1	0x3f0cdeac	0.5502727
2	0x3f0ec4c0	0.55768967
3	0x3ec0000f	0.37500045
4	0x3f56f476	0.8396677
5	0x3e94e5dd	0.29081622
6	0x3f01c3ef	0.50689596
7	0x3ed97b4a	0.42476875
8	0x3ed8d621	0.42350867
9	0x3f21aefb	0.63157624
10	0x3f166eba	0.58762705
11	0x3ea2d22a	0.31800967
12	0x3ecb553d	0.3971347
13	0x3ef09400	0.46987915
14	0x3eb819e3	0.3595725
15	0x3ecfc286	0.40578097
16	0x3f88d6bb	1.069053
17	0x3eafaac9	0.34309986
18	0x3e8e2846	0.277651
19	0x3e4506c5	0.19240864
20	0x3f61ab40	0.8815193
21	0x3eb48907	0.35260794
22	0x3f24b57d	0.6433943
23	0x3e7da77d	0.24770923
24	0x3e5dc8dd	0.21658655
25	0x3ec3bb94	0.38229048
26	0x3f04fef0	0.51951504
27	0x3f00235e	0.50053966
28	0x3e9011d7	0.2813861
29	0x3eaea985	0.34113708
30	0x3f057b1d	0.5214098
31	0x3f18ef41	0.5974007

Conv_BN_ReLU2.3.weight f4 [32, 32, 3, 3]
0	0x3d7c8c10	0.06165701
1	0x3cf877b2	0.030330513
2	0x3cab83ff	0.020936964
3	0x3d465141	0.048417334
4	0x3cc348f6	0.023838501
5	0x3c6b1f4d	0.014350724
6	0xbc0c4118	-0.008560441
7	0xbd0423ec	-0.03226082
8	0x3c2f0228	0.010681666
9	0xbd560a9c	-0.05225621
10	0x3d607893	0.05480249
11	0xbca1a923	-0.019733971
12	0xbd4389b1	-0.047738735
13	0xbc234ea3	-0.009967479
14	0x3caafe09	0.020873087
15	0xbcd25400	-0.02567482
16	0xbd2b2bf0	-0.04178995
17	0x3b89478a	0.0041894363
18	0xbca5aebb	-0.02022492
19	0xbcf9ea63	-0.030507272
20	0x3d3e0e03	0.04640008
21	0x3cc243df	0.023714004
22	0x3dac3706	0.084089324
23	0x3d0c856d	0.034306932
24	0x3d6314b0	0.05543965
25	0x3ddca4e0	0.10773635
26	0x3d1aa7bc	0.03775762
27	0xbd091cd2	-0.03347475
28	0x3d8883b6	0.06665747
29	0x3d065cb0	0.032803237
30	0x3cc5f374	0.024163939
31	0x3d9b04dd	0.07569287
32	0x3c961cfe	0.018324371
33	0xbcd5175f	-0.02601212
34	0xbd4ebe98	-0.050474733
35	0xbbd3c6f6	-0.006462927
36	0xbcce1cf2	-0.025160287
37	0x3c819004	0.015815742
38	0x3cd34926	0.025791716
39	0x3c5b1847	0.013372487
40	0x3cfa2508	0.030535236
41	0x3c105d56	0.0088113155
42	0xbd231bfc	-0.03982161
43	0x3c330a68	0.010927774
44	0x3d23b23e	0.039964907
45	0x3c7ad4e4	0.015309546
46	0xbb80b3e0	-0.003927693
47	0xbdaf5b7c	-0.08562371
48	0x3ca0138d	0.019540573
49	0xbd05fdb3	-0.03271265
50	0xbd859504	-0.06522563
51	0x3c9081d7	0.017640037
52	0xbbfff88a	-0.0078116106
53	0xbd718d35	-0.058972556
54	0x3b306776	0.0026917136
55	0xbbca4327	-0.006172556
56	0x3b3138b5	0.0027041857
57	0x3b83a04b	0.004016911
58	0xbc305e26	-0.010764634
59	0xbbb51a55	-0.0055268207
60	0xbc1d3f4c	-0.009597611
61	0xbd30dbc9	-0.043178353
62	0xbc621c3c	-0.013800677
63	0xbbf2c1b9	-0.0074083474
64	0x3d6aedfa	0.05735586
65	0xbd04d4fb	-0.032429677
66	0x3da08e7d	0.078396775
67	0x3d85a178	0.06524938
68	0xbd654eeb	-0.055983465
69	0x3b6e5213	0.0036364838
70	0xbb8c03be	-0.004272907
71	0x3bca0834	0.0061655287
72	0x3d0039ce	0.031305127
73	0xbc917423	-0.017755574
74	0x3d0a0c72	0.033703275
75	0x3d8d877a	0.06910606
76	0xbcff509d	-0.03116637
77	0xbd15fe79	-0.036619637
78	0x3c286758	0.010278545
79	0xbd6749cc	-0.056466863
80	0xbc1da945	-0.0096228765
81	0xbc91003e	-0.01770031
82	0x3c4f53f5	0.012654294
83	0x3d7e63a1	0.062106732
84	0x3cf54248	0.029938832
85	0x3d817870	0.063218
86	0xbd0ad4e0	-0.03389442
87	0x3b6b2622	0.0035880883
88	0x3d5e9043	0.054336797
89	0xbcfe92a6	-0.031075787
90	0xbcc2b497	-0.023767753
91	0xbd5cbfb4	-0.05389376
92	0xbcf51fda	-0.029922415
93	0xbd4d5913	-0.050133776
94	0xbd8346d2	-0.06409992
95	0xbda16698	-0.07880896
96	0xbcf83bb6	-0.03030191
97	0x3c971ecb	0.0184473
98	0xbd8a2494	-0.06745258
99	0x3bd03504	0.006353976
100	0x3c725af9	0.014792197
101	0xbd941d1f	-0.07232117
102	0x3daf7e44	0.08569005
103	0xbd483e70	-0.04888767
104	0xbd7b9e75	-0.061430413
105	0x3cfec634	0.03110037
106	0x3c2c64d9	0.010522091
107	0x3c94ebfa	0.018178929
108	0xbd40281e	-0.04691326
109	0x3d0c208f	0.034210738
110	0x3d4219f6	0.04738804
111	0xbcd8454c	-0.02640023
112	0xbcf3425f	-0.029694734
113	0x3d1acf5e	0.037795417
114	0x3cf301de	0.029663976
115	0x3d743413	0.059619974
116	0xbcb826f4	-0.022479512
117	0x3db6df66	0.089293286
118	0x3d8de933	0.06929245
119	0xbd9d543c	-0.07682082
120	0x3d19ec2a	0.03757874
121	0xbd33f7f3	-0.043937635
122	0xbdda38ea	-0.10655387
123	0x3cb11518	0.021616504
124	0xbd37a76b	-0.044837397
125	0x3d14b4a6	0.036305092
126	0xbd66b91e	-0.056328885
127	0xbbe4eaa5	-0.0069859796
128	0xbd0af21e	-0.033922307
129	0xbb8934b4	-0.004187191
130	0x3d29a09a	0.041412927
131	0x3cca752a	0.024714071
132	0x3cc43fa5	0.02395613
133	0x3c1e7f2f	0.009673878
134	0x3da0f69d	0.07859538
135	0x3c4f7da4	0.012664232
136	0x3d4dc133	0.050233077
137	0x3d316a47	0.043314245
138	0x3d806947	0.0627008
139	0xbd56c1f5	-0.052431066
140	0xbc64e7f5	-0.0139713185
141	0xbc8258e9	-0.015911536
142	0x3c4069f2	0.011744009
143	0xbd9388b7	-0.07203811
144	0xbd2b7485	-0.04185917
145	0xbda696c2	-0.081342235
146	0x3d7e91e2	0.062150843
147	0xbba0d3c6	-0.004908058
148	0x3d330bb5	0.043712337
149	0x3d7e773c	0.06212543
150	0x3c6adf89	0.0143355215
151	0x3d26d5e8	0.04073134
152	0xbd2c41c6	-0.042054914
153	0xbd5d7e90	-0.054075778
154	0x3d3eba11	0.046564166
155	0xbd3dbe84	-0.046324268
156	0xbd76aa68	-0.060221106
157	0x3c45e242	0.01207787
158	0xbb0cc87b	-0.00214818
159	0x3cb00973	0.02148888
160	0x3d1995be	0.03749632
161	0x3d183024	0.037155285
162	0xbd20f7ee	-0.039298944
163	0xbbbcb570	-0.0057589337
164	0xbc228cc4	-0.009921256
165	0x3c531e10	0.012885585
166	0x3c6c708a	0.014431128
167	0x3c3cb285	0.011517172
168	0xbcaf3bbe	-0.021390792
169	0xbd5be41e	-0.053684346
170	0xbd14388f	-0.03618675
171	0x3da1524f	0.07877027
172	0xbd36bf77	-0.04461619
173	0xbdd39a28	-0.10332137
174	0x3d000242	0.031252153
175	0xbd0d1375	-0.034442384
176	0xbd42364f	-0.047415074
177	0xbd8985a5	-0.06714944
178	0x3dbbc869	0.091690846
179	0x3d5f90ff	0.05458164
180	0x3beb3ef5	0.007179136
181	0xbc0b6bbb	-0.008509572
182	0xbd104e4c	-0.03523092
183	0x3d20829c	0.03918706
184	0xbd956769	-0.072951145
185	0xbda49b2e	-0.08037411
186	0x3d5d6abb	0.054056864
187	0x3d6ab944	0.05730559
188	0xbce9fcee	-0.02856299
189	0xbd49ecdd	-0.049298156
190	0x3d561c12	0.052272864
191	0x3d0dce83	0.034620773
192	0x3cb27305	0.021783361
193	0x3c3addbc	0.011405405
194	0xbc99c438	-0.018770322
195	0x3d0bd4ac	0.034138367
196	0x3d0b6f28	0.034041554
197	0xbcea1cae	-0.028578129
198	0xbd3a16be	-0.045431845
199	0xbd44b675	-0.048025567
200	0xbc59e568	-0.013299324
201	0x3d638f14	0.05555637
202	0x3da1674e	0.07881032
203	0x3d0e6e09	0.034772906
204	0x3d99efd2	0.07516445
205	0x3cc5ed39	0.024160968
206	0x3d75d7a2	0.060020097
207	0xbd9ffb86	-0.07811646
208	0xbd756994	-0.05991514
209	0x3d4ec087	0.050476577
210	0xbd57ec25	-0.05271544
211	0xbbda23b0	-0.0066570863
212	0xbbb94255	-0.0056536593
213	0xbca999dc	-0.020703249
214	0xbc2f29f1	-0.010691152
215	0x3c1e8c71	0.0096770385
216	0xbd826bdc	-0.06368229
217	0xbd814c66	-0.063134
218	0x3c4e3411	0.012585656
219	0x3d009f9c	0.031402215
220	0xbcdde5d8	-0.027087137
221	0xbcfdb271	-0.030968877
222	0xbd367181	-0.04454184
223	0x3b3e0bb6	0.002899868
224	0x3d2db405	0.042408008
225	0x3d92967d	0.071576096
226	0xbd9743e6	-0.073859975
227	0xbd892cf6	-0.06698029
228	0xbcec99b4	-0.028881885
229	0x3d85d0dc	0.065339774
230	0xbbc74443	-0.0060811355
231	0xbd6f1679	-0.05837104
232	0x3db7d7ce	0.08976708
233	0x3dcbd07e	0.09951876
234	0x3d580050	0.052734673
235	0xbc821ea0	-0.015883744
236	0xbd96dd34	-0.0736641
237	0xba6e98b9	-0.0009101737
238	0x3d1fff55	0.039061863
239	0xbd83af73	-0.06429949
240	0xbd1aa216	-0.037752233
241	0x3c0d231d	0.008614329
242	0x3dadc78f	0.084853284
243	0xbbac57d1	-0.005259492
244	0xbbaa9b73	-0.0052065193
245	0x3d3c1b5e	0.045924537
246	0xbd4687f9	-0.048469517
247	0x3d33e645	0.043920774
248	0x3d321407	0.04347613
249	0xbc31a182	-0.010841729
250	0x3dba389c	0.09092829
251	0x3b611eaf	0.0034350564
252	0x3db40b14	0.087911755
253	0x3ce3f27d	0.027825588
254	0xbc5b6294	-0.013390202
255	0x3de6e3af	0.11273896

Conv_BN_ReLU2.3.bias f4 [32]
0	0xbd31c7ca	-0.043403424
1	0xbc010000	-0.007873535
2	0x3ca2dde9	0.019881206
3	0x3d61a4e5	0.055088896
4	0xbc878e92	-0.016547475
5	0xbd0be903	-0.034157764
6	0x3d3a16b7	0.04543182
7	0x3d7106fd	0.058844555
8	0x3ce7412a	0.028229315
9	0x3d4229cf	0.047403153
10	0xbc6dff3f	-0.014526187
11	0xbd0235c6	-0.031789564
12	0x3d56d51e	0.05244934
13	0x3d3bfdbe	0.045896284
14	0x39d7eee9	0.00041185998
15	0xbd130d74	-0.0359015
16	0x3c228dcf	0.009921505
17	0xbd0f762c	-0.035024807
18	0x3d631760	0.055442214
19	0xbd2e7d58	-0.042600006
20	0x3d1790c6	0.0370033
21	0xbb206773	-0.0024475723
22	0xbd1d555e	-0.03841149
23	0xbcaf4b68	-0.021398261
24	0xbd3d179a	-0.046165086
25	0xbd5b8201	-0.05359078
26	0xbd065d8e	-0.032804064
27	0xbd624e9a	-0.05525074
28	0xbc16425f	-0.009171098
29	0xbce753b6	-0.028238159
30	0xbd077117	-0.033066835
31	0x3c7f64c7	0.015587992

Conv_BN_ReLU2.4.weight f4 [32]
0	0x3f80dd34	1.0067506
1	0x3f7af1bb	0.980251
2	0x3f800bdf	1.0003623
3	0x3f6fc228	0.93655634
4	0x3f7e8a64	0.9942992
5	0x3f6ce331	0.92534167
6	0x3f825051	1.0180761
7	0x3f7b2ee6	0.98118436
8	0x3f7565e3	0.9585859
9	0x3f7d58b8	0.989635
10	0x3f7a2f59	0.97728497
11	0x3f7f4236	0.99710405
12	0x3f8947a0	1.0724983
13	0x3f77dda5	0.9682258
14	0x3f77797c	0.96669745
15	0x3f86f41f	1.054325
16	0x3f824ec3	1.0180286
17	0x3f7b8865	0.98254997
18	0x3f7b83eb	0.98248166
19	0x3f72bb9b	0.94817513
20	0x3f70d660	0.9407711
21	0x3f818cfb	1.0121149
22	0x3f80d271	1.0064222
23	0x3f7eaed3	0.9948551
24	0x3f7ae487	0.98004955
25	0x3f765317	0.96220535
26	0x3f8986fa	1.0744317
27	0x3f72da13	0.94864005
28	0x3f8137d2	1.009516
29	0x3f770260	0.96488
30	0x3f7f3f64	0.997061
31	0x3f787f7f	0.97069544

Conv_BN_ReLU2.4.bias f4 [32]
0	0xbe0d4672	-0.13796404
1	0xbdb3b10a	-0.08774002
2	0xbdd8ceb8	-0.105863035
3	0xbe1b64f7	-0.15175234
4	0xbd6e2e8b	-0.058149856
5	0xbdeb05fc	-0.11475751
6	0xbd801ec6	-0.062558696
7	0xbd6ce471	-0.057835046
8	0xbd932d2c	-0.0718635
9	0xbdc798cd	-0.09745941
10	0xbd3b5689	-0.045736823
11	0xbdb0000d	-0.0859376
12	0xbd7e3b86	-0.062068485
13	0xbd2f6091	-0.042816702
14	0xbdd5e562	-0.10444142
15	0xbdd55fb6	-0.10418646
16	0xbda3b2c6	-0.07993083
17	0xbd923fa2	-0.07141043
18	0xbdf5bf2e	-0.11999355
19	0xbddb4e3d	-0.10708282
20	0xbde1f1ce	-0.11032449
21	0xbd2f5431	-0.0428049
22	0xbcf41c94	-0.029798783
23	0xbd900eab	-0.07034048
24	0xbd3b78de	-0.045769565
25	0xbdc93af0	-0.098256946
26	0xbd3f65c5	-0.046727914
27	0xbd3c73dd	-0.046008933
28	0xbd916f9d	-0.07101367
29	0xbd65c37d	-0.056094635
30	0xbd07a041	-0.033111814
31	0xbe0c7182	-0.13715175

Conv_BN_ReLU2.4.running_mean f4 [32]
0	0x3e41d602	0.18929294
1	0xbf3200c5	-0.69532424
2	0x3e1f99d6	0.15586028
3	0xbf80f8a8	-1.0075884
4	0xbee74a17	-0.45173714
5	0xbe70f14b	-0.23529546
6	0xbf44b5a3	-0.76839656
7	0x3cdbe79e	0.026843842
8	0xbf09d221	-0.53836256
9	0x3f2d39d7	0.6766638
10	0x3e5d16f3	0.21590786
11	0xbde79e03	-0.11309435
12	0xbea9ab11	-0.33138326
13	0xbf662754	-0.8990376
14	0xbf15d234	-0.5852387
15	0xbe7018c6	-0.2344695
16	0xbf9c5df4	-1.2216172
17	0xbf432b67	-0.762381
18	0x3d349f9d	0.04409753
19	0xbea663b8	-0.32497954
20	0x3ebb071f	0.3652887
21	0x3e06add8	0.13152254
22	0xbed4fd07	-0.41599295
23	0x3dbd29bf	0.09236478
24	0xbf5666d9	-0.83750683
25	0xbecac56b	-0.39603743
26	0xbe3b1247	-0.18268691
27	0xbf23703d	-0.6384314
28	0xbedd3f6c	-0.4321245
29	0xbf3010be	-0.68775547
30	0xbf2e65a4	-0.6812384
31	0x3edb642f	0.42849872

Conv_BN_ReLU2.4.running_var f4 [32]
0	0x3ec3fe68	0.38280034
1	0x3f3d764b	0.74008626
2	0x3e6b5c3c	0.22984403
3	0x3f1cac44	0.61200356
4	0x3efbf86e	0.49212974
5	0x3f113228	0.5671716
6	0x3ef7d3d1	0.4840379
7	0x3f2e5226	0.680941
8	0x3ee676b6	0.45012444
9	0x3ebf3bfd	0.37350455
10	0x3f557f6e	0.8339757
11	0x3e9932f4	0.29921687
12	0x3ee5cc46	0.4488241
13	0x3ef17928	0.47162747
14	0x3f0f51e6	0.5598434
15	0x3ee44fbc	0.44592083
16	0x3efe167a	0.49626523
17	0x3f29322a	0.6609217
18	0x3f089094	0.5334561
19	0x3edbac6e	0.4290499
20	0x3f3d8d00	0.74043274
21	0x3ece0e55	0.4024531
22	0x3ef33dd8	0.4750812
23	0x3f40d409	0.7532354
24	0x3f3e47f7	0.7432856
25	0x3f5b551f	0.8567676
26	0x3f191ed8	0.5981269
27	0x3ebf789d	0.37396708
28	0x3ead94d9	0.33902624
29	0x3efdc90b	0.49567446
30	0x3f00ffed	0.5039051
31	0x3ea86041	0.32885936

Conv_BN_ReLU3.0.weight f4 [32, 32, 3, 3]
0	0x3d91599a	0.07097168
1	0x3c68b5ec	0.01420353
2	0xbd563075	-0.052292306
3	0x3df10855	0.11769167
4	0x3d85d3f1	0.06534565
5	0x3b251fc6	0.002519594
6	0xbab5bb5f	-0.0013865045
7	0x3ccdca1a	0.025120784
8	0xbd482521	-0.048863534
9	0xbc916c85	-0.017751941
10	0xbd1599da	-0.036523677
11	0xbd2c3b49	-0.042048726
12	0xbaf02c77	-0.0018323798
13	0x3d87c6bb	0.06629702
14	0xbdd46db7	-0.10372489
15	0x3d033615	0.032034
16	0x3d884a45	0.06654791
17	0xbd583add	-0.05279051
18	0x3d15c480	0.03656435
19	0x3db00a0b	0.085956655
20	0xbd82e305	-0.06390957
21	0xbc25c118	-0.010116838
22	0x3d25f622	0.040517934
23	0xbd7a6897	-0.0611349
24	0x3da1cdac	0.07900557
25	0x3d482746	0.04886558
26	0x3d1b930e	0.03798204
27	0x3d8c7cbf	0.06859731
28	0xbc57719f	-0.013149648
29	0x3c3f0bea	0.011660555
30	0x3e02c088	0.12768757
31	0x3db78189	0.08960254
32	0xbd5ba65d	-0.053625453
33	0x3d96c04d	0.07360897
34	0xbc23df41	-0.010001958
35	0xbd893ed6	-0.06701438
36	0x3da9e7ca	0.082961634
37	0xba3d9305	-0.00072316854
38	0xbd7aff1b	-0.061278444
39	0x3cc9ca8d	0.024632717
40	0x3d4c5a59	0.04989085
41	0xbd886298	-0.0665943
42	0x3d51cf38	0.05122301
43	0x3cd9b75e	0.026576694
44	0xbd710268	-0.058840185
45	0xbd83a8bc	-0.06428668
46	0x3d036635	0.032079894
47	0xbddb7e40	-0.1071744
48	0xbdcef079	-0.1010446
49	0x3d3b6281	0.045748238
50	0xbd275ed5	-0.040861923
51	0xbd48cddb	-0.049024444
52	0xbd9d380e	-0.07676707
53	0xbcd3ea6a	-0.025868613
54	0x3da91414	0.08255783
55	0x3c641be7	0.013922668
56	0x3c87023e	0.016480561
57	0x3dcb27ec	0.09919724
58	0x3cfd810f	0.030945329
59	0x3d7e758f	0.06212383
60	0x3d2e8d24	0.04261507
61	0xbd8fb522	-0.0701697
62	0x3cdf1681	0.02723241
63	0x3d7d940f	0.061908778
64	0x3d63eeb2	0.05564756
65	0x3c5b4792	0.013383763
66	0x3bf6d1e7	0.0075323465
67	0xbcdc641b	-0.026903203
68	0x3d57b05c	0.052658424
69	0xbd1322c6	-0.035921834
70	0x3b386bfd	0.0028140538
71	0xbd376e6c	-0.04478304
72	0x3bbbd52e	0.0057322
73	0x3d7a05e8	0.06104079
74	0x3d4cce99	0.050001714
75	0xbc5173bb	-0.01278394
76	0x3d3bff6a	0.04589788
77	0xbd2878c5	-0.0411308
78	0x3d1eb17d	0.038743485
79	0x3d266106	0.040619873
80	0x3d1d4fe1	0.038406257
81	0xbd3495c2	-0.044088133
82	0x3db5d29e	0.08878063
83	0x3c9b7442	0.018976334
84	0xba312056	-0.00067568326
85	0xbcada479	-0.02119659
86	0x3dbba0ad	0.09161506
87	0xbd4761bc	-0.04867719
88	0xbd60d015	-0.054885942
89	0x3d2a749f	0.041615125
90	0x3c0871c5	0.008327906
91	0x3cc9f56f	0.024653165
92	0x3e198007	0.14990245
93	0x3ad37ef1	0.0016135854
94	0x3d5a15d3	0.05324347
95	0x3db5ab44	0.08870557
96	0x3c46d835	0.012136509
97	0x3da23af5	0.079214014
98	0x3da89539	0.08231587
99	0x3d8f91e6	0.0701025
100	0x3d432b17	0.047648516
101	0xbdebbbc6	-0.11510424
102	0x3cf0680b	0.029346487
103	0x3ce1e703	0.027575975
104	0xbdc7bcc5	-0.09752802
105	0xbc66bc78	-0.01408302
106	0x3dbf789a	0.09349175
107	0xbd10e59e	-0.03537523
108	0x3cd6479e	0.026157197
109	0x3d655689	0.05599073
110	0x3d01591a	0.031579114
111	0xbb830538	-0.003998425
112	0x3d8f3d2c	0.069940895
113	0xbb85809a	-0.0040741684
114	0x3d1ab6b4	0.037771896
115	0x3da4839d	0.08032916
116	0x3d9a0076	0.07519619
117	0x3d3be18e	0.045869403
118	0x3d810312	0.06299414
119	0xbe1cae2a	-0.15300813
120	0xbd0332fa	-0.032031037
121	0x3d721213	0.05909927
122	0xbd8a98cd	-0.06767426
123	0xbcb7ca68	-0.022435382
124	0x3d743f7b	0.059630852
125	0xbcdd3aba	-0.027005542
126	0x3d9a1978	0.07524389
127	0xbd0f0c51	-0.034923855
128	0xbdb8c745	-0.09022383
129	0x3d827c91	0.063714154
130	0x3d8b510a	0.06802566
131	0xbdaf54fd	-0.08561132
132	0x3db3f7c0	0.08787489
133	0x3dd4587b	0.10368439
134	0xbd429610	-0.047506392
135	0x3c124545	0.008927648
136	0x3d8ed394	0.06973949
137	0xbbf0c30c	-0.00734747
138	0xbd963cd9	-0.073358245
139	0x3d048e15	0.032362062
140	0xbdb0ca01	-0.08632279
141	0xbc9b403b	-0.018951526
142	0xbc12f3f9	-0.0089693
143	0xbcaaa299	-0.020829486
144	0xbd8de564	-0.069285184
145	0xbc4ca6a7	-0.012490905
146	0xbc0e9dd6	-0.008704623
147	0x3d837d1b	0.06420346
148	0x3d956056	0.07293765
149	0xbca33b9e	-0.019925889
150	0x3d909bee	0.07060991
151	0x3d4c21fd	0.0498371
152	0xbd9f9450	-0.0779196
153	0x3d78cf16	0.060744368
154	0x3d71ad53	0.059003185
155	0xbd4998e8	-0.04921809
156	0x3dbbafee	0.09164415
157	0x3d395bf4	0.04525371
158	0xbd86096b	-0.06544765
159	0x3daa01e7	0.08301144
160	0x3d303b47	0.04302528
161	0xbdd41088	-0.103547156
162	0xbcba6dd4	-0.022757448
163	0xbcc22a28	-0.023701742
164	0xbdb17f88	-0.08666903
165	0x3c3ed18e	0.011646641
166	0xbc8475f6	-0.01616953
167	0xbd7ce4b2	-0.06174154
168	0xbdb57282	-0.08859731
169	0x3ca26abb	0.019826284
170	0xbd9d5863	-0.07682874
171	0xbcaa48fd	-0.020786757
172	0x3d570887	0.052498367
173	0x3d2a989e	0.041649453
174	0xbdde1b65	-0.10845069
175	0x3d8fb2d2	0.07016529
176	0x3cfc5fe3	0.030807441
177	0xbdf363fb	-0.11884304
178	0x3b8b2961	0.004246876
179	0x3da56569	0.08075983
180	0x3cb869a9	0.02251132
181	0x3d3af11a	0.04564009
182	0x3d04b87d	0.032402504
183	0xbcca14ff	-0.024668215
184	0xbd908c5d	-0.07058022
185	0x3d40b9c4	0.04705216
186	0xbdac1116	-0.084016964
187	0xbda3f8e1	-0.08006454
188	0xbd3a4de8	-0.045484453
189	0xbcc19b35	-0.023633579
190	0x3d1a1c1c	0.037624463
191	0xbcf16078	-0.029464945
192	0xbc8403ee	-0.016115155
193	0xbbc030f7	-0.005865212
194	0xbd4a20a5	-0.04934754
195	0x3c4919b8	0.012274198
196	0xbc8115a8	-0.015757397
197	0xbc0b02e9	-0.008484581
198	0x3db43f8c	0.08801183
199	0x3d3a03b5	0.04541369
200	0xbe1db93b	-0.15402691
201	0x3dbabd64	0.09118155
202	0x3cf5538f	0.02994707
203	0xbe173944	-0.14767939
204	0x3c3d66de	0.01156017
205	0xbc7b2fab	-0.015331189
206	0xbd3938d1	-0.0452202
207	0x3d2db93e	0.04241299
208	0x3dccbebf	0.099973194
209	0xbdbe8e94	-0.09304538
210	0xbd99296f	-0.07478606
211	0x3cce4969	0.025181489
212	0xbc0231be	-0.00794643
213	0xbe038bde	-0.12846324
214	0xbd91c6f1	-0.07118023
215	0x3cbbef8d	0.022941375
216	0x3d29c314	0.041445807
217	0xbd3c6ff2	-0.046005197
218	0x3d8af34c	0.067846864
219	0x3b808aaf	0.0039227824
220	0x3d4b5545	0.049641866
221	0x3ba48002	0.0050201425
222	0x3cfbdb54	0.030744232
223	0xbd3b45e0	-0.045720935
224	0x3906b302	0.00012845921
225	0x3d81cf02	0.06338312
226	0x3d233029	0.03984085
227	0xbb29e848	-0.0025925804
228	0x3d9e0e96	0.07717626
229	0x3d4041ea	0.04693786
230	0xbce4e542	-0.02794135
231	0x3c589876	0.013219943
232	0xbd18adf7	-0.03727528
233	0xbd35102e	-0.044204883
234	0x3d5eaa42	0.05436159
235	0x3d9470ea	0.07248099
236	0x3d8732e9	0.06601507
237	0x3b808a6c	0.003922751
238	0x3ca17ffc	0.019714348
239	0x3daeaab5	0.085286535
240	0x3cd945a1	0.02652246
241	0x3d103a41	0.035211805
242	0x3e2a9351	0.16657759
243	0xbbbe9dc7	-0.0058171484
244	0x3cc46160	0.023972213
245	0xbd2773ef	-0.040882047
246	0x3d29b95e	0.041436546
247	0x3dcac130	0.09900129
248	0xbcd3329e	-0.025780972
249	0x3cabe3eb	0.020982703
250	0xbcfe7415	-0.031061212
251	0xbd7e1a24	-0.06203665
252	0x3d83ef36	0.0644211
253	0x3d01ba36	0.031671725
254	0xbd3d021d	-0.046144594
255	0x3d4eab95	0.050456602

Conv_BN_ReLU3.0.bias f4 [32]
0	0x3b777d7a	0.0037764
1	0x3d2acf8c	0.04170184
2	0xbcd913cc	-0.026498698
3	0xbd503fd9	-0.05084214
4	0x3d59d1af	0.053178485
5	0x3c402061	0.01172647
6	0xbd0e2844	-0.03470637
7	0x3d245638	0.040121287
8	0x3d536a84	0.051615253
9	0x39028145	0.00012445923
10	0xbd6bd850	-0.05757934
11	0xbcd4f9c9	-0.025998013
12	0xbba36795	-0.004986713
13	0xbc0590fa	-0.008152241
14	0xbd26dc28	-0.0407373
15	0xbd17f10c	-0.037095115
16	0x3ba46fbf	0.005018204
17	0x3b652ec5	0.0034970504
18	0xbcd6c3e0	-0.026216447
19	0xbc0b77e8	-0.008512475
20	0xbd3a1529	-0.045430336
21	0x3c56d0d2	0.01311131
22	0xbcca296a	-0.02467795
23	0x3be2207b	0.0069008446
24	0xbc2539be	-0.010084568
25	0x3d3156fd	0.04329585
26	0xbd560d29	-0.052258644
27	0xbbcb68d2	-0.006207564
28	0xbc231916	-0.009954711
29	0xbd0486bb	-0.03235505
30	0x3ca91fb8	0.020645007
31	0x3d25b5b0	0.040456474

Conv_BN_ReLU3.1.weight f4 [32]
0	0x3f840780	1.0314789
1	0x3f8709e2	1.0549891
2	0x3f8f8c9b	1.1214784
3	0x3f7033fc	0.9382932
4	0x3f78a490	0.971261
5	0x3f7e12cc	0.9924743
6	0x3f844df6	1.0336292
7	0x3f809ebb	1.0048441
8	0x3f794528	0.9737115
9	0x3f715ed8	0.94285345
10	0x3f842d3f	1.0326308
11	0x3f813023	1.0092815
12	0x3f71d1a4	0.9446051
13	0x3f900be7	1.1253632
14	0x3f8224ae	1.0167444
15	0x3f7f296b	0.99672574
16	0x3f764737	0.96202415
17	0x3f839a5f	1.0281485
18	0x3f784e46	0.96994436
19	0x3f84bb24	1.0369611
20	0x3f850f48	1.0395288
21	0x3f5de05d	0.86670476
22	0x3f81d49a	1.0143006
23	0x3f7c8253	0.9863636
24	0x3f7fa64b	0.9986312
25	0x3f7e9867	0.994513
26	0x3f80dcc2	1.006737
27	0x3f73acb8	0.9518542
28	0x3f7b01b8	0.980495
29	0x3f878891	1.0588552
30	0x3f822e03	1.0170292
31	0x3f787092	0.9704677

Conv_BN_ReLU3.1.bias f4 [32]
0	0xbe439691	-0.19100405
1	0xbe26da04	-0.16294104
2	0x3aa89ea5	0.0012864663
3	0xbd91ff18	-0.071287334
4	0xbd45ebe5	-0.04832067
5	0xbdd4cb00	-0.10390282
6	0xbd9ca48c	-0.07648572
7	0xbde115b1	-0.109904654
8	0xbd8d85aa	-0.0691026
9	0xbcba878e	-0.022769716
10	0xbba6e5c8	-0.00509331
11	0x3d5ece7e	0.054396145
12	0xbd03e1f7	-0.03219792
13	0x3c6b405f	0.014358609
14	0x3ae57a59	0.0017507776
15	0xbcf754b6	-0.03019176
16	0xbd6912ef	-0.056902822
17	0xbdc96fed	-0.09835801
18	0xbd31c4eb	-0.043400686
19	0xbe15dba0	-0.14634562
20	0xbdf7dff8	-0.121032655
21	0xbdde419d	-0.108523585
22	0xbbddde66	-0.0067708967
23	0xbd4dbbb7	-0.050227847
24	0x3d05e8f2	0.032692857
25	0xbd51a4de	-0.05118262
26	0xbd792b01	-0.060832027
27	0xbdde5283	-0.108555816
28	0xbd495ffc	-0.049163803
29	0xbdb58587	-0.08863359
30	0xbcfcc117	-0.030853791
31	0xbd92d9b4	-0.0717043

Conv_BN_ReLU3.1.running_mean f4 [32]
0	0x3fbbe68b	1.4679731
1	0x3fcd7634	1.6051698
2	0x3f611444	0.8792155
3	0x4000a154	2.0098467
4	0xbe9288c2	-0.28619963
5	0x3f30cdda	0.69064105
6	0x3f2c1727	0.6722283
7	0xbda4dbf8	-0.08049768
8	0x3e6d00d3	0.23144846
9	0xbeba208b	-0.36352953
10	0xc03cb2b3	-2.948407
11	0xbf8f39a5	-1.1189467
12	0xbfb5fbf2	-1.4217513
13	0xbf1a252a	-0.6021296
14	0xc02f647d	-2.7405083
15	0xbf865379	-1.0494224
16	0xc01e9847	-2.4780443
17	0x3fb0712e	1.378454
18	0x3fc130dd	1.5093037
19	0x3f8f7a2a	1.1209157
20	0x3e9611de	0.29310507
21	0xbfe936e9	-1.8219882
22	0xbfe2e5eb	-1.7726415
23	0x3f3b35bd	0.73128873
24	0xc0280d4f	-2.6258123
25	0xbf951387	-1.1646584
26	0xc009b72f	-2.1518056
27	0x3ff86cbc	1.9408183
28	0x3f8a039d	1.0782353
29	0x3ea888c7	0.32916853
30	0x3e45026f	0.1923921
31	0x3f245d50	0.64204884

Conv_BN_ReLU3.1.running_var f4 [32]
0	0x3f804c80	1.0023346
1	0x3fa08a32	1.2542174
2	0x3f697b05	0.9120334
3	0x3fa5d911	1.2956868
4	0x4017cbe0	2.3718185
5	0x3f32751a	0.6970993
6	0x3f4e6218	0.8061843
7	0x3ec784e7	0.38968584
8	0x3fa64bc8	1.2991877
9	0x3fa79f94	1.3095574
10	0x3fb1497d	1.3850552
11	0x3f0effdd	0.55859166
12	0x3f3ceef0	0.7380209
13	0x3f320b60	0.69548607
14	0x3fbc43ff	1.4708251
15	0x3fb63a30	1.4236507
16	0x3faf1c76	1.368056
17	0x3f4633c7	0.77422756
18	0x40067ea6	2.10148
19	0x3f6393bc	0.888973
20	0x3f3048f6	0.6886133
21	0x3f70849e	0.9395236
22	0x3f3fd080	0.7492752
23	0x3f84a2ef	1.0362223
24	0x3fad386e	1.3532846
25	0x3f7df839	0.9920688
26	0x3fbce8b7	1.4758519
27	0x3f303485	0.6883014
28	0x3fae663e	1.3624952
29	0x3f00589e	0.5013522
30	0x3f9b4482	1.2130282
31	0x3f72dfde	0.94872844
