CA04/checkpoint.pth (torch, 710925 bytes, 143 tensors)

Conv_BN_ReLU1.0.weight f4 [16, 3, 3, 3]
0	0xbda8e922	-0.082475916
1	0xbdec20c2	-0.115296856
2	0x3def7ddf	0.1169393
3	0x3da8068a	0.08204372
4	0xbe1d1449	-0.1533977
5	0xbd54123d	-0.051775206
6	0x3e397d20	0.18114138
7	0x3c9579af	0.0182465
8	0x3e13fd94	0.14452201
9	0x3dcc9cfa	0.099908784
10	0x3bff0dbe	0.0077836206
11	0xbe035c8e	-0.12828276
12	0x3d189938	0.037255496
13	0x3cd33e7d	0.025786633
14	0xbe03c0a7	-0.1286646
15	0xbd3efe47	-0.046629217
16	0x3cf8ece0	0.030386388
17	0x3d2ee719	0.04270086
18	0xbd27fb39	-0.04101107
19	0xbe55706c	-0.20843667
20	0xbdc7b680	-0.09751606
21	0x3d3ce372	0.046115346
22	0xbd386d45	-0.045026083
23	0xbe167793	-0.14694051
24	0x3db84a3f	0.08998536
25	0x3e1585ee	0.14601871
26	0xbd1918dd	-0.037377227
27	0xbd2e29bb	-0.042520266
28	0x3c80b730	0.01571235
29	0x3cfcfcf6	0.03088234
30	0x3de81ea1	0.11333967
31	0x3e2f6425	0.17128046
32	0xbde8dad3	-0.113698624
33	0xbcb830e7	-0.022484256
34	0xbe2c1bf0	-0.16807532
35	0x3c816a12	0.015797649
36	0xbe59c317	-0.21265827
37	0xbcf633d2	-0.030054007
38	0x3d8c64ea	0.06855185
39	0x3dd578b4	0.10423413
40	0x3e10f1fc	0.1415481
41	0xbc91302b	-0.017723164
42	0xbdc42920	-0.095781565
43	0x3e13a498	0.14418256
44	0x3cc4132f	0.023934929
45	0xbe504c6b	-0.20341651
46	0x3e1911a4	0.14948136
47	0xbe11f2a7	-0.14252721
48	0x3e2bb255	0.16767247
49	0x3e54573e	0.20736405
50	0xbe0b9bc4	-0.13633639
51	0xbe021d33	-0.12706451
52	0x3b07a359	0.0020696728
53	0xbc5d9365	-0.013523911
54	0xbe2fdd2e	-0.17174217
55	0x3d7d149d	0.061787236
56	0xbe0f1dc8	-0.13976204
57	0x3dc78ab2	0.09743251
58	0xbda47222	-0.080295816
59	0x3e21a898	0.1578697
60	0x3d17004c	0.036865517
61	0xbe07971e	-0.1324124
62	0xbe306600	-0.1722641
63	0x3e22b6e4	0.1589008
64	0xbc4612b7	-0.012089423
65	0xbe508f4e	-0.20367166
66	0x3d9938c3	0.074815296
67	0xbb523f61	-0.0032081234
68	0xbe7207c6	-0.23635778
69	0xbde745eb	-0.11292633
70	0xbe2f1830	-0.1709907
71	0x3d8f064b	0.06983622
72	0x3dcca0ec	0.09991631
73	0x3df8e386	0.12152772
74	0xbbeb9426	-0.0071892915
75	0x3e409f7a	0.18810835
76	0x3e2a29f3	0.16617565
77	0x3d58f465	0.052967448
78	0x3e1f78f9	0.15573491
79	0xbdf2e3a4	-0.11859825
80	0x3e0a9130	0.13531947
81	0x3e1922b7	0.14954649
82	0xbd75b5a4	-0.05998768
83	0x3c3d5b54	0.011557419
84	0x3d51e193	0.051240515
85	0xbb6f87b0	-0.0036549382
86	0x3df85632	0.121258155
87	0xbd37392f	-0.04473227
88	0xbe48d1e2	-0.19611314
89	0xbe727496	-0.23677287
90	0x3e035e72	0.12828997
91	0x3d260651	0.040533368
92	0xbdd565f0	-0.10419834
93	0x3af80c26	0.0018924519
94	0x3d439f31	0.04775924
95	0x3d97ba5e	0.074085936
96	0x3ce1d81e	0.027568873
97	0xbe27367b	-0.16329376
98	0xbe3b3b8a	-0.18284431
99	0x3e92d854	0.2868067
100	0xbdb524f1	-0.08844937
101	0x3e130bdd	0.14359994
102	0x3a8717d3	0.0010306783
103	0x3e49a51c	0.1969189
104	0xbd995bf5	-0.074882425
105	0x3e03df73	0.12878208
106	0x3d6e4d87	0.058179405
107	0xbdd22ab1	-0.10262049
108	0xbde39a85	-0.11113457
109	0xbe190380	-0.14942741
110	0x3e3a7c69	0.18211521
111	0x3dcb7a74	0.099354655
112	0xbcf06c25	-0.029348442
113	0xbe344122	-0.17602971
114	0x3dd2c57d	0.10291574
115	0xbe3041cb	-0.17212598
116	0x3d99a97d	0.075030304
117	0x3e2ba422	0.1676183
118	0x3e45bf46	0.19311246
119	0x3ddcd3d3	0.1078259
120	0xbd67d999	-0.056604
121	0xbe49aa22	-0.19693807
122	0xbe264f39	-0.16241159
123	0x3cec5827	0.028850628
124	0x3e08d205	0.13361366
125	0xbe0957d2	-0.13412407
126	0xbc341a80	-0.010992646
127	0x3dc9bc89	0.09850413
128	0xbd15b760	-0.036551833
129	0x3d927780	0.07151699
130	0x3da5f8ff	0.08104133
131	0xbe2d367d	-0.16915317
132	0x3d6776f5	0.05650993
133	0xbca65d8c	-0.020308279
134	0xbe05f4b5	-0.1308163
135	0xbd0f6c75	-0.035015542
136	0xbd390968	-0.045174986
137	0xbdee8ac6	-0.11647563
138	0xbe2db885	-0.1696492
139	0xbd36aea8	-0.04460016
140	0x3e08230f	0.13294624
141	0xbde5ee9e	-0.11227153
142	0xbdfa6ed8	-0.12228173
143	0x3dfb284a	0.12263544
144	0x3d6b18fa	0.057396866
145	0x3e2e2f2c	0.17010182
146	0x3e479f18	0.19494283
147	0xbd4a6187	-0.049409416
148	0x3b88d84c	0.004176175
149	0x3dff98cc	0.124803156
150	0xbd6b604b	-0.05746488
151	0x3dc83db2	0.097773924
152	0x3e41624a	0.1888515
153	0xbdc5b861	-0.09654308
154	0xbd1f9f01	-0.038969997
155	0x3c98d2ad	0.018655146
156	0x3dca9f13	0.09893622
157	0xbddd2bcc	-0.10799369
158	0x3c9c777c	0.019099943
159	0xbe5a5cf9	-0.21324529
160	0x3c823971	0.01589653
161	0x3dd9d943	0.106371425
162	0x3d77c007	0.060485866
163	0xbcc96d76	-0.024588328
164	0x3e6584b3	0.22413902
165	0x3c88354d	0.016626978
166	0x3d103002	0.035202034
167	0xbd79fc4e	-0.061031632
168	0x3d57a650	0.052648842
169	0xbc2a1f9c	-0.010383513
170	0xbde258b2	-0.110520735
171	0x3c83c60b	0.016085645
172	0xbe1f091b	-0.15530817
173	0x3beaae21	0.007161871
174	0xbe211daa	-0.15733972
175	0xbdb66afa	-0.08907123
176	0xbd37b612	-0.04485137
177	0x3d473654	0.048635796
178	0x3e073f45	0.13207729
179	0xbd91a47f	-0.07111453
180	0x3e00c639	0.12575616
181	0xbd83c200	-0.06433487
182	0x3e1b0806	0.1513978
183	0x3bea9f60	0.0071601123
184	0xbe183748	-0.14864838
185	0x3e447fba	0.19189349
186	0x3d2ceb56	0.04221662
187	0xbe2e35df	-0.17012738
188	0xbd91d137	-0.07119983
189	0xbce7ce3e	-0.028296586
190	0xbdc2c124	-0.09509495
191	0xbd0f584c	-0.034996316
192	0xbe0fbd17	-0.14036976
193	0x3cd8f804	0.02648545
194	0x3e18e4ac	0.14930981
195	0x3dad4069	0.08459551
196	0xbcddbc72	-0.027067397
197	0x3d8930a9	0.06698734
198	0xbe2de8df	-0.16983365
199	0x3d463202	0.048387535
200	0xbdcad5a9	-0.09904034
201	0xbe0c223a	-0.13684931
202	0x3ae7298a	0.0017636281
203	0x3dd386e6	0.10328464
204	0x3c1fef58	0.009761654
205	0xbcb4e63c	-0.02208244
206	0xbdc4a45a	-0.0960166
207	0xbdb2d1be	-0.087314114
208	0x3e2910ab	0.16510265
209	0x3e07584e	0.1321728
210	0xbe2f7493	-0.17134313
211	0x3e22dd45	0.1590472
212	0x3e135a77	0.14389978
213	0xbcd92803	-0.026508337
214	0x3d244336	0.04010316
215	0xbc61b554	-0.013776142
216	0x3c7171f8	0.014736645
217	0x3d8e75cb	0.06956061
218	0x3ccf8340	0.02533114
219	0x3d8860bc	0.066590756
220	0x3dd2b082	0.102875724
221	0x3d0ccbe1	0.03437412
222	0x3ce58bda	0.028020788
223	0x3bc09329	0.005876918
224	0x3d002a3d	0.03129028
225	0xbdf22761	-0.11823917
226	0xbec8f518	-0.39249492
227	0xbe393b7e	-0.180891
228	0xbe374faa	-0.17901483
229	0xbde067a8	-0.10957271
230	0x3da101d4	0.07861677
231	0x3db5fb08	0.08885771
232	0xbe2b3d46	-0.16722593
233	0xbaa880cf	-0.0012855771
234	0x3e7c2389	0.2462293
235	0xbd64d581	-0.055867676
236	0xbdbc5767	-0.09196358
237	0x3e50769d	0.20357747
238	0xbe32a167	-0.17444383
239	0x3dcb5298	0.09927863
240	0xbdbc9a30	-0.092090964
241	0xbd56e415	-0.05246361
242	0x3e5b8614	0.21437865
243	0xbc9c1419	-0.019052552
244	0x3e5d26c0	0.21596813
245	0x3a28f404	0.00064450526
246	0x3e285911	0.16440226
247	0x3e396ca6	0.18107852
248	0xbda6ba14	-0.0814096
249	0x3c2b6801	0.010461808
250	0xbd1030c2	-0.03520275
251	0x3deff8a0	0.11717343
252	0x3d2d63ad	0.042331386
253	0x3cf00cb7	0.029302938
254	0xbe08e3ac	-0.133681
255	0xbbae3f5e	-0.0053176126

Conv_BN_ReLU1.0.bias f4 [16]
0	0xbe010f52	-0.126035
1	0x3c8a61c6	0.016892325
2	0xbe217048	-0.15765488
3	0x3d300e7f	0.042982575
4	0x3d9430e4	0.07235888
5	0xbc5faa4f	-0.013651445
6	0x3d2eea12	0.042703696
7	0x3d07b07e	0.0331273
8	0xbe0d3358	-0.13789117
9	0xbc844f33	-0.016151046
10	0xbd98013a	-0.07422109
11	0x3d253e7e	0.0403428
12	0xbe53447c	-0.20631593
13	0x3de23ab9	0.11046357
14	0x3d72fe24	0.0593244
15	0xbdba599d	-0.090991236

Conv_BN_ReLU1.1.weight f4 [16]
0	0x3f7fbb41	0.998951
1	0x3f8c6b13	1.0970176
2	0x3f775a4b	0.9662215
3	0x3f6aed62	0.9176847
4	0x3f63c8a1	0.8897801
5	0x3f816658	1.0109358
6	0x3f8cc144	1.099648
7	0x3f8edb3c	1.1160655
8	0x3f779916	0.96717966
9	0x3f78f4ee	0.97248733
10	0x3f809b9d	1.004749
11	0x3f6cdd84	0.92525506
12	0x3f6ffbd9	0.93743664
13	0x3f6eed5d	0.9333094
14	0x3f73d8bf	0.95252603
15	0x3f85033c	1.0391612

Conv_BN_ReLU1.1.bias f4 [16]
0	0xbdbb1fb3	-0.091369055
1	0x3def5eab	0.11687978
2	0xbdeea15b	-0.1165187
3	0x3d77495d	0.0603727
4	0xbd4049dc	-0.046945438
5	0x3e8ac7a3	0.27105436
6	0x3dc09a4c	0.0940443
7	0x3d034e2e	0.03205698
8	0x3a308976	0.00067343505
9	0x3dbbfccd	0.09179077
10	0x3d93adf7	0.072109155
11	0xbb986a45	-0.00465134
12	0xbc14925a	-0.009068096
13	0xbde8acb6	-0.11361067
14	0xbd911f75	-0.07086078
15	0x3e294458	0.16529977

Conv_BN_ReLU1.1.running_mean f4 [16]
0	0xbe50ce06	-0.20391092
1	0x3d0757a1	0.033042554
2	0xbe328e55	-0.17437108
3	0x3de2999b	0.11064454
4	0x3c293557	0.010327659
5	0x3d47825d	0.04870831
6	0x3c519faf	0.012794419
7	0x3c897e88	0.016783968
8	0xbe89fda8	-0.26951337
9	0xbc1dfd6f	-0.009642943
10	0xbd8f3a53	-0.06993546
11	0x3cd1ebb9	0.025625097
12	0xbe8becf5	-0.2732922
13	0x3e94da5d	0.29072848
14	0x3b4c2599	0.003115034
15	0xbdbd401a	-0.09240742

Conv_BN_ReLU1.1.running_var f4 [16]
0	0x3c074fad	0.008258742
1	0x3b294396	0.0025827638
2	0x3bf7160c	0.00754047
3	0x3c4bab4b	0.012430976
4	0x3bb09a3f	0.0053894813
5	0x3bfa2a1b	0.007634414
6	0x3b122301	0.0022298696
7	0x3b8fd4c8	0.004389379
8	0x3c2a24bc	0.010384735
9	0x3b2cff42	0.0026397263
10	0x3b9b20df	0.004734143
11	0x3bc6ca5c	0.0060666036
12	0x3bb1d442	0.0054269144
13	0x3c9fee49	0.019522803
14	0x3be679c2	0.0070335576
15	0x3baee9f8	0.00533795

Conv_BN_ReLU1.3.weight f4 [16, 16, 3, 3]
0	0x3d48e223	0.049043786
1	0x3d41ded5	0.04733165
2	0x3d6bd956	0.057580315
3	0x3dcb0961	0.09913898
4	0x3dd403fb	0.10352322
5	0x3e355f12	0.17712048
6	0x3e3af4ec	0.18257493
7	0x3ddece19	0.10879154
8	0x3e535052	0.20636109
9	0xbd2dd8da	-0.042443134
10	0xbc3fdb03	-0.011709931
11	0x3da6f808	0.08152777
12	0xbbdf3681	-0.0068119173
13	0xbc98d12d	-0.01865443
14	0x3dccd0aa	0.10000737
15	0xbd74a133	-0.059724044
16	0xbd0f105f	-0.034927722
17	0x3dc43c2e	0.09581791
18	0x3d632597	0.05545577
19	0xbd9d45f2	-0.07679357
20	0xbb9fb846	-0.004874262
21	0xbbb789a6	-0.005601126
22	0x3d7844c3	0.06061245
23	0x3c204fcd	0.009784651
24	0x3d54aa86	0.051920436
25	0x3d0af724	0.033927098
26	0xbda8c137	-0.08239978
27	0x3d5057f7	0.05086514
28	0xbc5be92d	-0.013422293
29	0x3dc20997	0.09474485
30	0xbd5e013f	-0.054200407
31	0x3d6e9cca	0.058254994
32	0xbd4e1d8f	-0.050321158
33	0xbd91aa4a	-0.07112558
34	0xbd826d27	-0.063684754
35	0xbc31360a	-0.010816107
36	0xbd7f80a5	-0.062378544
37	0x3d8a5bd1	0.06755794
38	0x3d1c5167	0.03816357
39	0x3deb2057	0.11480778
40	0x3d7a91e9	0.061174307
41	0x3df76cd6	0.12081306
42	0x3ccd8f25	0.02509267
43	0xbd677cad	-0.056515384
44	0xbd97f28f	-0.07419311
45	0xbd6be953	-0.057595562
46	0x3d242727	0.0400764
47	0xbdb2efa2	-0.087371126
48	0x3b0a2a08	0.0021082181
49	0xbd891de7	-0.066951565
50	0xbd05d6d3	-0.032675575
51	0xbd90620f	-0.07049953
52	0x3d52a813	0.05142982
53	0xbc8da9f2	-0.01729295
54	0x3e039247	0.12848769
55	0x3e48f07e	0.1962299
56	0x3db5d229	0.088779755
57	0x3cc2e4c3	0.023790723
58	0x3dbff366	0.093725964
59	0x3e292683	0.16518597
60	0xba801782	-0.0009772631
61	0xbd2a336d	-0.04155295
62	0x3c068b6f	0.0082119545
63	0x3d8cfe76	0.06884472
64	0x3dbaa760	0.091139555
65	0xbc0bbed8	-0.008529387
66	0x3c34cc6d	0.011035067
67	0xbc8aa7c7	-0.016925706
68	0xbcbf05c4	-0.023318179
69	0xbdbdc8f3	-0.09266844
70	0x3bbee821	0.0058260118
71	0x3d61fc05	0.055171985
72	0x3d40a188	0.04702905
73	0xbd153dfc	-0.036436066
74	0x3dab8cd4	0.0837647
75	0x3de130c1	0.10995627
76	0x3d1143f3	0.035465192
77	0x3dbc838c	0.09204778
78	0xbaae6d2c	-0.0013307682
79	0x3cd52746	0.026019704
80	0x3e04efff	0.12982176
81	0xbc8534f0	-0.016260594
82	0xbd772c0c	-0.06034474
83	0xbd2ab17a	-0.04167316
84	0xbcefc3cf	-0.029268174
85	0xbd3c15d2	-0.045919247
86	0xbb26ecec	-0.0025470806
87	0x3d0a478a	0.03375963
88	0xbd3d6006	-0.046234153
89	0x3cac439b	0.02102833
90	0x3cdc4924	0.026890345
91	0x3c9ee013	0.019393956
92	0x3d2968ac	0.04135959
93	0x3c15c90a	0.00914217
94	0xbd372561	-0.04471338
95	0xbd060d9d	-0.032727826
96	0x3d849a2b	0.06474718
97	0x39bce297	0.00036026977
98	0xbd15ef08	-0.03660491
99	0x3c05d7e5	0.008169149
100	0xbd9cdac5	-0.076589145
101	0x3c96d621	0.018412651
102	0x3c8bcd8f	0.017065791
103	0xbcd5df50	-0.02610746
104	0x3d3de740	0.046363115
105	0xbd83346e	-0.064064845
106	0x3ce9fe45	0.028563628
107	0xbb8cdbfb	-0.0042986847
108	0xbc4eaf25	-0.012615
109	0x3d619baa	0.055080093
110	0x3de1e791	0.11030496
111	0xbd21b24b	-0.039476674
112	0x3b4c2916	0.0031152419
113	0x3d8085a7	0.06275492
114	0x3d0b5186	0.034013294
115	0x3d801f74	0.06255999
116	0xbd97293d	-0.073809125
117	0xbdac4405	-0.08411411
118	0xbc569acc	-0.01309843
119	0x3dab7179	0.083712526
120	0x3d61cd5f	0.055127498
121	0x3d83a686	0.06428246
122	0x3bfd2d32	0.007726335
123	0xbdaa6c01	-0.08321381
124	0x3be2c421	0.006920353
125	0x3d0c9f38	0.03433153
126	0xbdb455ec	-0.08805451
127	0x3d0165c7	0.031591203
128	0x3d9356d1	0.07194293
129	0xbc793c7f	-0.015212177
130	0xbd0189e5	-0.031625647
131	0x3de8347f	0.11338138
132	0xbd0b5fa1	-0.034026746
133	0xbd059f03	-0.03262235
134	0x3d736372	0.05942101
135	0xbdbc7bfc	-0.09203336
136	0xbbaf53d1	-0.005350568
137	0x3d45f81c	0.04833232
138	0x3d1dc05a	0.03851352
139	0x3c1c766a	0.0095497165
140	0x3d0a9f09	0.033843074
141	0x3da351a7	0.07974558
142	0xbc8875a2	-0.016657654
143	0xbdd9fb3c	-0.10643622
144	0x3d9e5640	0.07731295
145	0xbd58e189	-0.052949462
146	0x3cea01dc	0.02856534
147	0x3d983d4b	0.07433566
148	0x3dabd807	0.08390813
149	0x3d8eeaf2	0.06978406
150	0xbcd2d445	-0.025735984
151	0xb98aa72a	-0.00026445958
152	0xbcf92f4d	-0.030418063
153	0x3ce6a174	0.028153159
154	0xbc185cd8	-0.009299479
155	0xbd9e244d	-0.077217676
156	0xbd48c7c7	-0.049018648
157	0xbdac39db	-0.084094726
158	0xbe0ce9e0	-0.13761091
159	0x3d7f9f80	0.06240797
160	0xbe2477d9	-0.16061343
161	0xbdccd0c1	-0.10000754
162	0xbd1b543a	-0.03792212
163	0x3d9865c5	0.07441286
164	0x3d57370f	0.052542742
165	0x3da38024	0.07983425
166	0xbca65735	-0.020305255
167	0x3d89bf1c	0.06725904
168	0x3db84701	0.08997918
169	0x3b61435f	0.0034372432
170	0xbd39026b	-0.04516832
171	0x3d9d9c7b	0.07695862
172	0x3c2e0014	0.010620136
173	0x3d3b092b	0.04566304
174	0xbcadd635	-0.021220306
175	0x3d3219e4	0.043481722
176	0x3d718576	0.05896517
177	0x3d2fe65d	0.0429443
178	0xbd5daaeb	-0.05411808
179	0x3d87647f	0.06610965
180	0xbd59cd22	-0.053174146
181	0x3d9dc953	0.07704415
182	0x3d459934	0.04824181
183	0xbc9c578c	-0.019084714
184	0xbc5a8794	-0.013337988
185	0xbdc06013	-0.09393325
186	0x3d6b6cba	0.057476737
187	0x3a5e08a1	0.0008469914
188	0x3c979938	0.018505678
189	0xbdad1ecd	-0.084531404
190	0xbda86762	-0.08222844
191	0xbda3a920	-0.079912424
192	0x3c94146b	0.018076142
193	0xbd9c7a89	-0.07640559
194	0xbdc899ce	-0.09794961
195	0xbe10f973	-0.14157657
196	0xbc8ed010	-0.017433196
197	0x3d620132	0.05517692
198	0xbd111fda	-0.035430767
199	0xbd8d81b0	-0.069095016
200	0xbd1e4b5f	-0.0386461
201	0xbdd219dd	-0.10258839
202	0x3d5be90f	0.05368906
203	0x3d16d5ba	0.03682492
204	0xbd9dab25	-0.07698659
205	0x3cbefbd7	0.023313446
206	0x3c2744bd	0.01020926
207	0xbdbd95cc	-0.09257087
208	0xbdbeaf22	-0.09310748
209	0x3cb717d7	0.022350235
210	0xbdc040d8	-0.09387368
211	0xbdf5ab5d	-0.119955756
212	0xbdaa8107	-0.08325391
213	0xbdf39c0e	-0.118949994
214	0xbe3d12c7	-0.18464194
215	0x3b842c2d	0.0040335865
216	0xbdcf0792	-0.10108866
217	0x3ca8decc	0.02061405
218	0x3cb29f68	0.021804526
219	0xbdb26d23	-0.087122224
220	0xbd963c67	-0.073357396
221	0x3b172559	0.0023063032
222	0xbc39b6f8	-0.011335127
223	0xbd2c8d80	-0.042127132
224	0xbd052c8e	-0.032513194
225	0xbde5467d	-0.11195085
226	0x3c7335de	0.014844386
227	0xbc94f62b	-0.018183788
228	0xbd155217	-0.03645524
229	0xbc022e6a	-0.007945636
230	0x3b0fd9df	0.002194993
231	0x3cceb1eb	0.025231322
232	0xbb33eea4	-0.0027455473
233	0xbce08e5e	-0.027411636
234	0xbd3e2a0d	-0.04642682
235	0x3d76e451	0.060276333
236	0xbd44e2f4	-0.048068002
237	0x3d2decfd	0.042462338
238	0x3d8ff465	0.070290364
239	0xbd38e19c	-0.045137033
240	0xbd2a1fce	-0.041534238
241	0x3c6ad494	0.014332909
242	0x3d704a77	0.058664765
243	0x3d5d316b	0.054002207
244	0x3c00045e	0.007813541
245	0x3d26e718	0.040747732
246	0xbda5fc9f	-0.08104824
247	0xbd5c5e7e	-0.053801052
248	0xbc918e0c	-0.017767929
249	0x3c440767	0.0119646555
250	0xbcac52a4	-0.0210355
251	0xbd513821	-0.05107892
252	0x3d93e732	0.072218314
253	0x3bed29ad	0.007237634
254	0x3d068c42	0.032848604
255	0xbcf2f8b7	-0.029659612

Conv_BN_ReLU1.3.bias f4 [16]
0	0x3d8e042f	0.06934392
1	0xbd432f27	-0.04765239
2	0xbcf1f98c	-0.029537939
3	0xbd2559e5	-0.040368933
4	0xbdb466bc	-0.088086575
5	0xbb9d0bb7	-0.0047926563
6	0xbd2e698a	-0.04258112
7	0x3d753f4e	0.059874825
8	0xbd36466d	-0.044500757
9	0xba44715a	-0.00074936973
10	0x3d2a03de	0.041507594
11	0x3c7abf5a	0.015304411
12	0x3b8db239	0.0043242243
13	0xbbcaddb5	-0.0061909803
14	0xbd087b73	-0.033320855
15	0xbceb3f52	-0.028716717

Conv_BN_ReLU1.4.weight f4 [16]
0	0x3f79bf40	0.9755745
1	0x3f816f34	1.0112062
2	0x3f79a432	0.9751617
3	0x3f82cde5	1.0219084
4	0x3f718599	0.9434448
5	0x3f858418	1.0430937
6	0x3f841697	1.0319394
7	0x3f71049e	0.9414767
8	0x3f69ab8f	0.912774
9	0x3f76317b	0.9616925
10	0x3f5e53b1	0.8684645
11	0x3f82737a	1.0191491
12	0x3f70b399	0.94024044
13	0x3f785da4	0.97017884
14	0x3fa0c907	1.2561349
15	0x3f83952f	1.0279902

Conv_BN_ReLU1.4.bias f4 [16]
0	0xbd9092cd	-0.0705925
1	0x3cb1e103	0.02171374
2	0x3b5ff4b8	0.0034172963
3	0xbce85659	-0.028361486
4	0xbc9cc95c	-0.019138984
5	0xbc91618e	-0.017746713
6	0xb9fb1af5	-0.00047894535
7	0x3c0d43e9	0.008622148
8	0xbdf3fe58	-0.119137466
9	0xbdd55036	-0.1041569
10	0xbe149bca	-0.14512554
11	0xba5bf455	-0.00083905953
12	0xbdda8d12	-0.10671438
13	0xbd45cff6	-0.04829403
14	0x39696a74	0.00022260268
15	0x3cd0ed2a	0.025503714

Conv_BN_ReLU1.4.running_mean f4 [16]
0	0x3f72878f	0.94738096
1	0xbf26aa7c	-0.6510389
2	0xbf01495a	-0.5050255
3	0xbdc017fd	-0.093795754
4	0xbfb1f4f7	-1.3902882
5	0xbec75f67	-0.38939974
6	0xbf6dff15	-0.9296735
7	0x3eb154ee	0.3463511
8	0xbe3f57e9	-0.18685879
9	0xbf306bff	-0.6891479
10	0x3f2d4392	0.6768123
11	0xbf4e457e	-0.80574787
12	0xbd66732c	-0.05626218
13	0xbee528d6	-0.44757718
14	0xbed17c84	-0.4091531
15	0xbebe50a8	-0.3717091

Conv_BN_ReLU1.4.running_var f4 [16]
0	0x3f77061c	0.964937
1	0x3f5b2bb4	0.8561356
2	0x3ee5e21b	0.44899067
3	0x3f1e84b4	0.6192124
4	0x3f209049	0.6272016
5	0x3eca5d4b	0.39524302
6	0x3f520b2a	0.82048285
7	0x3f1dec33	0.61688536
8	0x3eeb9a77	0.46016285
9	0x3f2b9f68	0.6704011
10	0x3f2a5231	0.66531664
11	0x3f57deaa	0.84324133
12	0x3e86fa44	0.26362813
13	0x3f66b79f	0.90123934
14	0x3f1e8836	0.6192659
15	0x3e9f47d4	0.31109488

Conv_BN_ReLU2.0.weight f4 [32, 16, 3, 3]
0	0xbdddff01	-0.10839654
1	0x3d6a98cd	0.05727463
2	0xbc8e2297	-0.017350478
3	0x3cc65dd4	0.024214663
4	0x3db8b140	0.09018183
5	0x3d063659	0.032766674
6	0x3d504bc8	0.05085352
7	0x3da0b17c	0.078463525
8	0xbd8aa85d	-0.06770394
9	0xbda9b8b3	-0.08287182
10	0xbd8ea7b5	-0.06965581
11	0xbdc2235b	-0.094794
12	0x3dae4068	0.08508378
13	0x3d8a1039	0.067413755
14	0xbd14f81e	-0.036369435
15	0xbd1549c9	-0.03644732
16	0x3d970fd6	0.07376067
17	0xbadfc40c	-0.0017071976
18	0x3d829e6b	0.06377872
19	0x3c3d8df5	0.01156949
20	0x3b2ec551	0.0026667903
21	0x3d14307a	0.036179043
22	0x3c2d4ecd	0.01057787
23	0xbcace58b	-0.021105548
24	0x3da6c9a5	0.081439294
25	0xbd69be52	-0.05706627
26	0xbdaacf34	-0.08340302
27	0x3d90f69f	0.07078289
28	0x3c38cb3e	0.011278925
29	0xbd853903	-0.06505015
30	0xbd3d1d1b	-0.046170335
31	0x3c8cb858	0.017177746
32	0x3a0300d3	0.0004997376
33	0xbda8e057	-0.082459144
34	0x3d8430f6	0.06454651
35	0x3caa9d5c	0.020826988
36	0x3d9d68b3	0.076859854
37	0xbc60bf79	-0.013717526
38	0xbdb221de	-0.08697866
39	0xbd8ed77c	-0.06974694
40	0x3c1f819a	0.009735489
41	0xbd799b11	-0.0609389
42	0xbcb3940e	-0.021921184
43	0x3d9e2e55	0.07723681
44	0xbd22a2dd	-0.0397061
45	0x3dd91a95	0.10600773
46	0xbd56b8ce	-0.052422337
47	0xbc7452c4	-0.014912311
48	0xbd8107ad	-0.06300292
49	0xbd991ea7	-0.074765496
50	0xbdc3096f	-0.09523284
51	0xbdf96938	-0.12178272
52	0xbdd88064	-0.105713636
53	0xbde8ab1f	-0.11360764
54	0x3e165216	0.14679751
55	0xbcb2354f	-0.021753935
56	0x3c6f9d4b	0.014624904
57	0x3d190b15	0.037364084
58	0xbc994896	-0.01871137
59	0x3d6b95de	0.05751597
60	0x3c4ed224	0.012623344
61	0xbcc57406	-0.024103176
62	0x3cb5568e	0.022135999
63	0x3d01620d	0.03158765
64	0xbd8bf961	-0.068346746
65	0x3d4011d2	0.046891995
66	0xbd566dbc	-0.052350745
67	0xbd1c24a8	-0.038120896
68	0x3bb1be35	0.005424286
69	0xbd87c008	-0.06628424
70	0x3d31c59b	0.043401342
71	0xbcd4e14d	-0.025986338
72	0x3db18fa6	0.08669977
73	0xbd788f70	-0.060683668
74	0xbd533b75	-0.051570375
75	0xbd40a72e	-0.047034435
76	0xbdb75ee8	-0.08953649
77	0x3ca69ef8	0.020339474
78	0xbd9740d1	-0.073854096
79	0x3c4d0add	0.012514797
80	0xbdf40033	-0.119141005
81	0xbd2d07e8	-0.042243868
82	0x3db27b52	0.08714928
83	0x3ddfea1a	0.10933323
84	0xbcf51d95	-0.029921332
85	0x3d824e50	0.06362593
86	0x3c366957	0.011133513
87	0x3d084b96	0.03327521
88	0xbd5b66f1	-0.05356497
89	0xbc991f2d	-0.018691624
90	0xbcc6f6aa	-0.02428754
91	0xbd43f093	-0.04783685
92	0x3c51c8f3	0.012804258
93	0xbbe85977	-0.007090743
94	0xbd589fa5	-0.052886624
95	0xbc90618c	-0.017624639
96	0x3dacad82	0.084315315
97	0xbda9c669	-0.08289797
98	0xbd4484ef	-0.047978338
99	0x3da3294d	0.07966862
100	0xbbb289cd	-0.005448556
101	0x3cf1946d	0.02948972
102	0x3df9f8ee	0.12205683
103	0xbca34918	-0.019932315
104	0x3d93856f	0.07203185
105	0xbd19905b	-0.037491184
106	0xbc8f76ba	-0.017512668
107	0xbc2a5478	-0.0103961155
108	0x3dc9a0fd	0.09845159
109	0xbd9722fe	-0.07379721
110	0xbc289986	-0.010290509
111	0xbd62d6b3	-0.055380534
112	0xba360755	-0.00069438416
113	0x3dc0203e	0.0938115
114	0xbd02ffce	-0.031982236
115	0xbcf12d06	-0.029440414
116	0xbc35b5e4	-0.011090729
117	0xbd991702	-0.074750915
118	0xbe575f84	-0.2103253
119	0xbcaeb9ef	-0.021328894
120	0xbdeac3a4	-0.11463097
121	0xbe4aed52	-0.19817093
122	0xbda79716	-0.08183114
123	0x3d504433	0.05084629
124	0xbe36c006	-0.17846689
125	0xbe11d9cb	-0.14243238
126	0xbe00b30b	-0.125683
127	0xbcdbe1c4	-0.026841052
128	0x3d79dcc9	0.061001573
129	0x3dbe1597	0.09281462
130	0xbc085cbf	-0.008322894
131	0x3ddbb10c	0.107271284
132	0xbb589c91	-0.0033052305
133	0x3d000e08	0.03126338
134	0xbe13fb4c	-0.14451331
135	0x3c6e6c63	0.014552209
136	0x3d262c8d	0.04056983
137	0xbda5d6e7	-0.0809763
138	0x3d1652e6	0.03670015
139	0xbbbff453	-0.005857983
140	0xbded5991	-0.11589349
141	0xbd271f1a	-0.040801145
142	0x3c9accc8	0.018896475
143	0xbad71531	-0.0016409514
144	0xbd512870	-0.051063955
145	0x3de80a54	0.11330095
146	0x3d12c27c	0.035830006
147	0xbb969670	-0.0045955703
148	0xbd0a778c	-0.033805415
149	0x3d377826	0.044792317
150	0x3ccc8b26	0.024968695
151	0x3cd0a0ef	0.025467364
152	0xbd1fbfa2	-0.039001115
153	0x3dae7372	0.08518113
154	0x3e71ac98	0.23600996
155	0xbcc5daa3	-0.024152106
156	0x3cdd6825	0.027027199
157	0x3da02310	0.07819188
158	0xbdd6eaef	-0.10494029
159	0x3d0e0e9f	0.034681913
160	0x3dad0c6f	0.08449637
161	0xbe00bee2	-0.12572816
162	0x3d3a2d14	0.045453146
163	0xbc69a7ef	-0.01426123
164	0xbda92aaf	-0.082600944
165	0x3c78ba01	0.015181066
166	0x3d503dd4	0.050840214
167	0xbd41573a	-0.047202326
168	0x3df03f15	0.11730782
169	0x3c34bed9	0.01103183
170	0xbd40b00d	-0.047042895
171	0xbbf083fd	-0.007339953
172	0x3d17d61f	0.037069436
173	0x3c14ce56	0.009082397
174	0x3b545a4c	0.0032402454
175	0xbd09521c	-0.03352557
176	0xbc27ed22	-0.010249408
177	0x3d885fc8	0.06658894
178	0x3d135911	0.035973612
179	0xbd70e591	-0.05881268
180	0x3c915b29	0.017743664
181	0xbc85eb33	-0.016347503
182	0x3df408f0	0.11915767
183	0x3cb5dc40	0.02219975
184	0x3d483456	0.048878036
185	0xbc800280	-0.015626192
186	0x3d655666	0.0559906
187	0x3dca2742	0.09870769
188	0x3bfcd53d	0.0077158497
189	0xb994653c	-0.00028304185
190	0xbddfddc6	-0.10930972
191	0xbdf69768	-0.12040597
192	0x3dd26c4b	0.102745615
193	0xbdfc9ada	-0.12334223
194	0xbddfb2af	-0.10922753
195	0xbd41ecc7	-0.04734495
196	0xbcb8bb2f	-0.022550194
197	0xbd648ab4	-0.05579634
198	0x3c88d105	0.01670123
199	0xbd24a92d	-0.0402004
200	0xbcbc0231	-0.022950264
201	0xbd25b33a	-0.040454127
202	0xbda73d2d	-0.08165965
203	0x3b9a9dc1	0.0047185128
204	0xbd5fbbda	-0.05462251
205	0x3cfe9547	0.03107704
206	0x3d8402c4	0.0644584
207	0xbdc0797a	-0.0939817
208	0xbc8c0a20	-0.017094672
209	0xbc2f63ba	-0.010704929
210	0xbd61557a	-0.055013157
211	0x3cf16b36	0.029470067
212	0xbe04aa01	-0.12955476
213	0x3dc11289	0.094273634
214	0x3d690b11	0.05689532
215	0xbe22b2eb	-0.15888564
216	0x3da71c87	0.08159738
217	0xbdd68442	-0.10474445
218	0x3cee8d95	0.029120246
219	0x3cf5f604	0.030024536
220	0x3d7e3ff7	0.06207272
221	0x3c873f2d	0.016509617
222	0x3caa75b6	0.020808082
223	0xbc3b1dc1	-0.011420668
224	0x3de18c8f	0.110131375
225	0x3cb1378b	0.02163293
226	0x3e0ed4b7	0.13948332
227	0x3decce65	0.11562804
228	0x3db81f16	0.08990304
229	0x3d30ed2c	0.043194935
230	0x3c913e91	0.01773003
231	0x3d40727b	0.046984177
232	0xbcb46bfd	-0.02202415
233	0x3c89a4b5	0.016802171
234	0xbd716cfc	-0.058941826
235	0x3d7d9f32	0.0619194
236	0xbd71d63b	-0.059042197
237	0x3dce901f	0.10086083
238	0x3d76fbaa	0.0602986
239	0xbdbd961c	-0.09257147
240	0x3d4cd63f	0.05000901
241	0xbd003db1	-0.031308834
242	0x3941fc73	0.00018499959
243	0xbe1de9d6	-0.15421233
244	0xbab3d0b3	-0.0013718813
245	0x3df2bc8f	0.11852371
246	0x3aecb858	0.001806031
247	0xbd82e374	-0.063910395
248	0x3d2ffcb6	0.042965613
249	0xbc092ee6	-0.008372998
250	0xbc7e4cf4	-0.015521277
251	0x3cc55fb1	0.02409348
252	0x3bca5ec3	0.0061758473
253	0x3c94bad9	0.018155502
254	0xbce7b29c	-0.02828341
255	0xb9c8a7b9	-0.00038271936

Conv_BN_ReLU2.0.bias f4 [32]
0	0xbbf1c638	-0.007378366
1	0x3b6d9ce2	0.003625684
2	0x3d93b088	0.07211405
3	0x3d6391c2	0.055558927
4	0xbd02f7f4	-0.031974748
5	0x3d03b2b3	0.032152843
6	0x3d99ca90	0.07509339
7	0x3c8113af	0.015756456
8	0xbb34e610	-0.0027602948
9	0x3d506f35	0.050887305
10	0x3d5dbf75	0.054137666
11	0x3cd5389e	0.026027974
12	0xbd6c651d	-0.057713617
13	0x3d351e62	0.04421843
14	0xbdae4b6e	-0.08510481
15	0x3d30fc0a	0.043209113
16	0xbcc68529	-0.024233418
17	0xbbffe247	-0.007808957
18	0xbd95a598	-0.07306975
19	0xbb20eb04	-0.0024554143
20	0x3ce4ef7c	0.027946226
21	0xbba6eb4f	-0.005093969
22	0xbd3a90c4	-0.045548216
23	0xbbc487d4	-0.0059976373
24	0xbc97f259	-0.018548178
25	0x3d8c6310	0.06854832
26	0x3b6b821e	0.003593571
27	0x3cc515c0	0.024058223
28	0xbc241c09	-0.01001645
29	0xbcea3c74	-0.02859328
30	0x3d91b0c5	0.07113794
31	0x3da6eea9	0.081509896

Conv_BN_ReLU2.1.weight f4 [32]
0	0x3f7b05ff	0.98056024
1	0x3f87dd37	1.0614384
2	0x3f94b47c	1.161758
3	0x3f7beea6	0.98411024
4	0x3f84f3cd	1.0386902
5	0x3f83844d	1.027475
6	0x3f764862	0.962042
7	0x3f792dbb	0.97335404
8	0x3f7ac248	0.979527
9	0x3f858bdf	1.043331
10	0x3f75411e	0.95802486
11	0x3f839195	1.0278803
12	0x3f842a6f	1.032545
13	0x3f7ad2e1	0.97978026
14	0x3f8a1b1f	1.0789527
15	0x3f7a3a48	0.9774518
16	0x3f78319c	0.969507
17	0x3f7d10b6	0.98853624
18	0x3f8cddbc	1.1005168
19	0x3f80c4e8	1.0060091
20	0x3f74cd3f	0.9562568
21	0x3f6f4162	0.9345914
22	0x3f789e35	0.97116405
23	0x3f72c62d	0.9483364
24	0x3f8c6839	1.0969306
25	0x3f7c5872	0.98572457
26	0x3f78c95e	0.9718226
27	0x3f82dff0	1.022459
28	0x3f7fba63	0.9989378
29	0x3f730d8a	0.94942534
30	0x3f91d182	1.1392062
31	0x3f6cfa6e	0.92569625

Conv_BN_ReLU2.1.bias f4 [32]
0	0xbd745594	-0.059651926
1	0xbcea9ecb	-0.028640172
2	0xbc808569	-0.015688615
3	0xbcfb97a5	-0.030711958
4	0x3bbd3d40	0.005775124
5	0xbd71fd18	-0.05907926
6	0xbe01490d	-0.12625523
7	0xbd9585a6	-0.07300882
8	0xbd4ca1e5	-0.049959082
9	0x3ced105a	0.028938461
10	0xbdc5b40e	-0.09653483
11	0xbd87d6ad	-0.06632743
12	0x3d89f766	0.06736641
13	0xbd97e7a9	-0.074172325
14	0xbe1650a1	-0.14679195
15	0xbd8e56a2	-0.06950118
16	0xbd99d027	-0.07510405
17	0xbda0e6c5	-0.07856516
18	0xbd8e7afe	-0.06957053
19	0xbd1a0b5b	-0.037608486
20	0xbdfbb66d	-0.12290654
21	0xbd9fef1a	-0.07809277
22	0xbdb9ca97	-0.09071844
23	0xbdec99ff	-0.1155281
24	0xbd6453f1	-0.055744115
25	0xbddc5fb0	-0.107604384
26	0xbe0ccd14	-0.13750106
27	0xbccd3fb3	-0.025054788
28	0xbdfd727b	-0.12375351
29	0xbdf2759b	-0.11838838
30	0x3dafcce2	0.08584
31	0xbdd0eb9f	-0.10201191

Conv_BN_ReLU2.1.running_mean f4 [32]
0	0xbf518299	-0.818399
1	0x3e8a4531	0.27005914
2	0xbed86421	-0.42263892
3	0xbed45fa6	-0.41479224
4	0xbe195081	-0.14972116
5	0xbf02094e	-0.5079545
6	0xbfb40e65	-1.4066893
7	0xbf779404	-0.9671023
8	0x3e5a69a8	0.21329367
9	0xbe05dbb2	-0.13072088
10	0x3dc5c45e	0.09656595
11	0xbeb4e810	-0.353333
12	0xbe2176bc	-0.1576795
13	0xbf8607f9	-1.0471183
14	0xbf82d87b	-1.0222315
15	0xbdf9eb3f	-0.12203073
16	0xbfafc5a0	-1.3732185
17	0xbfb3d485	-1.4049231
18	0xbf6b77ba	-0.91979563
19	0xbf593b43	-0.8485605
20	0xbf61e36e	-0.88237655
21	0x3f267bd9	0.65032727
22	0xbefa9de9	-0.489486
23	0xbfa2e5e0	-1.2726402
24	0xbf0cbcb5	-0.54975444
25	0xbf15a51d	-0.5845507
26	0xbf007893	-0.5018398
27	0xbf9deb4f	-1.2337435
28	0xbf07c320	-0.5303211
29	0xbf1e3b77	-0.61809486
30	0xbece8129	-0.40332916
31	0x3e80842b	0.25100836

Conv_BN_ReLU2.1.running_var f4 [32]
0	0x3f086685	0.5328143
1	0x3ed73b58	0.42037463
2	0x3e982748	0.2971747
3	0x3eae6b5b	0.3406628
4	0x3ed30711	0.4121633
5	0x3eccee38	0.40025496
6	0x3f3b7982	0.7323228
7	0x3efebb14	0.49752104
8	0x3eee5e44	0.46556294
9	0x3ea9e966	0.3318588
10	0x3ea9a627	0.33134577
11	0x3ecda09e	0.40161604
12	0x3ebadfe7	0.3649895
13	0x3f292f26	0.6608757
14	0x3ee4ab81	0.44662097
15	0x3f0319bb	0.51211137
16	0x3f31f6b4	0.69517064
17	0x3f4fd2c1	0.8118096
18	0x3f5aa45d	0.8540705
19	0x3f26aa38	0.65103483
20	0x3ec43df7	0.38328525
21	0x3efa454f	0.48881003
22	0x3f4a0a99	0.7892242
23	0x3f114ef7	0.56761116
24	0x3edf8220	0.43653965
25	0x3f54eeb9	0.8317676
26	0x3f1e65a6	0.61873853
27	0x3f325cca	0.69672835
28	0x3f4315ae	0.76204956
29	0x3f083c6d	0.532172
30	0x3e8b3be1	0.2719412
31	0x3f0b616b	0.54445523

Conv_BN_ReLU2.3.weight f4 [32, 32, 3, 3]
0	0x3b58fe25	0.0033110466
1	0xbd4d61d0	-0.05014211
2	0xbce71741	-0.02820933
3	0xbd039271	-0.03212208
4	0xbd69928b	-0.05702452
5	0xbd9bc656	-0.07606189
6	0xbc341ee8	-0.010993697
7	0xbd7ab136	-0.061204158
8	0xbc792a71	-0.015207873
9	0xbdcf278a	-0.10114963
10	0xbd3adaa0	-0.045618653
11	0x3dcc1ee8	0.099668324
12	0xbd4d46b0	-0.05011624
13	0xbd5a36d1	-0.053274933
14	0x3c965be7	0.01835437
15	0xbba38599	-0.0049902913
16	0x3cc5e20a	0.024155635
17	0x3c795c3a	0.015219742
18	0xbbb4fb71	-0.005523138
19	0xbd4f35bc	-0.050588354
20	0xbe10622c	-0.1409995
21	0xbd8110c2	-0.063020244
22	0x3c81550c	0.015787624
23	0xbd296d62	-0.04136408
24	0xbd1f4ef3	-0.03889365
25	0x3cec18e0	0.028820455
26	0xbd5fa838	-0.054603785
27	0x3d8b69a8	0.06807262
28	0xbca93c6f	-0.0206587
29	0x3ca6a5d9	0.020342754
30	0x3c8256e6	0.015910577
31	0x3c122be1	0.008921594
32	0x3d8869f0	0.06660831
33	0xbd10597f	-0.0352416
34	0x3cbec111	0.02328542
35	0x3dace6e6	0.08442478
36	0xbaa4b98b	-0.0012567503
37	0xbde831e1	-0.11337639
38	0xbca01bfd	-0.019544596
39	0xbd627d75	-0.055295426
40	0xbc57dfff	-0.013175963
41	0x3c5ff972	0.013670312
42	0xbd193617	-0.0374051
43	0xbc9608df	-0.018314777
44	0xbd10c140	-0.035340548
45	0xbd854507	-0.065073065
46	0x3d27ec8b	0.04099707
47	0xbbe2c47e	-0.0069203964
48	0xbcab7547	-0.020929946
49	0xbb7c7334	-0.0038520815
50	0xbb6664d7	-0.003515532
51	0xbcfa6aa7	-0.030568434
52	0xbcb173c7	-0.021661652
53	0xbdb6ff33	-0.08935394
54	0xbd4bf775	-0.04979654
55	0xbdc40bd9	-0.09572572
56	0xbd743eb0	-0.059630096
57	0x3d5079a4	0.050897256
58	0xbdd0714a	-0.10177858
59	0xbdbba564	-0.09162405
60	0xbdc520c9	-0.09625394
61	0xbc937775	-0.018001297
62	0xbcef6fd5	-0.02922813
63	0xbb8b135b	-0.0042442507
64	0xbcc71c95	-0.024305621
65	0x3c44b2f3	0.012005555
66	0xbc7c8dad	-0.0154146375
67	0xbcd76047	-0.026291026
68	0xbdee3e6e	-0.11633001
69	0xbd76b5b4	-0.06023188
70	0xbbf64f8f	-0.0075168083
71	0xbda70e4f	-0.08157026
72	0x3da5fb8d	0.0810462
73	0x3cd2cb7e	0.025731798
74	0xbd685a9f	-0.056727048
75	0x3d95f529	0.07322151
76	0x3d4d3709	0.050101314
77	0x3d8123dc	0.06305668
78	0x3b83c7b4	0.004021609
79	0xbb152975	-0.0022760306
80	0x3d8b286a	0.06794818
81	0xbcbe689e	-0.023243245
82	0x3d925ed8	0.07146996
83	0x3d6884d0	0.056767285
84	0x3c50ee89	0.012752184
85	0x3d26eaba	0.040751196
86	0x3baf83ff	0.0053563113
87	0x3d206b65	0.03916492
88	0x3d68f530	0.056874454
89	0x3dc639d0	0.096789956
90	0xbd3954af	-0.045246776
91	0xbd803da3	-0.06261756
92	0xbd6250f9	-0.055253003
93	0x3b113988	0.0022159535
94	0xbce22343	-0.027604705
95	0xbd7e8038	-0.062133998
96	0x3d59e6e0	0.053198695
97	0xbd1ef14c	-0.038804337
98	0xbd8dab5e	-0.06917451
99	0x3e0746cf	0.13210605
100	0x3da8b5a9	0.08237774
101	0xbba6d06f	-0.005090765
102	0x3db0ab73	0.08626451
103	0x3da5416d	0.080691196
104	0x3d5ce5ec	0.053930208
105	0xbbb65f50	-0.0055655614
106	0x3d4c5f1d	0.049895395
107	0x3dbb8490	0.09156144
108	0xbc5b2264	-0.013374899
109	0x3dc590b3	0.0964674
110	0xbd052e43	-0.03251482
111	0x3d53872d	0.051642586
112	0x3d4cd9a4	0.050012246
113	0x3d415faf	0.04721039
114	0x3d2d2f47	0.042281415
115	0x3c437fd9	0.011932337
116	0xbbf6249d	-0.007511689
117	0x3c97e81c	0.018543296
118	0xbc5a3228	-0.013317622
119	0x3d5abd3e	0.05340313
120	0xbd4cc04a	-0.04998807
121	0xbc5e4110	-0.013565317
122	0x3cf1faad	0.029538477
123	0x3cefdde5	0.029280612
124	0x3d7e7d28	0.062131077
125	0x3dc33c70	0.09533012
126	0xbe0831e4	-0.13300282
127	0xbca390fa	-0.019966591
128	0xbc801a83	-0.015637642
129	0xbd492a20	-0.04911244
130	0xbd89a135	-0.06720201
131	0xbcbfd097	-0.023414893
132	0x3ccbbf65	0.024871537
133	0xbd30bbe5	-0.04314794
134	0xbd9c5d85	-0.07635025
135	0xbcbc8c5c	-0.023016147
136	0x3d8d73da	0.069068626
137	0x3c9c6fff	0.019096373
138	0xbcb021fc	-0.02150058
139	0x3da9a286	0.08282952
140	0x3de40d1d	0.11135314
141	0x3d4b3601	0.04961205
142	0x3b137bf2	0.0022504297
143	0x3d89951c	0.067178935
144	0x3c7a9ca2	0.015296133
145	0x3cbb2b68	0.022847846
146	0xbc4aef98	-0.012386225
147	0xbd322c9e	-0.04349958
148	0xbc0a0093	-0.0084229885
149	0xbcb9e3bd	-0.022691602
150	0x3db6c6be	0.08924626
151	0x3cbc0386	0.022950899
152	0x3dd1613b	0.10223623
153	0x3c58890a	0.013216266
154	0xbc4e9ada	-0.012610162
155	0x3bd8bf9a	0.0066146376
156	0xb93b4a48	-0.00017861382
157	0x3d091019	0.033462618
158	0x3d6bc0ca	0.057556905
159	0x3ca19e91	0.01972893
160	0xba2a9938	-0.0006507817
161	0x3d75c772	0.06000466
162	0x3ced7a55	0.028988997
163	0x3ce647b2	0.028110359
164	0xbc8cbc71	-0.0171797
165	0x3da98fbb	0.082793675
166	0x3dce5903	0.100755714
167	0x3ddbe173	0.107363604
168	0x3d0e6f36	0.034774028
169	0x3c9cf759	0.019160913
170	0x3da95c9a	0.082696155
171	0x3d83e1c9	0.064395495
172	0xbc4fa88c	-0.012674462
173	0x3c2a81c6	0.010406917
174	0x3d7a2a41	0.061075453
175	0xbbd6aac6	-0.0065511195
176	0x3db77b96	0.08959119
177	0x3d7b3343	0.061328184
178	0x3d87f023	0.06637599
179	0x3c97067d	0.018435711
180	0xbb2cc4a7	-0.002636233
181	0xbd24afa5	-0.04020657
182	0xbd83639f	-0.064154856
183	0xbd353b64	-0.044246092
184	0xbcf68662	-0.030093376
185	0xbcf1c2d4	-0.029511847
186	0x3d2a3e9a	0.041563608
187	0xbda03f74	-0.07824603
188	0xbdac75fb	-0.084209405
189	0x3cfe5dfb	0.031050673
190	0xbd769100	-0.060196877
191	0x3cbe20ba	0.023208965
192	0xbc5bf61b	-0.013425375
193	0xbd84e1be	-0.064883694
194	0xbdf3eaac	-0.119099945
195	0x3c86d104	0.016457088
196	0x3d3c6c0b	0.046001475
197	0xbe02f59e	-0.12789008
198	0xbcc7bdbd	-0.024382466
199	0xbd427fa4	-0.04748501
200	0xbdc5fca3	-0.09667327
201	0x3d9457b0	0.072432876
202	0xbd93d516	-0.07218377
203	0xbd766b9a	-0.06016121
204	0x3e044fe2	0.12921098
205	0x3a6512e5	0.0008738472
206	0xbcfc40b8	-0.030792579
207	0xbd809938	-0.06279224
208	0xbc7df13f	-0.015499412
209	0x3d09c338	0.03363344
210	0xbd8f0efa	-0.069852784
211	0xbcf7c28d	-0.030244136
212	0xbd24287d	-0.040077675
213	0xbce31ea6	-0.027724575
214	0x3cae504b	0.021278521
215	0x3c6de96e	0.014520986
216	0x3db184cf	0.08667909
217	0x3d10e8cb	0.03537826
218	0x3c721111	0.014774577
219	0x3c63e46d	0.013909441
220	0xbba1dbb5	-0.004939521
221	0x3dd50533	0.10401382
222	0xbd34d4ab	-0.04414813
223	0x3d0293e3	0.031879317
224	0x3dcd5bcc	0.100272745
225	0x3cd84f34	0.026404954
226	0xbbd8ca7d	-0.0066159354
227	0x3d4a9994	0.04946287
228	0xbc258d7c	-0.010104533
229	0x3c6c0556	0.014405569
230	0x3c6a6aba	0.014307672
231	0xbd4aba90	-0.049494326
232	0x3dea68c8	0.11445767
233	0x3de16775	0.11006061
234	0xbd259c6a	-0.04043237
235	0x3d1d7903	0.038445484
236	0x3d942b77	0.07234853
237	0xbd99448a	-0.07483776
238	0xbdc9893d	-0.09840629
239	0xbd79d882	-0.060997494
240	0xbd0f36a9	-0.034964237
241	0xbd429812	-0.047508307
242	0xbcc64cea	-0.024206597
243	0xbd8b8d24	-0.0681403
244	0xbdf7961a	-0.120891765
245	0xbe103dbe	-0.14086053
246	0x3c6fa92b	0.014627735
247	0xbc8c7ba2	-0.017148796
248	0xbb9ab496	-0.0047212346
249	0x3d249b8a	0.040187396
250	0xbd2cd886	-0.04219868
251	0xbda2b132	-0.079439536
252	0xbd23c4bd	-0.039982546
253	0x3d1ee74e	0.038794808
254	0xbd00c373	-0.031436395
255	0x3e0790f4	0.13238889

Conv_BN_ReLU2.3.bias f4 [32]
0	0xbcdcdcd1	-0.026960762
1	0x3d365976	0.04451891
2	0x3d20321f	0.0391103
3	0x3d0c1167	0.034196284
4	0x3d0adb02	0.03390027
5	0xbd209212	-0.039201804
6	0xbd11a332	-0.035556026
7	0x3d7979a4	0.06090702
8	0x3cfc5b23	0.030805176
9	0xbc485ce6	-0.01222918
10	0xbcb8b0e1	-0.02254528
11	0x3d24fa51	0.040277783
12	0xbc8a93b9	-0.016916143
13	0x3bab3aac	0.0052255
14	0xbd0ecbb2	-0.034862228
15	0x3cfef42d	0.031122291
16	0xbb8170b0	-0.003950201
17	0x3c9ab09f	0.018883048
18	0x3d345834	0.04402943
19	0xbc0941ec	-0.008377533
20	0xbca37dfb	-0.019957533
21	0x3d4553c7	0.0481756
22	0xbd7447d5	-0.059638817
23	0xbd3a4967	-0.04548016
24	0x3c91d42a	0.017801363
25	0xbd3583bd	-0.04431509
26	0xbc5d4f44	-0.013507668
27	0x3d3ad38d	0.045611907
28	0x3cec7a94	0.028867044
29	0xbba49753	-0.005022922
30	0x3bcfb834	0.0063390974
31	0x3cdce7bb	0.026965966

Conv_BN_ReLU2.4.weight f4 [32]
0	0x3f7cb87e	0.9871901
1	0x3f77dda2	0.9682256
2	0x3f7c0d8a	0.9845816
3	0x3f7d5fbe	0.98974216
4	0x3f80e5dd	1.0070149
5	0x3f625bf1	0.8842154
6	0x3f833027	1.024907
7	0x3f7ea5d5	0.9947179
8	0x3f674448	0.90338564
9	0x3f7cc3d5	0.98736316
10	0x3f7ef78a	0.99596465
11	0x3f7b5180	0.98171234
12	0x3f8110d1	1.0083257
13	0x3f823318	1.0171843
14	0x3f763ddd	0.96188146
15	0x3f7fcf64	0.9992583
16	0x3f64cbf1	0.8937369
17	0x3f81c332	1.0137694
18	0x3f7ae7c7	0.98009914
19	0x3f80b4ea	1.005521
20	0x3f87cd26	1.0609481
21	0x3f77c5e3	0.96786326
22	0x3f773c00	0.9657593
23	0x3f70dcaf	0.94086736
24	0x3f88d487	1.0689858
25	0x3f6a2261	0.9145871
26	0x3f67b162	0.9050504
27	0x3f79b8d6	0.9754766
28	0x3f88bee9	1.0683261
29	0x3f729f9c	0.94774795
30	0x3f6b7902	0.9198152
31	0x3f76de39	0.96432835

Conv_BN_ReLU2.4.bias f4 [32]
0	0xbe22eb5f	-0.159101
1	0xbde85ee7	-0.11346226
2	0xbdac6341	-0.08417369
3	0xbde6797c	-0.1125364
4	0xbe2a8095	-0.16650613
5	0xbe2d99fd	-0.16953273
6	0xbd9c9c41	-0.076469906
7	0xbdd21277	-0.10257428
8	0xbdc9e257	-0.09857624
9	0xbd65e80e	-0.056129508
10	0xbdaef740	-0.08543253
11	0xbdfb81ed	-0.12280641
12	0xbe188b6d	-0.14896937
13	0xbdb301ef	-0.08740603
14	0xbd7ad64d	-0.06123953
15	0xbd494b10	-0.04914385
16	0xbe29887c	-0.16555971
17	0xbde66706	-0.11250119
18	0xbdc79a88	-0.09746271
19	0xbbf56b63	-0.007489608
20	0xbaf3be7f	-0.0018596201
21	0xbe238ef3	-0.159725
22	0xbda072e8	-0.07834417
23	0xbcb40868	-0.021976665
24	0xbd9f1db2	-0.07769336
25	0xbe269128	-0.1626631
26	0xbe14b1c1	-0.14520933
27	0xbdf95e42	-0.121761814
28	0xbe1477ab	-0.14498775
29	0xbdbf16e0	-0.09330535
30	0xbd976d37	-0.07393878
31	0xbdcf67d7	-0.10127228

Conv_BN_ReLU2.4.running_mean f4 [32]
0	0x3d64f09b	0.05589352
1	0xbe438976	-0.19095406
2	0xbd96fb91	-0.07372201
3	0xbd3bd1bb	-0.04585431
4	0xbf4d56a5	-0.80210334
5	0x3ea43370	0.32070494
6	0xbf98a74d	-1.1926056
7	0xbf1323c8	-0.5747647
8	0xbedba7c9	-0.42901447
9	0xbf31c80f	-0.6944589
10	0xbe4ce702	-0.20009997
11	0x3defe5b0	0.11713731
12	0xbf11537a	-0.56768
13	0xbf3a9fe6	-0.72900236
14	0xbf2cf97d	-0.6756819
15	0xbedbeb1d	-0.42952815
16	0xbf9503f5	-1.1641833
17	0x3d854a44	0.06508306
18	0xbf889791	-1.0671254
19	0xbf1863a2	-0.5952703
20	0xbf7c78b0	-0.98621655
21	0xbee06e9f	-0.43834397
22	0xbeaec4d9	-0.34134558
23	0xbfb72013	-1.4306663
24	0xbea5a1ba	-0.3234995
25	0xbed8b46e	-0.42325157
26	0x3f4ad528	0.792315
27	0xbf77dedd	-0.9682444
28	0xbda24a46	-0.07924323
29	0xbf51c32e	-0.81938446
30	0xbe0e6141	-0.13904287
31	0xbef1abce	-0.4720139

Conv_BN_ReLU2.4.running_var f4 [32]
0	0x3f25fa31	0.64834887
1	0x3ef4cca2	0.47812372
2	0x3f6678b2	0.90027916
3	0x3eb962b9	0.36208132
4	0x3f387746	0.72056997
5	0x3f049809	0.5179449
6	0x3f397d1c	0.72456527
7	0x3ea81a8d	0.32832757
8	0x3f2f415e	0.6845912
9	0x3f0c0912	0.5470134
10	0x3f0c097c	0.5470197
11	0x3f01e001	0.5073243
12	0x3f1a4ce1	0.6027356
13	0x3f1efcb2	0.6210433
14	0x3f10a050	0.5649462
15	0x3f2af065	0.6677306
16	0x3f47eac3	0.7809259
17	0x3ee59252	0.44838196
18	0x3f5b9e85	0.85788757
19	0x3e872dda	0.2640217
20	0x3ee21429	0.44156006
21	0x3f08b06b	0.5339419
22	0x3ebeb27a	0.37245542
23	0x3f281077	0.65650123
24	0x3f001bd3	0.50042456
25	0x3eb74bc5	0.35799995
26	0x3f096bb2	0.53679955
27	0x3f6281ca	0.8847929
28	0x3edcd4f8	0.43131232
29	0x3eb392ed	0.35073033
30	0x3f186006	0.5952152
31	0x3f15a5d8	0.5845618

Conv_BN_ReLU3.0.weight f4 [32, 32, 3, 3]
0	0xbb0fa4ca	-0.002191829
1	0x3d82190a	0.06352432
2	0x3cd488ee	0.0259442
3	0xbd15da37	-0.03658506
4	0x3d9ed692	0.0775577
5	0xbbc008be	-0.005860417
6	0xbb874971	-0.004128628
7	0x3c6d9edb	0.014503206
8	0x3c3bbab1	0.011458085
9	0xbbcadf66	-0.006191182
10	0xbcd282e3	-0.025697177
11	0x3d06ecd8	0.032940716
12	0xbcecd803	-0.028911596
13	0x3d4f7496	0.050648294
14	0x3d535679	0.05159614
15	0xbc80d39e	-0.015725907
16	0x3c941a5b	0.018078974
17	0xbcc69e8f	-0.024245529
18	0xbd10b084	-0.03532459
19	0xbd829880	-0.06376743
20	0xbd54393d	-0.0518124
21	0xbd9917ad	-0.07475219
22	0xbcba1f35	-0.022719959
23	0xbd6168e5	-0.055031676
24	0x3c88d666	0.016703796
25	0xbca72b7a	-0.020406473
26	0xbcdd288f	-0.026996879
27	0xbd0b0c5c	-0.033947334
28	0xbd00a64f	-0.031408604
29	0x3ccaea09	0.0247698
30	0xbd92f736	-0.07176058
31	0x3d35c536	0.044377528
32	0x3ce45fc2	0.027877692
33	0xbc26ed08	-0.010188349
34	0x3c8c81d5	0.017151752
35	0x3c71ed5c	0.014766064
36	0xbc88df6c	-0.016708098
37	0x3abe2d04	0.0014509265
38	0x3c29cb88	0.010363467
39	0x3d7d7c2d	0.061886
40	0x3c8f2a71	0.017476292
41	0x3d12840a	0.035770454
42	0xbd82fb4e	-0.06395589
43	0xbc79f7fe	-0.01525688
44	0xbd063793	-0.032767843
45	0xbd05f679	-0.032705758
46	0xbcca586e	-0.02470037
47	0xbd2e4deb	-0.042554777
48	0x3c969d4e	0.018385556
49	0xbba657d0	-0.005076386
50	0x3cc3f862	0.02392215
51	0xbddc42b2	-0.107549086
52	0xbc6a0916	-0.014284393
53	0xbc7c8d9f	-0.0154146245
54	0x3cf24add	0.029576713
55	0x3ab46542	0.0013763087
56	0xbd917457	-0.07102268
57	0xbd9abe44	-0.075558215
58	0xbdc26d59	-0.09493513
59	0xbe144223	-0.14478354
60	0xbd6ae00d	-0.057342578
61	0xbd5e1205	-0.054216404
62	0xbdc3d86c	-0.095627636
63	0x3d3a1d7b	0.04543827
64	0x3d82b085	0.06381325
65	0x3d365b2c	0.044520542
66	0x3d97de36	0.0741543
67	0xbd11d81b	-0.035606485
68	0xbc075073	-0.008258927
69	0x3c9f7e06	0.019469272
70	0x3d50ede1	0.05100811
71	0xbc25268c	-0.010079991
72	0xbcd0e54c	-0.025499962
73	0xbb436691	-0.0029815773
74	0x3cc95267	0.024575425
75	0x3d898a54	0.06715837
76	0x3c4502c5	0.012024586
77	0xbb88613f	-0.0041619833
78	0x3d4cd019	0.050003145
79	0x3d915c8d	0.07097731
80	0x3c18a97f	0.009317755
81	0xbd995527	-0.07486945
82	0xbd105592	-0.035237856
83	0x3ccc2bd9	0.024923252
84	0x3b863c6f	0.0040965597
85	0xbcae2bc9	-0.021261113
86	0xbb03f949	-0.00201376
87	0x3d642890	0.055702746
88	0x3cb99c75	0.022657612
89	0x3cf5417b	0.02993845
90	0xbdad64bd	-0.0846648
91	0xbc4e2d41	-0.012584032
92	0xbc932899	-0.017963694
93	0xbdbf101b	-0.09329244
94	0xbdb00011	-0.08593763
95	0xbd722553	-0.059117626
96	0xbd379bd9	-0.044826362
97	0xbc8435af	-0.01613888
98	0xbcf0900a	-0.029365558
99	0xbd3874d1	-0.04503328
100	0x3d0b996e	0.03408187
101	0xbc0c9d3d	-0.00858241
102	0xbd5bd3e6	-0.05366888
103	0xbd0bc1de	-0.034120433
104	0xbc440aa6	-0.011965429
105	0xbd005769	-0.03133336
106	0xbd01d84a	-0.03170041
107	0xbd8b757e	-0.06809519
108	0xbc215da9	-0.0098489905
109	0x3dbb4ba7	0.09145289
110	0x3d416b61	0.047221545
111	0xbcc33c3b	-0.023832431
112	0x3d2900c2	0.04126049
113	0x3c73ad65	0.014872883
114	0xbd43f0ec	-0.047837183
115	0xbb5b1348	-0.003342824
116	0x3d221255	0.039568264
117	0x3d5cc1fc	0.053895935
118	0x3d2989b6	0.041391097
119	0x3c122ead	0.008922261
120	0x3d852060	0.06500316
121	0x3c866454	0.016405262
122	0xba9897a9	-0.0011641878
123	0x3def829e	0.11694835
124	0x3dd30398	0.1030342
125	0x3d856e57	0.06515186
126	0xbda2a379	-0.07941336
127	0xbd2b7b99	-0.04186592
128	0x3c6b9589	0.014378914
129	0xbda22086	-0.079163596
130	0xbceaf169	-0.028679566
131	0xbdae7e53	-0.08520188
132	0xbd150324	-0.03637995
133	0xbddf9372	-0.10916795
134	0xbd00dfa6	-0.031463288
135	0x3d10829f	0.03528082
136	0x3cb6750e	0.022272613
137	0xbbce51f5	-0.006296391
138	0x3db0d922	0.08635165
139	0x3dd6ff3f	0.10497903
140	0x3c9afc6a	0.018919189
141	0x3d94d34e	0.07266866
142	0x3d4f4c71	0.05061001
143	0xbb8ebdf4	-0.0043561403
144	0xbb425ed2	-0.0029658568
145	0x3df29c3e	0.11846207
146	0x3c676f72	0.014125692
147	0xbc951635	-0.018199066
148	0x3c85c6f6	0.016330224
149	0x3d467ff5	0.048461873
150	0xbd8c0641	-0.0683713
151	0x3d06eb95	0.032939512
152	0xbd25c8c5	-0.040474672
153	0x3b8bb52d	0.004263541
154	0x3cc81140	0.024422288
155	0xbdcb6f6a	-0.0993336
156	0x3c2f5fef	0.010704025
157	0x3d799ac3	0.060938608
158	0x3cd62858	0.026142284
159	0xbc37aa49	-0.011210033
160	0x3d834d17	0.06411188
161	0xbc8eb2f6	-0.01741932
162	0xbd925a25	-0.071461
163	0x3d130d5e	0.03590142
164	0xbd80ab42	-0.06282665
165	0xbd07adb6	-0.033124648
166	0xbd0e2929	-0.034707222
167	0xbcaa8ecd	-0.020820046
168	0xbd65b40b	-0.056079905
169	0x3cb279f3	0.021786666
170	0x3c3d6219	0.011559033
171	0xbcf2789d	-0.029598529
172	0x3c18e735	0.009332468
173	0xbd3e4b70	-0.04645866
174	0xbcf0377e	-0.029323336
175	0x3d390217	0.04516801
176	0xbcca2044	-0.024673589
177	0x3d23982d	0.039940048
178	0x3ceb56da	0.028727937
179	0x3ca08ca0	0.019598305
180	0xbd7955b5	-0.060872752
181	0xbc8a0a66	-0.016850661
182	0xbd5bd510	-0.05366999
183	0xbd6577b3	-0.056022357
184	0x3b45a39b	0.003015733
185	0x3ca5003c	0.020141713
186	0xbc7a36da	-0.015271867
187	0x3d1195fd	0.03554343
188	0x3dbba8b5	0.09163038
189	0xbcffd7b6	-0.031230789
190	0x3c88ed4f	0.01671472
191	0x3d0a3669	0.033743296
192	0xbd982406	-0.07428746
193	0x3cea8690	0.028628618
194	0xbd2bf0ea	-0.0419778
195	0xbdfd1b94	-0.12358776
196	0x3be181c7	0.0068819257
197	0xbd83e7c5	-0.06440691
198	0xbd554bfc	-0.052074417
199	0xbd7c0546	-0.061528467
200	0xbcc9b0d2	-0.024620447
201	0xbd774181	-0.060365204
202	0x3c538e09	0.012912282
203	0xbbcb89dd	-0.006211503
204	0xbd554b39	-0.05207369
205	0xbc8b5634	-0.017008878
206	0xbcddbe11	-0.02706817
207	0xbcd93a9a	-0.026517201
208	0xbcbd4e15	-0.023108521
209	0x3d1eb94a	0.038750924
210	0xbda0ac4d	-0.07845364
211	0x3bcb54d7	0.006205182
212	0xbcedb716	-0.029017966
213	0x3caa3d43	0.020781165
214	0xbd99d355	-0.075110115
215	0xbd6a01bd	-0.057130564
216	0xbe21175b	-0.15731566
217	0xbe4703b2	-0.19435003
218	0xbda457e5	-0.08024577
219	0xbe3abf93	-0.18237142
220	0xbe2f8325	-0.17139871
221	0xbe2f1333	-0.17097168
222	0xbe52cc1b	-0.20585673
223	0xbe6e54a8	-0.23274481
224	0xbe227fb6	-0.1586903
225	0x3d816644	0.06318334
226	0x3de2a0f0	0.11065853
227	0x3c203616	0.00977852
228	0x3c325594	0.010884661
229	0xba41631f	-0.0007377136
230	0xbd76f47f	-0.060291763
231	0x3c966da3	0.018362826
232	0x3daa41f9	0.083133645
233	0xbda10154	-0.078615814
234	0xbd119bd5	-0.035549004
235	0x3c24607b	0.010032768
236	0xbce705db	-0.028201034
237	0xbd6f2b38	-0.058390826
238	0xbccb98e6	-0.024853181
239	0xbb902045	-0.004398378
240	0x3d563b0a	0.052302398
241	0x3cc0a57f	0.023516415
242	0x3d335e49	0.04379109
243	0xbd8f17b9	-0.069869466
244	0x3c8d1538	0.017222032
245	0x3c7e4cfb	0.015521283
246	0xbd6c6591	-0.05771405
247	0x3c670866	0.014101123
248	0xbd5b0287	-0.053469207
249	0xbcb90cf1	-0.022589179
250	0xbca274b9	-0.019831048
251	0xbd0c7982	-0.034295566
252	0xbc0f08da	-0.008730138
253	0x3da09f01	0.078428276
254	0x3d712fa5	0.058883328
255	0xbd434892	-0.04767663

Conv_BN_ReLU3.0.bias f4 [32]
0	0xbce7b20a	-0.028283138
1	0x3c5ade56	0.013358673
2	0xbce36e6d	-0.027762616
3	0xbcad2944	-0.021137841
4	0x3ae0f610	0.0017163176
5	0x3ccf2aa5	0.02528889
6	0x3c582c52	0.013194161
7	0x3d6517fc	0.055931076
8	0x3c58ced5	0.013232906
9	0xbd69ac0a	-0.057048835
10	0xbca51e7a	-0.020156134
11	0x3be4fbb3	0.0069880127
12	0xbcef09c1	-0.029179456
13	0xbcdaf635	-0.026728729
14	0xbcec3826	-0.028835367
15	0xbc778a9b	-0.01510873
16	0xbc1965e9	-0.009362676
17	0xbd79f81d	-0.061027635
18	0xbc821239	-0.01587783
19	0x3d56f67c	0.05248116
20	0xba4a1bb1	-0.0007709815
21	0xbcfa9e69	-0.030593114
22	0x3d52bf34	0.051451877
23	0xbd3bd410	-0.045856535
24	0xb99ff99e	-0.00030512823
25	0xbcb2c1ec	-0.021820985
26	0xbd12a173	-0.0357985
27	0x3d07a616	0.033117376
28	0x3ce47afe	0.027890678
29	0xbd258a32	-0.040414996
30	0xbd6f4b57	-0.05842146
31	0x3b5226b3	0.0032066524

Conv_BN_ReLU3.1.weight f4 [32]
0	0x3f7db99d	0.9911135
1	0x3f81132c	1.0083976
2	0x3f7ddd24	0.9916556
3	0x3f741356	0.95342004
4	0x3f7e362f	0.9930143
5	0x3f79b212	0.9753734
6	0x3f70a61a	0.9400345
7	0x3f6e5a64	0.93106675
8	0x3f74afeb	0.9558093
9	0x3f82de04	1.0224004
10	0x3f739be8	0.9515977
11	0x3f770ec1	0.9650689
12	0x3f8762d5	1.0577036
13	0x3f7bac9e	0.9831027
14	0x3f872602	1.0558474
15	0x3f74fb3d	0.9569586
16	0x3f896e86	1.0736854
17	0x3f72b872	0.9481269
18	0x3f8a78d6	1.0818126
19	0x3f88f852	1.0700781
20	0x3f62c293	0.88578147
21	0x3f80ea5c	1.0071521
22	0x3f825ab0	1.0183926
23	0x3f74c9c3	0.95620364
24	0x3f820379	1.015731
25	0x3f87f003	1.0620121
26	0x3f7dd618	0.99154806
27	0x3f7fdd87	0.999474
28	0x3f8ba5a0	1.090992
29	0x3f7ec88e	0.9952477
30	0x3f725302	0.9465791
31	0x3f7de578	0.99178267

Conv_BN_ReLU3.1.bias f4 [32]
0	0xbdad82f6	-0.084722444
1	0xbc962ef9	-0.018332945
2	0xbdea2e63	-0.11434629
3	0xbd5c263c	-0.0537474
4	0xbd9f2e02	-0.07772447
5	0xbdc0c9c9	-0.094134875
6	0xbd7bf8ef	-0.0615167
7	0xbe95044a	-0.29104835
8	0xbd8ad44b	-0.06778773
9	0xbda08f8c	-0.078398794
10	0xbe06cac1	-0.13163282
11	0xbe090b04	-0.13383108
12	0xbe406897	-0.18789898
13	0xbde91a15	-0.11381928
14	0xbdb8c69c	-0.09022257
15	0xbdfbdebb	-0.12298342
16	0xbe8b20e0	-0.2717352
17	0xbe199dc5	-0.1500159
18	0x3dcdda7d	0.10051439
19	0xbe1d7d44	-0.15379816
20	0xbe2d2cf8	-0.16911685
21	0xbd92d4ea	-0.071695164
22	0xbdf87275	-0.12131206
23	0xbda3c75a	-0.07997008
24	0xbe2cc0fd	-0.16870494
25	0xbddfa058	-0.10919255
26	0xbe220f16	-0.15826067
27	0x3c165292	0.00917496
28	0xbb1f604d	-0.0024318874
29	0xbe3710d2	-0.1787751
30	0xbe3c3f35	-0.18383487
31	0xbe70c41a	-0.23512307

Conv_BN_ReLU3.1.running_mean f4 [32]
0	0xbff010ba	-1.8755105
1	0xbeec33e6	-0.46133345
2	0xbeb1c5f8	-0.3472135
3	0xbff24f07	-1.8930367
4	0xbf8d9a20	-1.106266
5	0xc015d5af	-2.3411672
6	0x3fb30093	1.398455
7	0x4003eaa7	2.061197
8	0xc047a566	-3.1194701
9	0xbe64b9da	-0.22336522
10	0xbfce0e1f	-1.609806
11	0xc040527e	-3.005035
12	0x3ed917d4	0.42400992
13	0x3f85d71a	1.0456269
14	0xbe4d6905	-0.20059593
15	0x3e52bb83	0.20579343
16	0x3f7dc219	0.99124295
17	0xbf3923bf	-0.7232017
18	0x3eb4fccb	0.35349116
19	0xbe5efd76	-0.21776375
20	0xbddf92a5	-0.10916642
21	0x3fdfda32	1.7488463
22	0xc0104ad7	-2.2545679
23	0x3d7db21f	0.061937448
24	0x3f01585f	0.5052547
25	0x3dfbbc21	0.12291742
26	0x3faa2cf3	1.3294967
27	0xbe937321	-0.28798774
28	0xbd0b3137	-0.03398248
29	0xbf6b80b0	-0.91993237
30	0xc04793eb	-3.1184032
31	0x3fb47261	1.4097406
